checkpoints/pacman_ram/100.pt (torch_old, 142093 bytes, 4 tensors)

fc1.weight f4 [256, 128]
00000000: 281f a7bd 7c8c 1f3c ec7b aabd a2e0 95bd
00000010: 13df 453c 64d3 6bbd 198d a53d 4d64 083d
00000020: 1f08 e73c 314f 523d 533a 31bb 4bfa 39bc
00000030: 7323 253d 57dd 42bd f2e7 69bc ddc0 0d3c
00000040: cc7a c43c c48e fabc 8b30 24bd e485 67bb
00000050: f623 1f3d daa0 2dbd c913 97bd d46f 1dbd
00000060: 685d 94bc 7ad9 a73b 9ae6 263c 62c1 a4bd
00000070: 6299 0c3c 1830 73bd fc29 9f3d b5bd c33c
00000080: 7697 d23c e3ea d4bc 31fb a2bd f332 53bd
00000090: f694 7abd 9fa4 443d 5152 b3bc 7acb 38bd
000000a0: 9fc0 a2bd a6ed 58bd e66f a03d e042 b1bd
000000b0: 4904 e4bc 5449 91bd 5753 a4bd af7b e3bc
000000c0: 8a80 963c 9df2 a4bd f5ae 54bc 11f8 0ebd
000000d0: 0ff4 ba3d 2def af3b bf13 f739 3609 a83b
000000e0: b3ee 9f3c 409b 9e3a 2459 7a3d d3cf 933d
000000f0: 93db 1b3d 5b18 50bb 14ad f93c 4ae1 793d
00000100: 397a e33c c09c 53bd 00f3 7bbd 8716 a53d
00000110: 93bb 61bd eab3 2b3b 4586 b23c fd90 093d
00000120: dc4b c0bc 6830 44bc 4b70 95bc b538 b13c
00000130: 99a0 843d 3f0d 0c3d 9fd9 b13a 69e9 bf3a
00000140: 81f3 a43d 0204 963d ef69 62bd c3a6 9abc
00000150: 2f35 eb3c e715 97bd 11c7 9bbd 58e1 8c3d
00000160: dfd0 563d 2d87 663d f49c 8fbc 9b9b a4bd
00000170: df7a 65bd 6380 993d e9fe 1abd 05c4 ab3d
00000180: c289 7b3d ffba 5c3c b795 033d 4f2b 5fbd
00000190: 845f 3abc 2885 27bd 4db2 aa3d 831f ac3d
000001a0: 7a89 a8bd 3830 c4bc 21ed 803d a5b6 81bc
000001b0: 8e3e 7e3d c26b e13c cb29 ff3c 3859 ae3c
000001c0: 9890 37bd 032f 6dbd be84 523d 8607 72bd
000001d0: 9f59 9d3d 3926 003d 3a4f 113d 26a0 83bd
000001e0: e831 0b3d 8329 443c 2021 cf3b d7ce ccbc
000001f0: cd0d 743d 9012 60bc c2fd aa3d e5d5 963d
00000200: c70c 843d 0c9d bd3c bf22 85bd 2b83 a63c
00000210: 2bbf 853d 18fb 1b3d 0868 43bc 355f 0a3c
00000220: 1049 8fbd a734 31bd 54fc 913d 70dc 93bd
00000230: bbf9 353d ddba f83b 341f 8d3d 70ac 6ebd
00000240: 5bb4 4c3a 87c1 913c d594 b6bc e9d4 98ba
00000250: 982a 8cbc 191d 36bd 1a6e 613d 2c73 e83c
00000260: 11e3 29bd 2b20 0dbd 94ac e2bc 36d6 6fbd
00000270: 3509 babd f9a4 573d db44 6d3d 29c2 b43c
00000280: 449a 473d ac86 aabd 50b4 1dbd 4eab dbbc
00000290: f792 85b9 80f3 91bd 2f74 2c3d 7dba aebd
000002a0: 5eb4 363d 523e a73d f13f 92bd 1464 0b3d
000002b0: 172b 743d 2787 433d 1860 a63c e0d7 8f3a
000002c0: 6d94 79bd 0307 57bb 66be 75bc 8410 423c
000002d0: 78f3 043d 2318 323c e547 43bd 26b4 3b3d
000002e0: 197c 5a3d 0466 f9bc 6524 a3bd a3cb a53d
000002f0: 258a b43c 6766 04bd 70ad 0d3d abc4 4b3c
00000300: 9e33 4d3d 4ff0 f1bc 1f81 903a f249 383d
00000310: 31ea 953c eeb8 04bc d616 97bb 0a1e aa3c
00000320: abd4 75bd a9a4 963d 673a 8bbd a2d0 273b
00000330: 3757 66bd 839f d7bc 6084 093d f8e2 b0bb
00000340: d4eb a0bd a9e6 8e3d 8059 9d3d 541a 4cbb
00000350: 71da 063d ac71 bc3c fd90 923d 3f24 30bd
00000360: 1b4d 073d 62f3 a2bd df8a b4bc 020d b5bd
00000370: 5cc3 4fbd 3457 713d b776 ea3c f451 27bd
00000380: 7705 9a3d 73b4 153d 4993 a5bd 4735 86bd
00000390: 86a3 a5bd 5127 8fbd dcd3 123d 175a 5cbd
000003a0: 555b 6b3c e3d2 07bd cade c43b 736a 3fbd
000003b0: e2b8 4e3d 031e 8ebd 961c abbd 08ee 713c
000003c0: 5be0 22bc 2924 a73d df5e a7bd 3a5b 55bd
000003d0: 54a4 37bc 2ba5 ff3b d86a a43d 4300 9c3c
000003e0: 24e2 a8bd d357 8d3d c0e5 a0ba 014f 42bc
000003f0: 5fbb 2ebd bbf4 aebd bdee 90bd e356 813c
-0.081602395 0.009738084 -0.083244175 -0.07318236 0.012077111 -0.057574645 0.08083553 0.03329878
0.028202115 0.051345054 -0.002704282 -0.011351178 0.04031701 -0.047574367 -0.0142764915 0.008651939
0.023984335 -0.030585654 -0.040085357 -0.0035327608 0.038852654 -0.042389728 -0.073768206 -0.038436726
-0.018110946 0.005122361 0.010186816 -0.08044697 0.008581491 -0.059372038 0.0777168 0.02389417
0.025706988 -0.025990909 -0.07958067 -0.05156226 -0.061177216 0.048008557 -0.021889837 -0.045115925
-0.07946896 -0.052961014 0.07833843 -0.086553335 -0.027834075 -0.07094064 -0.08023708 -0.027768938
0.01837184 -0.08054087 -0.012981166 -0.034904543 0.09128582 0.005369088 0.00047126223 0.005128051
0.019523 0.0012100711 0.061120167 0.07217374 0.0380512 -0.0031752798 0.030478038 0.061005868
0.027768241 -0.05166316 -0.06151104 0.080609374 -0.055110525 0.0026199766 0.02179254 0.033585537
-0.023473673 -0.011974432 -0.018242022 0.021633485 0.06475944 0.03419232 0.0013568884 0.0014641705
0.08054257 0.07324983 -0.055276807 -0.018878346 0.028711883 -0.073772244 -0.07606328 0.068789184
0.05244529 0.056281257 -0.017530896 -0.08037492 -0.056025382 0.07495191 -0.037840758 0.08386997
0.061410673 0.013472318 0.0321252 -0.05448466 -0.011375312 -0.040898472 0.083347894 0.08404448
-0.082293466 -0.023948774 0.06295229 -0.015834162 0.062071376 0.027517203 0.031147858 0.021282777
-0.04481563 -0.057906162 0.051396124 -0.059089206 0.076831095 0.031286452 0.035475947 -0.0642703
0.03398314 0.011972788 0.0063210875 -0.025000973 0.059583474 -0.013676301 0.08349182 0.07365016
0.064477496 0.023146175 -0.06500768 0.020326218 0.06530603 0.03808126 -0.011926658 0.008445551
-0.069963574 -0.043263104 0.07128206 -0.072197795 0.044427615 0.007590635 0.06890717 -0.058269918
0.00078088575 0.017792476 -0.022287766 -0.0011660132 -0.017110154 -0.044461343 0.05503664 0.02837523
-0.041476313 -0.034454506 -0.027670182 -0.058553897 -0.09083787 0.052647565 0.057926994 0.022065239
0.048731104 -0.08326468 -0.038502038 -0.026815083 -0.00025477234 -0.07126522 0.04210299 -0.085316636
0.044605605 0.081661835 -0.07141102 0.03403099 0.059611406 0.047736313 0.020309493 0.001097437
-0.060932565 -0.0032810576 -0.014999008 0.011844758 0.032458752 0.010870012 -0.047675986 0.0458261
0.053341005 -0.030444153 -0.07965926 0.08095481 0.022038529 -0.03232422 0.03458923 0.012437026
0.050098054 -0.029533533 0.0011024809 0.044992395 0.018300148 -0.008100731 -0.0046108766 0.020766277
-0.06001727 0.07355625 -0.06798249 0.0025606533 -0.05623552 -0.026321178 0.03357351 -0.0053981505
-0.07857481 0.06977589 0.076830864 -0.0031143622 0.032923166 0.023003422 0.071565606 -0.043003317
0.033032518 -0.07956578 -0.022038875 -0.08840372 -0.05072342 0.058921054 0.02862106 -0.04084964
0.075205736 0.036549043 -0.08084733 -0.065531306 -0.0808783 -0.06989921 0.035846576 -0.053796854
0.014365037 -0.0331601 0.006008004 -0.046732377 0.050469287 -0.06939318 -0.08355062 0.014766224
-0.009941186 0.08161194 -0.08172392 -0.052088954 -0.0112086125 0.007801672 0.08028191 0.019043094
-0.08246258 0.06901517 -0.0012275502 -0.011859656 -0.04265916 -0.085427724 -0.07076786 0.015788501

fc1.bias f4 [256]
00000000: 453a b53d f2f9 54bd 7129 013d 14e0 2ebd
00000010: 1cd1 c43c 9004 b3bd 4e08 8dbc 6e5a 2bbd
00000020: d6f5 0ebd 302b a63d 12ab 623d 06af 8eba
00000030: fd1e 653d ca67 2c3d 47cd a83d 33b1 8abd
00000040: 7f2d bf3c 2f2b 2bbd 70bb b73c a2c5 083d
00000050: 8c0f 1c3d 66f2 3e3c 8d5a 5c3d 987b 033c
00000060: b3c0 24bd 151f 1abd 5deb 89bc c29f b93c
00000070: 76e1 413d 6f89 98bc d05a fa3c f2c7 fc3b
00000080: 3224 b1bd 94b3 88bd 18d4 c7ba 3d35 cfbc
00000090: 4473 2c3b 9c6d 953d e5a1 68bd e1fb a73d
000000a0: f7b8 813d 7714 8a3d cd29 fdbc d7dc 3c3d
000000b0: 811c e3bc 27da 013d 44ae 963c 89f4 b53d
000000c0: d632 39bd 69ea 813b 2883 7c3c 213c 7c3c
000000d0: ac15 7f3d 807a 5aba e4bb 42bd 60db abbd
000000e0: 0ea6 1e3d e66a 263d f32c 923d eb96 4bbd
000000f0: 38e6 88bd 5e9c 253d 5a50 72bc 6345 81bd
00000100: 5e4d 8fbd e154 953d ac7e 8f3d 6ca9 b13c
00000110: b74d 92bd c0d5 5ebd 35d3 85ba 2e0e b7bd
00000120: 07a2 a33d 1b35 99bc 5768 26bd 8876 81bd
00000130: 3ad3 753d ca22 703d 61f3 8b3d 22d7 1a3d
00000140: 9101 263b bbfb 95bd e432 a2bd acc8 a8bd
00000150: 3ccb a6bc 3628 603d 009b 5c3d b15c 293a
00000160: 3724 ecbc 0da3 8fbd 17aa 9dbd 1fd9 843d
00000170: 3898 09bd bc08 4c3c ef59 1cbd 6323 933d
00000180: 8898 993c 664e a3bd 786d bdbc 4dfe aebd
00000190: 458f 5dbd 3023 953d 55e3 89bd 462c eabc
000001a0: 129b adbd 90c3 ccbc 9c80 4a3d 5225 f3bc
000001b0: f6ee e2bc 524d 31bc 2e0f a5bd 2e8b d0bb
000001c0: e92c 873d 4e5e 56bd 752a 4fbd 067f 043d
000001d0: 1df8 d13b 3ff7 20bd c448 24bd 03ed 473c
000001e0: d9ef 613d 7a74 1c3c 15b1 953d a058 7f3b
000001f0: 0ecb 00bd f1c1 1a3c 026f b9bd ec74 993d
00000200: 4d90 853d 0011 f0ba c6b4 c03c a881 7b3d
00000210: a643 16bd ebd5 9e3d 424d 633d 36a8 37bd
00000220: 078b 53bd 800b 4abd 55c2 a3bd 7be1 b4bd
00000230: 5d99 263d a62f 373d bb5e 9c3d 3e66 4a3c
00000240: ac5a 8dbc cbf9 2fbd a48c 22bd fa17 053d
00000250: 5b77 78bd f3c7 27bd 27f9 143d 30de 3a3d
00000260: ea4d a63d 8a71 433c 33ca 013d 888a f03c
00000270: 03e2 803d 51ea 3a3d bb8d 42bc 4799 c3bc
00000280: 39af 30bc c7cc 493d a2f7 693d ac72 f43b
00000290: d735 13bd 5f42 83bc 5284 9dbd bce7 8f3c
000002a0: 624c 8b3d ce43 e4bc 4981 32bd d834 9c3d
000002b0: 0c1a a93d d5a4 a63d 1ee5 8bbd b6f8 a73d
000002c0: f8ad 833d 47b7 923d 5bf8 37bc 9086 23bc
000002d0: 57dd 393c b99e 67bd 877c 833d b6e2 a0bd
000002e0: 8fda 903d d62d 3b3d eb1d 3ebd e508 efbc
000002f0: d18b 79bd 393c 703d e484 5d3d 233b f2ba
00000300: 0e59 733d bbf9 9a3d 704e e43c 58e3 e63c
00000310: 68cb f93c 743f 3dbd 4185 03bd 4554 3b3d
00000320: af4c 3f3d a128 953c bfbd a43b af64 483d
00000330: 1c7c a6bd 1b3d 543d 6c05 72bd f01a 52bd
00000340: 2e4b 90bd 97b1 fb3c f259 aabd 2047 ca3b
00000350: 860b 8b3c d744 aebc f806 fb3c 1cac 073d
00000360: 937a 91bd a5bf 49bd 864c 2cbc cbe5 a63d
00000370: 54ec ad3c 6279 30bd 7999 26bd 6dd9 af3c
00000380: 9156 8fbd 9d84 513c 2b33 8abd 65b2 c63c
00000390: 6d58 5c3c c633 0dbd a310 43bd 329d 5d3c
000003a0: c69c 0b3d 497b 9a3d dc45 283d cde5 913d
000003b0: dba7 5fbc c915 e53b 5346 e13c e288 3c3d
000003c0: 97dd 0f3d ef0c e5bc 664e e03c 77e9 0ebd
000003d0: 149a 96bd 03d7 493c 5bf6 91bd cca0 70bd
000003e0: 5844 87bd e4fa b2bd 988f 57bd 5b94 743d
000003f0: e72b 403c 601f fd3b c7c5 8abd f400 e2bc
0.08849005 -0.05199618 0.031533662 -0.042694166 0.024025492 -0.087411046 -0.017215874 -0.041834287
-0.034902416 0.08113706 0.055338927 -0.0010885901 0.055937756 0.04209117 0.082422785 -0.06772079
0.023337124 -0.04178923 0.022428244 0.033391602 0.038100764 0.011654472 0.053797293 0.0080250725
-0.040222835 -0.0376273 -0.016835863 0.022659186 0.047334157 -0.018620221 0.03056088 0.007714265
-0.08649482 -0.06674877 -0.0015245704 -0.02529394 0.002631382 0.07296297 -0.05679502 0.08202339
0.06334107 0.067421846 -0.030903721 0.046109047 -0.027723553 0.031702187 0.018393643 0.08884532
-0.045214497 0.0039647114 0.015412129 0.015395195 0.062276527 -0.0008334294 -0.047542468 -0.08391452
0.03873258 0.04062929 0.0713748 -0.049704473 -0.06684536 0.040432326 -0.014789665 -0.063120626
-0.069971785 0.0729158 0.070065826 0.021687232 -0.07143729 -0.054403067 -0.0010210039 -0.089382514
0.07989889 -0.01870208 -0.04062685 -0.06321436 0.060015894 0.058626927 0.0683353 0.037802823
0.0025330523 -0.073234044 -0.07919863 -0.082414 -0.020360582 0.05472585 0.053858757 0.00064606505
-0.028825862 -0.07013521 -0.07698458 0.06486725 -0.033592433 0.012453254 -0.038171705 0.07184484
0.01874949 -0.07973938 -0.023123488 -0.08544598 -0.05409171 0.07282102 -0.06732813 -0.028585564
-0.08476843 -0.024995595 0.049439058 -0.029680882 -0.027701836 -0.010821657 -0.08059536 -0.0063642478
0.06600363 -0.05233603 -0.0505776 0.0323477 0.0064077512 -0.039298292 -0.040108457 0.012202504
0.055160377 0.009549255 0.07309166 0.0038962737 -0.031443648 0.009445653 -0.09054376 0.07493004
0.06521664 -0.0018315613 0.0235237 0.061402947 -0.03668561 0.07755645 0.0554936 -0.044838153
-0.05164626 -0.049327374 -0.0799605 -0.088320695 0.040673602 0.044723175 0.07635256 0.012353478
-0.01725515 -0.04296283 -0.039684907 0.03249357 -0.0606607 -0.04096217 0.036370423 0.04562205
0.0812033 0.011928925 0.031686973 0.029362932 0.06293108 0.045633618 -0.0118746115 -0.0238768
-0.010783964 0.049267557 0.057120927 0.007459959 -0.035940018 -0.01602286 -0.07691254 0.017566554
0.06801678 -0.027864363 -0.043580327 0.07627267 0.08256921 0.08136908 -0.0683081 0.08201735
0.06429666 0.07163864 -0.011228646 -0.009980813 0.011344275 -0.056547854 0.06420236 -0.07855742
0.07072937 0.04569801 -0.04641525 -0.029179046 -0.060924355 0.058651183 0.054081813 -0.0018480759
0.0594111 0.075671636 0.027869433 0.028184578 0.0304925 -0.04620309 -0.032109503 0.045734663
0.04670399 0.01820785 0.0050275023 0.048924144 -0.08129141 0.051816087 -0.059087202 -0.05129522
-0.070455894 0.03072433 -0.08317937 0.0061730295 0.016973268 -0.02127306 0.030642971 0.03312312
-0.07103457 -0.049255032 -0.0105162915 0.08149298 0.021230854 -0.04308451 -0.040673707 0.021465981
-0.06998933 0.012787965 -0.06748041 0.024254987 0.013448817 -0.034473203 -0.047623288 0.013526248
0.034085058 0.07543046 0.041082248 0.07123909 -0.01365086 0.0069911224 0.027499354 0.04602898
0.035123434 -0.027960269 0.027381133 -0.03489062 -0.07353607 0.012319329 -0.07127067 -0.058747098
-0.066048324 -0.0873926 -0.052627176 0.059711795 0.011729217 0.0077246875 -0.06776004 -0.027588345

fc2.weight f4 [9, 256]
00000000: 60b3 efbb 9165 b7ba c9e3 133d 8070 e4ba
00000010: 84c9 52bd cdca 393c eec1 8c3c beb6 4fbd
00000020: a856 41bc e078 143d 6046 01bd d7f1 42bd
00000030: 7d62 613c c499 7bbc 28f5 67bd 253d c6bb
00000040: 5547 a1bc 30ed 3a3d 62df 813b 1d8a 213d
00000050: ea4e 55bd a0e9 123d 4f75 57bc fce3 e1bc
00000060: 3ca7 cb3c a8e2 4bbd bca1 1c3d 39ec cfbc
00000070: 95f3 c2bc ca93 20bc 84de f0bc e4d8 543d
00000080: c9fa 17bd 85a9 3e3d ad25 213b c29e f0bc
00000090: 75bb d0bc 9f7d 0abd 2008 febc da9e 34bd
000000a0: 3b5d 31bd a952 4ebd b8fd a93a 7e0b 293b
000000b0: 946d 57bd 83f7 5a3d 2cae d13c ba9c 8bbc
000000c0: 3075 e0bb 3ad1 efbc 02f5 5a3d 8b44 293d
000000d0: ba6b 9bbc e4de 05bd c80e 0ebd 00d1 9939
000000e0: 9486 5bbd 2c1e 86bc 8ac0 0d3d 056d 38bc
000000f0: cbd2 32bd d433 493d b8ef a43b 00c4 233b
00000100: de5c 663d 386f 7bbd 3a5a 3cbd 50b0 bb3c
00000110: 3ee8 153d 3853 8cbc e940 d8bb 4a18 933c
00000120: fa9a 09bd dd6a 1f3d 3c35 6dbd fd6a 2abc
00000130: d0cf a23b 504b 8dbb d864 58bc abc2 09bd
00000140: 3ee2 ffbb d39e f7bc eba9 393d 485d a5bc
00000150: 064d 5bbd 00fa 66bd 8f4b 1f3d 8243 0fbd
00000160: 178e 423d 3f29 103d 6bee 453a 582a 83bc
00000170: fd75 5cbc 2652 2e3c 4a3a 253d 1725 103d
00000180: 001e 5bbb c882 933c d403 2fbd 81ec 953c
00000190: 2af8 5abc b67c 0dbd 2315 4a3b 66ba 1a3d
000001a0: 5eba 9bbc 933a 1e3c 566c f73b 2489 503d
000001b0: b60a a8bb 622f 0bbd e549 3fbd f50c 41bd
000001c0: 7743 423d 3796 423d 86ed 27bc 0bc7 4bbd
000001d0: 590f 4f3d a712 abbb b02b 343c 95db e03a
000001e0: 3e3d 6bbd 73bc 143d 56e2 143d e89d ddbc
000001f0: e92c 5c3d f28a 31bd 5c34 db3c 9b1e 983c
00000200: 4c81 793d f082 033d ecbf 9ebc 8cab 0b3c
00000210: d93f 54bd 98ae 2fbc fb51 1d3d 72c4 05bc
00000220: 2331 1ebd 0286 e73c 7161 223d d2c9 383d
00000230: 69d4 2ebd 5c60 f5bc 2677 05bd 9bc6 5dbd
00000240: b8ad f7bc f664 1dbd 48f2 55bc 8f6b 003c
00000250: 4439 2fbd 25cb 96bc aab3 403d 9694 423d
00000260: 3e0c 4a3d 0338 913c 4fd0 3bbd 3894 193c
00000270: 0bb9 e93c bab3 4c3c 75f0 9bbc 2713 42bd
00000280: ad51 623d 0ff3 483d 7824 0f3d c0f0 0a3d
00000290: 9499 63bc 2f57 9bbc d027 083c ef45 32bd
000002a0: 5207 06bc cb79 27bd 7af9 023d 1390 9fbc
000002b0: 4f07 33bd 00df 45ba 6512 d33c a8f0 01bd
000002c0: 1ab3 37bc fe7d 623d 9884 5d3d 235a 19bd
000002d0: a00b 22bd 947e 45bd d294 4f3d 51c2 24bd
000002e0: d35b 0dbd 50c9 5ebd 29cd f9bc 6570 8dbc
000002f0: d14e c43c fcda 43bc 028d dc3c 43aa 593d
00000300: cc8e 2cbd 888b 103d 10fb de3b 873e a1bb
00000310: 5535 02bd 8fc0 5b3d 3470 c23c e4ae d83b
00000320: e29c 293d fbd5 5abc 9986 0fbd af0e 463d
00000330: 3e7a 463d 9d92 9e3c 0fa4 803d a29b 0e3c
00000340: b043 80bb b32d 993c bb10 39bd b894 2dbc
00000350: 74a4 9ebc b261 493d b823 ea3c 48e5 4cbd
00000360: cd54 65bd ceec 3c3d d44b 83bc 296c 6abd
00000370: a24a 85bc 8109 22bd 1bb0 063d ac46 fe3c
00000380: 70d0 d5bb 06cc 96ba 047f 5c3d 21b4 7ebc
00000390: 70c7 9f3a 0a05 93bc 2074 7dbc 2654 c23c
000003a0: ef87 903c 2a6f c9bc 9da2 2dbd b287 3c3d
000003b0: 7452 efbc 4c09 c53b 90ed b5bc b558 563d
000003c0: c167 493d 92b8 3fbc e655 333d 8a9f 573c
000003d0: 7036 6a3d f31b c9bc 93cc 1a3c c4d7 bbba
000003e0: 84b4 b83c 9705 f53c b0d1 26bd 2ea8 49bd
000003f0: 8e5e 8dbc a002 883b 7396 f0bb b2eb d1bc
-0.0073150843 -0.0013992061 0.036105905 -0.0017428547 -0.05146171 0.011339855 0.017182317 -0.050711386
-0.011800446 0.036248088 -0.031561255 -0.047593918 0.013756392 -0.015356485 -0.056630284 -0.0060497695
-0.019687334 0.045636356 0.003963397 0.039438356 -0.05207721 0.035867333 -0.013150527 -0.027574532
0.024860017 -0.049776703 0.03824018 -0.025381194 -0.02379779 -0.009800861 -0.029402979 0.051964656
-0.0371044 0.046548385 0.0024589107 -0.029372577 -0.025480011 -0.033811208 -0.031009734 -0.044096805
-0.043301802 -0.0503718 0.0012969291 0.0025794203 -0.052594736 0.0534587 0.025595747 -0.017042506
-0.0068499073 -0.029274572 0.053456314 0.041325133 -0.018972266 -0.03268327 -0.034682065 0.0002933815
-0.05359514 -0.016371809 0.034607448 -0.011256461 -0.04365806 0.049121693 0.0050334595 0.0024988651
0.05624091 -0.061385363 -0.045984484 0.02291122 0.036598437 -0.017129526 -0.006599535 0.017955918
-0.033595063 0.038920272 -0.057912096 -0.010401485 0.004968621 -0.0043119565 -0.013207637 -0.033632915
-0.0078089526 -0.0302271 0.045328062 -0.020186082 -0.053540252 -0.056390762 0.038890418 -0.03497649
0.04749879 0.035195585 0.00075504807 -0.016011402 -0.013455865 0.010639703 0.040338792 0.03519162
-0.003343463 0.018006697 -0.04272826 0.01830125 -0.013364831 -0.03454276 0.0030835352 0.03777542
-0.019009765 0.00965752 0.0075507564 0.050912037 -0.00512823 -0.033980735 -0.04670133 -0.047131497
0.04742762 0.047506537 -0.010249501 -0.04975037 0.050551746 -0.0052207294 0.010996744 0.0017155284
-0.057431452 0.03631253 0.036348663 -0.027052835 0.053753767 -0.0433454 0.026758365 0.018569281
0.060914323 0.032107294 -0.019378625 0.008524787 -0.051818702 -0.010722779 0.03840826 -0.008164512
-0.03862108 0.028262142 0.03964371 0.045114346 -0.04268304 -0.029953174 -0.032584332 -0.054144483
-0.030234203 -0.038426362 -0.013058253 0.007838144 -0.042779222 -0.018407414 0.04704634 0.047504984
0.04932808 0.017726904 -0.045852955 0.009373717 0.028530618 0.012494022 -0.019035557 -0.047381546
0.055253673 0.049059924 0.03494689 0.033921003 -0.013891596 -0.01896247 0.008310273 -0.043523725
-0.008180456 -0.040887635 0.0319762 -0.01947788 -0.043708142 -0.0007548183 0.025765607 -0.03172365
-0.011212135 0.055295937 0.05408153 -0.037439477 -0.039561868 -0.048216417 0.050679035 -0.040224377
-0.0345114 -0.054391205 -0.030493336 -0.017265508 0.023963364 -0.011954065 0.026922707 0.05314089
-0.04212837 0.035289317 0.0068048313 -0.004920784 -0.031789143 0.053650435 0.023735143 0.0066126455
0.04140938 -0.013356681 -0.03504047 0.048353847 0.048456423 0.01935702 0.06281292 0.008704098
-0.003914319 0.018698549 -0.04518197 -0.010594539 -0.019365527 0.049165435 0.028581485 -0.050023347
-0.055989075 0.046124272 -0.016027369 -0.057232056 -0.01627094 -0.039559845 0.03288279 0.031039558
-0.006525092 -0.0011504896 0.05383207 -0.015545876 0.0012190174 -0.017946739 -0.015469581 0.023721766
0.017642943 -0.02458914 -0.04239141 0.046027847 -0.029214121 0.006013071 -0.022208005 0.05233069
0.049171213 -0.01170172 0.04378309 0.013160596 0.057180822 -0.02454946 0.009448188 -0.0014331271
0.022547014 0.029909892 -0.040727317 -0.049232654 -0.017257001 0.0041507035 -0.0073421537 -0.025625084

fc2.bias f4 [9]
00000000: ff7f 83bc 0146 a7bc d3ad 46bd 20ff 213c
00000010: 2035 d03b 8613 15bd d310 633d d45f 3ebd
00000020: d37c 653c
-0.016052244 -0.020419123 -0.048505615 0.009887487 0.0063539892 -0.036395572 0.055435967 -0.046478108
0.014006811
