checkpoints/pacman_ram/120.pt (torch_old, 142093 bytes, 4 tensors)

fc1.weight f4 [256, 128]
-0.081602395 0.009671802 -0.08289453 -0.07230669 0.013432792 -0.060788605 0.07821633 0.032191224
0.028516283 0.050919738 -0.0025695062 -0.011330156 0.041182738 -0.04544429 -0.013726677 0.00942535
0.02220761 -0.030587533 -0.042899914 -0.0033985013 0.038852654 -0.042389728 -0.0748711 -0.038436726
-0.018110946 0.002119937 0.011209481 -0.07838429 0.008834298 -0.059184846 0.07810843 0.023892313
0.025841244 -0.025683962 -0.079607934 -0.04945997 -0.06195909 0.04904686 -0.023128804 -0.0474653
-0.07946896 -0.051799014 0.078684434 -0.08723664 -0.02588996 -0.07091601 -0.08077685 -0.028611107
0.018349001 -0.08275701 -0.0137831755 -0.03414738 0.09037382 0.005510372 -0.00037216896 0.0010723032
0.02297271 -0.0023823048 0.06283583 0.07129445 0.037706643 -0.0029787575 0.030478038 0.0611608
0.027907312 -0.052207373 -0.060478073 0.08173614 -0.054976232 0.003172415 0.022137316 0.03405462
-0.022748876 -0.011499949 -0.018107764 0.021371536 0.06457319 0.034326613 0.0008085767 0.0018804786
0.080676794 0.07335172 -0.05542243 -0.018700013 0.029327529 -0.071961604 -0.07592906 0.069417395
0.053041197 0.05701022 -0.01582088 -0.07934506 -0.05586851 0.075031936 -0.03729393 0.08386997
0.06171954 0.013816823 0.03258224 -0.052133065 -0.008462136 -0.04076418 0.08348212 0.08417872
-0.082159236 -0.02231151 0.063086525 -0.0158528 0.06220567 0.027912723 0.03128213 0.021417033
-0.044681337 -0.057771876 0.051530417 -0.058954913 0.07497738 0.031112062 0.028387047 -0.071734756
0.031819865 0.0039638206 0.0063210875 -0.02116877 0.056441456 -0.01357138 0.083623186 0.0737844
0.064477496 0.022836212 -0.06516605 0.01992636 0.06448627 0.037270427 -0.012390557 0.007951044
-0.07037298 -0.04375964 0.07046724 -0.072197795 0.043620173 0.0070927 0.06860515 -0.05875816
8.216226e-05 0.017792476 -0.022503003 -0.001694464 -0.017110154 -0.044461343 0.053999282 0.02837523
-0.041476313 -0.0349082 -0.02851308 -0.059065264 -0.09144556 0.05242168 0.05728084 0.022065239
0.04820267 -0.08331356 -0.038502038 -0.027236598 -0.0004721155 -0.07148638 0.041279666 -0.085986525
0.044605605 0.08157904 -0.07199583 0.03327063 0.05890482 0.04719493 0.020309493 0.00083017134
-0.06141719 -0.004050767 -0.015707621 0.011538206 0.032349855 0.010342043 -0.04767602 0.045174096
0.05311625 -0.030444153 -0.08001426 0.08041913 0.021488333 -0.0328826 0.03458923 0.011908549
0.049568843 -0.03006581 0.0005562052 0.044433814 0.017771702 -0.0086306585 -0.0051531773 0.02022277
-0.060564637 0.072958216 -0.06851092 0.0020317882 -0.056831732 -0.026849624 0.033031363 -0.006018573
-0.07910324 0.06923618 0.07629926 -0.0036428582 0.03247936 0.022605777 0.07103717 -0.0435265
0.032520622 -0.07983966 -0.022359103 -0.08892345 -0.051278885 0.058397003 0.028115172 -0.04084964
0.07468179 0.036038037 -0.08133248 -0.06563267 -0.08087943 -0.07042764 0.035318144 -0.054325286
0.013836582 -0.03350667 0.0054795505 -0.04710628 0.049940854 -0.069931604 -0.08407905 0.01423777
-0.010469641 0.08108351 -0.08225235 -0.052617386 -0.011212036 0.007259139 0.08026128 0.017906997
-0.082871325 0.068573885 -0.0012275502 -0.012093633 -0.04275987 -0.085968696 -0.07129934 0.015260048
00000000: 281f a7bd 7a76 1e3c 9bc4 a9bd 8815 94bd
00000010: 3715 5c3c 79fd 78bd e22f a03d f2da 033d
00000020: fb9a e93c 3791 503d 2965 28bb 1ea2 39bc
00000030: 3baf 283d cb23 3abd dbe5 60bc c96c 1a3c
00000040: bcec b53c b592 fabc d2b7 2fbd 64b9 5ebb
00000050: f623 1f3d daa0 2dbd 0556 99bd d46f 1dbd
00000060: 685d 94bc a4ee 0a3b f9a7 373c f187 a0bd
00000070: bbbd 103c cf6b 72bd 50f7 9f3d d0b9 c33c
00000080: 04b1 d33c 2c67 d2bc 7c09 a3bd 8a96 4abd
00000090: d1c8 7dbd 5ce5 483d 9e78 bdbc f96a 42bd
000000a0: 9fc0 a2bd 342b 54bd 4e25 a13d 20a9 b2bd
000000b0: 2e17 d4bc 6a3c 91bd 556e a5bd d761 eabc
000000c0: a550 963c 827c a9bd d4d2 61bc 20de 0bbd
000000d0: e915 b93d 5a90 b43b ac1f c3b9 868c 8c3a
000000e0: 4431 bc3c 7120 1cbb 12b0 803d d302 923d
000000f0: 4872 1a3d 4237 43bb 14ad f93c bf83 7a3d
00000100: e09d e43c 66d7 55bd dbb7 77bd 4765 a73d
00000110: c22e 61bd 4be8 4f3b 5159 b53c db7c 0b3d
00000120: da5b babc 486a 3cbc bc56 94bc 5c13 af3c
00000130: f33e 843d 109a 0c3d aaf6 533a 647a f63a
00000140: e039 a53d 6d39 963d a102 63bd c530 99bc
00000150: 4940 f03c 9b60 93bd b280 9bbd b52a 8e3d
00000160: ba41 593d 8c83 693d ca9a 81bc aa7f a2bd
00000170: 61d6 64bd 58aa 993d 85c1 18bd 05c4 ab3d
00000180: a1cd 7c3d f55f 623c f474 053d 7b89 55bd
00000190: c5a4 0abc 57f8 26bd acf8 aa3d e565 ac3d
000001a0: 1a43 a8bd a1c6 b6bc 8233 813d bbdd 81bc
000001b0: 5fcb 7e3d 39a9 e43c b121 003d c672 af3c
000001c0: c703 37bd 34a2 6cbd 8f11 533d b57a 71bd
000001d0: be8d 993d b9de fe3c f48b e83c ace9 92bd
000001e0: 8c55 023d f0e2 813b 2021 cf3b 216a adbc
000001f0: 282f 673d 7e5a 5ebc a242 ab3d 471c 973d
00000200: c70c 843d 0213 bb3c c775 85bd 9b3c a33c
00000210: 6111 843d e0a8 183d c301 4bbc 1845 023c
00000220: b51f 90bd 4f3d 33bd 2151 903d 70dc 93bd
00000230: 11ab 323d e169 e83b db80 8c3d 65ac 70bd
00000240: 874e ac38 87c1 913c 3858 b8bc c718 deba
00000250: 982a 8cbc 191d 36bd 5a2e 5d3d 2c73 e83c
00000260: 11e3 29bd e7fb 0ebd 4394 e9bc 6bee 71bd
00000270: cf47 bbbd 1eb8 563d 509f 6a3d 29c2 b43c
00000280: 2a70 453d 4da0 aabd 50b4 1dbd 491f dfbc
00000290: 4586 f7b9 7467 92bd de14 293d b419 b0bd
000002a0: 5eb4 363d e912 a73d 8d72 93bd c946 083d
000002b0: 2e46 713d 794f 413d 1860 a63c db9f 593a
000002c0: 9790 7bbd 4cbc 84bb 45ad 80bc be0a 3d3c
000002d0: 4881 043d ac71 293c ee47 43bd 7908 393d
000002e0: 6d90 593d 0466 f9bc 84de a3bd c9b2 a43d
000002f0: 4d08 b03c e8af 06bd 70ad 0d3d 131c 433c
00000300: b308 4b3d 934c f6bc 4dce 113a 3b00 363d
00000310: f695 913c 9b67 0dbc fcdb a8bb 39aa a53c
00000320: a012 78bd 1e6b 953d 744f 8cbd c027 053b
00000330: 64c8 68bd bef3 dbbc e54b 073d 7337 c5bb
00000340: e100 a2bd b3cb 8d3d c942 9c3d 05bd 6ebb
00000350: 1409 053d c02f b93c f07b 913d d848 32bd
00000360: 5834 053d fa82 a3bd 702a b7bc 7f1d b6bd
00000370: cf09 52bd b231 6f3d ca51 e63c f451 27bd
00000380: c4f2 983d 9f9c 133d a591 a6bd 6c6a 86bd
00000390: 1da4 a5bd 5e3c 90bd c2a9 103d 3184 5ebd
000003a0: d5b2 623c 4a3e 09bd cd8d b33b 84f2 40bd
000003b0: c88e 4c3d 4d38 8fbd a331 acbd 8945 693c
000003c0: db88 2bbc 1c0f a63d ec73 a8bd 5485 57bd
000003d0: b0b2 37bc 12de ed3b 0760 a43d b2b1 923c
000003e0: 71b8 a9bd 7770 8c3d c0e5 a0ba 6024 46bc
000003f0: f924 2fbd 5b10 b0bd 6305 92bd 4805 7a3c

fc1.bias f4 [256]
0.08862427 -0.052524608 0.032255523 -0.042694166 0.02346773 -0.08791661 -0.016853245 -0.04160793
-0.034902416 0.08102136 0.055338927 -0.0010885901 0.055333693 0.04172267 0.082422785 -0.06772079
0.023880595 -0.04178923 0.021350887 0.033673067 0.038015302 0.011349234 0.05367139 0.0071266163
-0.040222835 -0.038023967 -0.017201202 0.02227658 0.047334157 -0.018620221 0.03056088 0.0073372177
-0.08649482 -0.0670463 -0.002028197 -0.025934147 -0.0026515368 0.07296297 -0.05679502 0.08202339
0.06289395 0.067421846 -0.030857693 0.046092734 -0.028052788 0.03119629 0.018214153 0.08889641
-0.045214497 0.003566461 0.015412129 0.015108205 0.061602596 -0.0008334294 -0.047542468 -0.08391452
0.03873258 0.04062929 0.0713748 -0.049704473 -0.06741825 0.040432326 -0.015739784 -0.063120626
-0.069971785 0.0729158 0.070065826 0.021687232 -0.07283812 -0.056474905 -0.0012108716 -0.089766905
0.07989889 -0.019105576 -0.04062685 -0.06328665 0.060015894 0.058626927 0.0683353 0.037802823
0.0025330523 -0.07383158 -0.08130655 -0.08325738 -0.020360757 0.05472585 0.053677708 0.00064606505
-0.029280718 -0.070483066 -0.07671542 0.06486725 -0.034128264 0.011141436 -0.037580565 0.07126401
0.01874949 -0.07973938 -0.023123488 -0.08555598 -0.053731926 0.072713815 -0.06719575 -0.02898197
-0.08501324 -0.024760133 0.04915547 -0.029684128 -0.027940145 -0.010276724 -0.08081455 -0.005320999
0.06754049 -0.052295018 -0.0505776 0.03273981 0.0064077512 -0.039655603 -0.040108457 0.012202504
0.055160377 0.009562948 0.0731372 0.0038962737 -0.031887498 0.009271132 -0.09054376 0.07382195
0.06521664 -0.001908197 0.023371415 0.061402947 -0.036524523 0.07755645 0.05492312 -0.044838153
-0.05201464 -0.049801033 -0.07992703 -0.08854127 0.040946916 0.044723175 0.07567798 0.012106405
-0.01725515 -0.043613996 -0.04066322 0.031145174 -0.060902774 -0.041742958 0.036320385 0.04524711
0.08106029 0.011709567 0.032275073 0.029362932 0.062424425 0.045387823 -0.01174114 -0.0238768
-0.010783964 0.048833445 0.057082873 0.006899143 -0.035940018 -0.015934853 -0.07691254 0.017566554
0.06801678 -0.029051274 -0.04356157 0.07633675 0.08261978 0.08136908 -0.0683081 0.08133002
0.0630986 0.07163864 -0.011228646 -0.009980813 0.010340542 -0.056547854 0.064340316 -0.07855742
0.07055548 0.04569801 -0.04599077 -0.029179046 -0.061435025 0.058784395 0.05427474 -0.0018480759
0.0594111 0.075671636 0.027869433 0.027772086 0.03045949 -0.04620309 -0.032109503 0.045488853
0.047311313 0.018085688 0.0050275023 0.049244262 -0.08129141 0.051788695 -0.059087202 -0.052040752
-0.08340155 0.030851023 -0.082996644 0.0061730295 0.016973268 -0.02127306 0.030642971 0.03312312
-0.07103457 -0.05095467 -0.0109229 0.08149298 0.019991817 -0.044162113 -0.040517095 0.021129044
-0.06998933 0.013731252 -0.06787946 0.022272535 0.013448817 -0.03660499 -0.047624297 0.013110561
0.03242372 0.07573013 0.041082248 0.07123909 -0.021409022 0.0068959785 0.027299697 0.046024133
0.034932375 -0.02912599 0.027358681 -0.035924383 -0.07353607 0.0121138105 -0.070969716 -0.05947308
-0.06653545 -0.0873926 -0.052627176 0.05916305 0.011788743 0.0077246875 -0.06776004 -0.02779753
00000000: a480 b53d 0b24 57bd 5e1e 043d 14e0 2ebd
00000010: 663f c03c a00d b4bd d10f 8abc 146d 2abd
00000020: d6f5 0ebd 87ee a53d 12ab 623d 06af 8eba
00000030: 95a5 623d 64e5 2a3d 47cd a83d 33b1 8abd
00000040: 3da1 c33c 2f2b 2bbd 0ee8 ae3c c5ec 093d
00000050: efb5 1b3d 23f2 393c 88d6 5b3d 6486 e93b
00000060: b3c0 24bd 05bf 1bbd 89e9 8cbc 607d b63c
00000070: 76e1 413d 6f89 98bc d05a fa3c 0b6d f03b
00000080: 3224 b1bd 924f 89bd 80eb 04bb d973 d4bc
00000090: 68c5 2dbb 9c6d 953d e5a1 68bd e1fb a73d
000000a0: 8bce 803d 7714 8a3d 46c9 fcbc bccb 3c3d
000000b0: f6ce e5bc 5d8f ff3c d935 953c 520f b63d
000000c0: d632 39bd 49bb 693b 2883 7c3c 6888 773c
000000d0: 0153 7c3d 807a 5aba e4bb 42bd 60db abbd
000000e0: 0ea6 1e3d e66a 263d f32c 923d eb96 4bbd
000000f0: 9412 8abd 5e9c 253d b8f0 80bc 6345 81bd
00000100: 5e4d 8fbd e154 953d ac7e 8f3d 6ca9 b13c
00000110: 272c 95bd 3b52 67bd 1cb6 9eba b6d7 b7bd
00000120: 07a2 a33d 4c83 9cbc 5768 26bd 6e9c 81bd
00000130: 3ad3 753d ca22 703d 61f3 8b3d 22d7 1a3d
00000140: 9101 263b 0335 97bd 0c84 a6bd d882 aabd
00000150: 9acb a6bc 3628 603d 28dd 5b3d b15c 293a
00000160: 1ede efbc 6d59 90bd f91c 9dbd 1fd9 843d
00000170: 14ca 0bbd 928a 363c 14ee 19bd def2 913d
00000180: 8898 993c 664e a3bd 786d bdbc f937 afbd
00000190: 0216 5cbd fbea 943d ed9d 89bd 996b edbc
000001a0: 6c1b aebd c3d5 cabc 3f57 493d 212c f3bc
000001b0: bbe2 e4bc b45f 28bc 1982 a5bd c65b aebb
000001c0: ab52 8a3d 4d33 56bd 752a 4fbd 2e1a 063d
000001d0: 1df8 d13b ea6d 22bd c448 24bd 03ed 473c
000001e0: d9ef 613d e9ad 1c3c f5c8 953d a058 7f3b
000001f0: 779c 02bd f2e5 173c 026f b9bd f62f 973d
00000200: 4d90 853d 771c faba 6975 bf3c a881 7b3d
00000210: bd9a 15bd ebd5 9e3d 11f7 603d 36a8 37bd
00000220: 4e0d 55bd 2bfc 4bbd c8b0 a3bd 2055 b5bd
00000230: f4b7 273d a62f 373d 0ffd 9a3d f159 463c
00000240: ac5a 8dbc 97a4 32bd 7a8e 26bd 2a24 ff3c
00000250: 3075 79bd aafa 2abd afc4 143d 0955 393d
00000260: f002 a63d 7cd9 3f3c de32 043d 888a f03c
00000270: c1b0 7f3d 95e8 393d e95d 40bc 4799 c3bc
00000280: 39af 30bc 9405 483d bbcf 693d 3512 e23b
00000290: d735 13bd cf89 82bc 5284 9dbd bce7 8f3c
000002a0: 624c 8b3d f0fc edbc 9e6d 32bd 7156 9c3d
000002b0: 8f34 a93d d5a4 a63d 1ee5 8bbd 5b90 a63d
000002c0: d739 813d 47b7 923d 5bf8 37bc 9086 23bc
000002d0: 606b 293c b99e 67bd dbc4 833d b6e2 a0bd
000002e0: 647f 903d d62d 3b3d d160 3cbd e508 efbc
000002f0: 4ba3 7bbd e8c7 703d 314f 5e3d 233b f2ba
00000300: 0e59 733d bbf9 9a3d 704e e43c 4982 e33c
00000310: 2e86 f93c 743f 3dbd 4185 03bd 8552 3a3d
00000320: 82c9 413d 7028 943c bfbd a43b 5ab4 493d
00000330: 1c7c a6bd 6220 543d 6c05 72bd af28 55bd
00000340: 6fce aabd 49bb fc3c 25fa a9bd 2047 ca3b
00000350: 860b 8b3c d744 aebc f806 fb3c 1cac 073d
00000360: 937a 91bd d8b5 50bd f7f5 32bc cbe5 a63d
00000370: e1c5 a33c 55e3 34bd 41f5 25bd d116 ad3c
00000380: 9156 8fbd 0cf9 603c 6304 8bbd e474 b63c
00000390: 6d58 5c3c 1def 15bd b211 43bd aecd 563c
000003a0: bcce 043d 6618 9b3d dc45 283d cde5 913d
000003b0: f961 afbc a9f7 e13b 9da3 df3c cd83 3c3d
000003c0: 4015 0f3d a199 eebc 501f e03c 7225 13bd
000003d0: 149a 96bd 0179 463c 9258 91bd 0b9a 73bd
000003e0: bd43 88bd e4fa b2bd 988f 57bd f454 723d
000003f0: 9225 413c 601f fd3b c7c5 8abd a5b7 e3bc

fc2.weight f4 [9, 256]
-0.007550341 -0.0013992061 0.035252314 -0.0017428547 -0.05184873 0.010463531 0.017108291 -0.050349455
-0.011800446 0.03626138 -0.031561255 -0.047593918 0.012924009 -0.011980694 -0.056630284 -0.0060497695
-0.015976083 0.045636356 0.003943347 0.036820233 -0.050889727 0.035874348 -0.013216448 -0.02817159
0.024860017 -0.048945345 0.03761575 -0.022412166 -0.02379779 -0.009800861 -0.029402979 0.051412366
-0.0371044 0.045999955 0.0026592445 -0.028337466 -0.026500601 -0.033811208 -0.031009734 -0.044096805
-0.043104187 -0.0503718 0.0018930894 0.0025447472 -0.052594736 0.052652802 0.02409194 -0.017655263
-0.0068499073 -0.028821904 0.053456314 0.040659074 -0.018765852 -0.03268327 -0.034682065 0.0002933815
-0.05359514 -0.016371809 0.034607448 -0.011256461 -0.042481016 0.049121693 0.005545527 0.0024988651
0.05624091 -0.061385363 -0.045984484 0.02291122 0.036599353 -0.016580034 -0.006834011 0.01834989
-0.033595063 0.037157264 -0.057912096 -0.0109960595 0.004968621 -0.0043119565 -0.013207637 -0.033632915
-0.0078089526 -0.02944268 0.04532814 -0.020811243 -0.053540364 -0.056390762 0.03887117 -0.03497649
0.04569036 0.03515146 0.0016880565 -0.016011402 -0.01299632 0.012163651 0.040279888 0.03510688
-0.003343463 0.018006697 -0.04272826 0.017513322 -0.014227497 -0.033108 0.0030835352 0.03719691
-0.019868543 0.011928118 0.0076705287 0.050912037 -0.005274443 -0.033760868 -0.04541754 -0.045494754
0.043961324 0.04636046 -0.010249501 -0.048133746 0.050551746 -0.00457133 0.010996744 0.0017155284
-0.057431452 0.034141574 0.036411833 -0.027052835 0.05372183 -0.042798165 0.026758365 0.017592806
0.060914323 0.032125816 -0.020016838 0.008524787 -0.05002398 -0.010722779 0.0385584 -0.008164512
-0.038296532 0.026641103 0.03964371 0.044960197 -0.04314282 -0.029953174 -0.0278323 -0.05413633
-0.030234203 -0.035923935 -0.01343857 0.0066922335 -0.042544845 -0.017317832 0.04521515 0.046810217
0.049119327 0.016487295 -0.04292066 0.009373717 0.028173413 0.013136793 -0.018780168 -0.047381546
0.055253673 0.048154827 0.035542823 0.03345276 -0.013891596 -0.019033914 0.008310273 -0.043523725
-0.008180456 -0.038731318 0.029879775 -0.019199966 -0.043705653 -0.0007548183 0.025765607 -0.030789748
-0.010517437 0.055295937 0.05408153 -0.037439477 -0.03683438 -0.048216417 0.050679035 -0.040224377
-0.034033053 -0.054391205 -0.029498959 -0.017265508 0.022041053 -0.011455083 0.027097935 0.05314089
-0.04212837 0.035289317 0.0068048313 -0.0043366803 -0.031894963 0.053650435 0.023735143 0.007068879
0.039044123 -0.01127471 -0.03504047 0.0476014 0.048456423 0.01935702 0.06281292 0.0087265475
-0.003914319 0.019624667 -0.043878738 -0.010594539 -0.019365527 0.049165435 0.028581485 -0.050023347
-0.055989075 0.045378532 -0.016387487 -0.057232056 -0.018401382 -0.03554341 0.032881524 0.031039558
-0.006525092 -9.439365e-05 0.05314889 -0.014994691 0.0012190174 -0.01704636 -0.015469581 0.023333373
0.015504386 -0.024305832 -0.04239141 0.046027847 -0.029214121 0.006013071 -0.023012526 0.05233069
0.048787627 -0.011260194 0.04284772 0.010746985 0.057180822 -0.024548694 0.009611986 -0.0012675526
0.021066725 0.029909892 -0.040727317 -0.0491503 -0.016919533 0.0041507035 -0.0073421537 -0.025444701
00000000: da68 f7bb 9165 b7ba bb64 103d 8070 e4ba
00000010: 555f 54bd 3b6f 2b3c b026 8c3c 3b3b 4ebd
00000020: a856 41bc d086 143d 6046 01bd d7f1 42bd
00000030: 39bf 533c ac4a 44bc 28f5 67bd 253d c6bb
00000040: 46e0 82bc 30ed 3a3d 3137 813b d0d0 163d
00000050: bf71 50bd fbf0 123d cd89 58bc 1bc8 e6bc
00000060: 3ca7 cb3c ea7a 48bd f912 1a3d b899 b7bc
00000070: 95f3 c2bc ca93 20bc 84de f0bc c695 523d
00000080: c9fa 17bd 736a 3c3d b846 2e3b f923 e8bc
00000090: ca17 d9bc 9f7d 0abd 2008 febc da9e 34bd
000000a0: 048e 30bd a952 4ebd 8a21 f83a c6c5 263b
000000b0: 946d 57bd 77aa 573d 765c c53c c5a1 90bc
000000c0: 3075 e0bb ea1b ecbc 02f5 5a3d 218a 263d
000000d0: d8ba 99bc e4de 05bd c80e 0ebd 00d1 9939
000000e0: 9486 5bbd 2c1e 86bc 8ac0 0d3d 056d 38bc
000000f0: 9300 2ebd d433 493d 41b7 b53b 00c4 233b
00000100: de5c 663d 386f 7bbd 3a5a 3cbd 50b0 bb3c
00000110: 34e9 153d dad2 87bc d7ef dfbb 8252 963c
00000120: fa9a 09bd 3732 183d 3c35 6dbd d128 34bc
00000130: d0cf a23b 504b 8dbb d864 58bc abc2 09bd
00000140: 3ee2 ffbb c631 f1bc 00aa 393d 577c aabc
00000150: 244d 5bbd 00fa 66bd 6037 1f3d 8243 0fbd
00000160: d125 3b3d fafa 0f3d c741 dd3a 582a 83bc
00000170: 84ee 54bc 0d4a 473c 86fc 243d 3bcc 0f3d
00000180: 001e 5bbb c882 933c d403 2fbd 1978 8f3c
00000190: 731a 69bc 419c 07bd 2315 4a3b c95b 183d
000001a0: 5bc3 a2bc 276e 433c 0f59 fb3b 2489 503d
000001b0: 3cd5 acbb d648 0abd be07 3abd b558 3abd
000001c0: ca10 343d 77e4 3d3d 86ed 27bc e427 45bd
000001d0: 590f 4f3d 18cb 95bb b02b 343c 95db e03a
000001e0: 3e3d 6bbd 09d8 0b3d 9324 153d e89d ddbc
000001f0: 6c0b 5c3d 214d 2fbd 5c34 db3c ca1e 903c
00000200: 4c81 793d 5c96 033d 5afa a3bc 8cab 0b3c
00000210: f2e5 4cbd 98ae 2fbc 6aef 1d3d 72c4 05bc
00000220: d3dc 1cbd 713e da3c 7161 223d 2f28 383d
00000230: 87b6 30bd 5c60 f5bc 9000 e4bc 0ebe 5dbd
00000240: b8ad f7bc fa24 13bd 732d 5cbc 864a db3b
00000250: 8143 2ebd 20de 8dbc 8533 393d 12bc 3f3d
00000260: 5931 493d 5d10 873c 93cd 2fbd 3894 193c
00000270: eecb e63c b43b 573c ded8 99bc 2713 42bd
00000280: ad51 623d ff3d 453d 5a95 113d c305 093d
00000290: 9499 63bc 03ed 9bbc d027 083c ef45 32bd
000002a0: 5207 06bc bba4 1ebd 6ec6 f43c 3f49 9dbc
000002b0: b304 33bd 00df 45ba 6512 d33c c83a fcbc
000002c0: 5451 2cbc fe7d 623d 9884 5d3d 235a 19bd
000002d0: a6df 16bd 947e 45bd d294 4f3d 51c2 24bd
000002e0: 3e66 0bbd 50c9 5ebd cda7 f1bc 6570 8dbc
000002f0: 708f b43c 1aae 3bbc 7dfc dd3c 43aa 593d
00000300: cc8e 2cbd 888b 103d 10fb de3b b61a 8ebb
00000310: 4ba4 02bd 8fc0 5b3d 3470 c23c 0ea2 e73b
00000320: bbec 1f3d 90b9 38bc 9986 0fbd b0f9 423d
00000330: 3e7a 463d 9d92 9e3c 0fa4 803d cbf9 0e3c
00000340: b043 80bb e9c3 a03c 31ba 33bd b894 2dbc
00000350: 74a4 9ebc b261 493d b823 ea3c 48e5 4cbd
00000360: cd54 65bd d7de 393d 0d3f 86bc 296c 6abd
00000370: 7fbe 96bc f795 11bd c7ae 063d ac46 fe3c
00000380: 70d0 d5bb 34f5 c5b8 a7b2 593d 4bac 75bc
00000390: 70c7 9f3a cfa4 8bbc 2074 7dbc a125 bf3c
000003a0: 1c06 7e3c 061d c7bc 9da2 2dbd b287 3c3d
000003b0: 7452 efbc 4c09 c53b c484 bcbc b558 563d
000003c0: 89d5 473d ad7c 38bc 1781 2f3d 1f14 303c
000003d0: 7036 6a3d 581a c9bc 977b 1d3c 0224 a6ba
000003e0: 2094 ac3c 9705 f53c b0d1 26bd d351 49bd
000003f0: d59a 8abc a002 883b 7396 f0bb 6871 d0bc

fc2.bias f4 [9]
-0.015948825 -0.020088596 -0.048250083 0.009887487 0.0063539892 -0.036646795 0.05587636 -0.0457183
0.014010994
00000000: 1ca7 82bc d790 a4bc e1a1 45bd 20ff 213c
00000010: 2035 d03b f31a 16bd 9cde 643d 1d43 3bbd
00000020: 5e8e 653c
