checkpoints/pacman_ram/140.pt (torch_old, 142093 bytes, 4 tensors)

fc1.weight f4 [256, 128]
-0.081602395 0.0073135383 -0.085660316 -0.07175368 0.012935081 -0.060491685 0.07774636 0.03354587
0.02889207 0.051584553 -0.0021892097 -0.011301846 0.04055089 -0.045001734 -0.013990234 0.00822105
0.021649394 -0.03041217 -0.04149694 -0.0033703416 0.038852654 -0.042389728 -0.07641229 -0.038436726
-0.018110946 -0.00030002385 0.010275103 -0.07774057 0.009966782 -0.060639057 0.07943965 0.024067758
0.025869407 -0.028141858 -0.07884868 -0.050857063 -0.06304998 0.04799834 -0.023341265 -0.047092218
-0.07946896 -0.051539287 0.076640904 -0.08563636 -0.026523052 -0.07093417 -0.07850779 -0.02914588
0.01847404 -0.08374193 -0.014033631 -0.033838708 0.08519733 0.005545044 -0.00053908007 0.001806619
0.026016187 0.0013535011 0.06514474 0.07096031 0.037323423 -0.0036861098 0.030478038 0.061199233
0.027948847 -0.05231623 -0.059883088 0.08157637 -0.054948084 0.0032500478 0.021757057 0.034446497
-0.021888567 -0.0114988405 -0.0180796 0.022153221 0.063862234 0.03435476 0.0016178333 0.0017668538
0.08070494 0.073763065 -0.05501021 -0.018522924 0.03169836 -0.071004584 -0.07590091 0.06959113
0.05328439 0.05756367 -0.015136751 -0.079764925 -0.055658318 0.075004324 -0.03730275 0.08386997
0.06184694 0.013833233 0.03185606 -0.05231015 -0.007355204 -0.04073603 0.083510265 0.084206864
-0.082131095 -0.02169031 0.063114665 -0.014757901 0.062233817 0.02799769 0.03131029 0.021445192
-0.044653185 -0.057743724 0.05155857 -0.05892676 0.07390506 0.031218259 0.028643612 -0.07506468
0.03114803 0.00072355365 0.0063210875 -0.017095631 0.054909024 -0.0135719245 0.08373657 0.07381255
0.064477496 0.022162674 -0.065387554 0.019559199 0.06320429 0.03735127 -0.012792601 0.0073312204
-0.070984736 -0.044429343 0.069851704 -0.072197795 0.042786274 0.0065584537 0.068265215 -0.059296317
-0.00051302987 0.017792476 -0.022668468 -0.0022532546 -0.017110154 -0.044461343 0.05275009 0.02837523
-0.041476313 -0.03538801 -0.029382568 -0.059625246 -0.09196599 0.052176915 0.056641217 0.022065239
0.04764388 -0.08336115 -0.038502038 -0.027586386 -0.0012170052 -0.07196484 0.040361464 -0.08660825
0.044605605 0.08077986 -0.072320364 0.03210908 0.058089674 0.046631604 0.020309493 0.00046750324
-0.062002316 -0.0048819315 -0.016428245 0.010501023 0.032302566 0.009785387 -0.047666844 0.045170303
0.052840672 -0.030444153 -0.08073056 0.07985272 0.020906594 -0.03347301 0.03458923 0.01134973
0.049009275 -0.030628642 -2.1406908e-05 0.043843225 0.01721292 -0.009191004 -0.0057265866 0.019648077
-0.061143383 0.072326064 -0.06906968 0.0014725596 -0.057462055 -0.027408406 0.032458127 -0.006674446
-0.079662 0.06866559 0.07573719 -0.0042016963 0.032029197 0.022188196 0.07047841 -0.044080053
0.03197676 -0.07996136 -0.022565415 -0.08947556 -0.051742148 0.0578367 0.027577065 -0.04084964
0.07412336 0.035500977 -0.081710525 -0.06571812 -0.08106152 -0.070986405 0.034759354 -0.054884076
0.013277796 -0.033853505 0.0049207574 -0.047534343 0.049382064 -0.07050088 -0.08463781 0.013678984
-0.011028427 0.08052474 -0.08281112 -0.053176176 -0.0121836355 0.006723849 0.08024136 0.01680535
-0.083229594 0.06800581 -0.0012275502 -0.012278878 -0.042880516 -0.08653575 -0.07186125 0.014701262
00000000: 281f a7bd 68a6 ef3b ad6e afbd 98f3 92bd
00000010: a9ed 533c 21c6 77bd 7c39 9f3d 6567 093d
00000020: 10af ec3c 534a 533d d878 0fbb 612b 39bc
00000030: b118 263d bd53 38bd 4b37 65bc 95b1 063c
00000040: 125a b13c f122 f9bc b2f8 29bd f3e0 5cbb
00000050: f623 1f3d daa0 2dbd 0c7e 9cbd d46f 1dbd
00000060: 685d 94bc 854c 9db9 e858 283c 7336 9fbd
00000070: b74b 233c a960 78bd 41b1 a23d bf29 c53c
00000080: 14ec d33c c189 e6bc 6b7b a1bd 7f4f 50bd
00000090: 5920 81bd e899 443d 2e36 bfbc c5e3 40bd
000000a0: 9fc0 a2bd dc1a 53bd e8f5 9c3d 1e62 afbd
000000b0: df46 d9bc ef45 91bd b1c8 a0bd 57c3 eebc
000000c0: df56 973c e480 abbd 51ed 65bc 759a 0abd
000000d0: f07b ae3d 33b3 b53b 0d51 0dba 13cc ec3a
000000e0: e61f d53c f667 b13a 9b6a 853d a453 913d
000000f0: 72e0 183d a992 71bb 14ad f93c 0cac 7a3d
00000100: fbf4 e43c 8b49 56bd f847 75bd 8311 a73d
00000110: 3e11 61bd c1fe 543b db3b b23c c517 0d3d
00000120: a74f b3bc a265 3cbc ab1b 94bc ac7a b53c
00000130: 34ca 823d 94b7 0c3d 7a0d d43a c795 e73a
00000140: a248 a53d 1711 973d 6352 61bd 63bd 97bc
00000150: 24d6 013d da6a 91bd f071 9bbd cb85 8e3d
00000160: bc40 5a3d e2c7 6b3d 2300 78bc cb5b a3bd
00000170: faf9 63bd de9b 993d c5ca 18bd 05c4 ab3d
00000180: 3853 7d3d c9a4 623c 807b 023d 2b43 56bd
00000190: ec03 f1bb d3da 26bd 6e07 ab3d a674 ac3d
000001a0: 5934 a8bd e1af b1bc 4342 813d 20cb 71bc
000001b0: e3e8 7e3d 695b e53c 383f 003d d4ad af3c
000001c0: 42e6 36bd af84 6cbd 142f 533d 305d 71bd
000001d0: 895b 973d 6fbd ff3c 02a6 ea3c 83bb 99bd
000001e0: 272a ff3c ddac 3d3a 2021 cf3b 230c 8cbc
000001f0: 49e8 603d c75c 5ebc 147e ab3d 092b 973d
00000200: c70c 843d 7f8e b53c e9e9 85bd 9d3a a03c
00000210: 4071 813d a5fd 183d 0f98 51bc bc3a f03b
00000220: 7260 91bd 8bfb 35bd 690e 8f3d 70dc 93bd
00000230: a940 2f3d 4ce8 d63b a2ce 8b3d b2e0 72bd
00000240: da7c 06ba 87c1 913c 39b3 b9bc 57ab 13bb
00000250: 982a 8cbc 191d 36bd 7a10 583d 2c73 e83c
00000260: 11e3 29bd 05f3 10bd b6b3 f0bc 9a39 74bd
00000270: aa58 bcbd 76b7 553d 9f00 683d 29c2 b43c
00000280: 3b26 433d 40b9 aabd 50b4 1dbd d8fc e1bc
00000290: eb83 9fba 4d62 93bd 1052 253d ab5f b1bd
000002a0: 5eb4 363d e96f a53d b31c 94bd d084 033d
000002b0: 70ef 6d3d c800 3f3d 1860 a63c 391b f539
000002c0: 24f6 7dbd 9cf8 9fbb 8794 86bc 7c0c 2c3c
000002d0: b24f 043d e352 203c 4f3e 43bd 7f04 393d
000002e0: 766f 583d 0466 f9bc 1056 a5bd d389 a33d
000002f0: 4e44 ab3c ff1a 09bd 70ad 0d3d 38f4 393c
00000300: f3bd 483d ebe8 fabc fc92 b3b7 f494 333d
00000310: 1c02 8d3c dd95 16bc 17a6 bbbb 01f5 a03c
00000320: 7c71 7abd b01f 943d 6874 8dbd e702 c13a
00000330: 555d 6bbd 9887 e0bc d0f2 043d 50b5 dabb
00000340: d525 a3bd 8ba0 8c3d 1a1c 9b3d 62ae 89bb
00000350: 0c31 033d 05c4 b53c fc56 903d 498d 34bd
00000360: 10fa 023d c8c2 a3bd 1bdb b8bc f63e b7bd
00000370: 93ef 53bd 2de6 6c3d 4ce9 e13c f451 27bd
00000380: fdcd 973d 7969 113d d957 a7bd 3997 86bd
00000390: 9503 a6bd 5261 91bd d35f 0e3d 20ce 60bd
000003a0: 1d8b 593c f9a9 0abd 4e3e a13b 5fb3 42bd
000003b0: d944 4a3d c462 90bd 9756 adbd d11d 603c
000003c0: 93b0 34bc 28ea a43d e098 a9bd 43cf 59bd
000003d0: df9d 47bc bc53 dc3b 9555 a43d 60ab 893c
000003e0: 4774 aabd a146 8b3d c0e5 a0ba 592d 49bc
000003f0: 7ba3 2fbd a839 b1bd fe2b 93bd 90dd 703c

fc1.bias f4 [256]
0.08865242 -0.053083394 0.032531366 -0.042694166 0.022882111 -0.088139705 -0.016553557 -0.04190925
-0.034902416 0.080995105 0.055338927 -0.0010526202 0.055279497 0.04103408 0.082422785 -0.06772079
0.023261804 -0.04178923 0.02138385 0.03379287 0.037104066 0.010948828 0.053399134 0.004880396
-0.040222835 -0.03850274 -0.017438691 0.021618774 0.047334157 -0.018620221 0.03056088 0.0070778904
-0.08649482 -0.067272924 -0.0026031916 -0.02653949 -0.0027147012 0.07296297 -0.063820235 0.08202339
0.06260337 0.067421846 -0.030936522 0.04454029 -0.031109616 0.030717928 0.018005366 0.08784089
-0.045214497 0.0032435681 0.015412129 0.015054998 0.061490037 -0.0008334294 -0.047542468 -0.08391452
0.03873258 0.04062929 0.0713748 -0.049704473 -0.06738121 0.040432326 -0.016739447 -0.063120626
-0.069971785 0.0729158 0.070065826 0.021687232 -0.073067285 -0.057081196 -0.0014552486 -0.09023233
0.07989889 -0.019142719 -0.04062685 -0.06292252 0.060015894 0.058626927 0.0683353 0.037802823
0.0025330523 -0.07428166 -0.08133377 -0.08322752 -0.020360757 0.05472585 0.052870523 0.00064606505
-0.029350286 -0.07015494 -0.07701218 0.06486725 -0.034633 0.010534419 -0.037674252 0.07176975
0.01874949 -0.07973938 -0.023123488 -0.08557354 -0.053622384 0.07271269 -0.06701654 -0.02925209
-0.08513002 -0.024747893 0.048743825 -0.029684128 -0.028067265 -0.011395753 -0.08088379 -0.004434796
0.067379035 -0.05217592 -0.0505776 0.032224152 0.0064077512 -0.04116836 -0.040108457 0.012202504
0.055160377 0.009246486 0.07290316 0.0038962737 -0.03211758 0.008412936 -0.09054376 0.07289433
0.06521664 -0.0018658233 0.021994596 0.061402947 -0.036768112 0.07755645 0.05470565 -0.044838153
-0.052179076 -0.05002595 -0.080291614 -0.08868945 0.0408094 0.044723175 0.07543326 0.012910198
-0.01725515 -0.043350197 -0.04155502 0.030761125 -0.061021123 -0.041417565 0.03632625 0.04434326
0.08108266 0.01118504 0.03098565 0.029362932 0.061691895 0.045143522 -0.011633932 -0.0238768
-0.010783964 0.048327863 0.057237286 0.007039934 -0.035940018 -0.016454596 -0.07691254 0.017566554
0.06801678 -0.029109996 -0.04387583 0.07468163 0.08281363 0.08136908 -0.0683081 0.081377156
0.0626818 0.07163864 -0.011228646 -0.009980813 0.009507476 -0.056547854 0.06422683 -0.07855742
0.07027006 0.04569801 -0.045970954 -0.029179046 -0.061129197 0.059338935 0.054359164 -0.0018480759
0.0594111 0.075671636 0.027869433 0.027619708 0.029723175 -0.04620309 -0.032109503 0.045485135
0.046872966 0.01786518 0.0050275023 0.04846952 -0.08129141 0.051766247 -0.059087202 -0.052533887
-0.08340198 0.03072044 -0.083131135 0.0061730295 0.01658387 -0.02127306 0.030642971 0.03312312
-0.07103457 -0.051301204 -0.01148666 0.0813866 0.019193323 -0.044143442 -0.040463883 0.021129044
-0.06998933 0.013797208 -0.06813603 0.021957614 0.013448817 -0.03684163 -0.047624297 0.013621577
0.03223164 0.07550738 0.041082248 0.07123909 -0.021409022 0.0072504976 0.02722849 0.046006467
0.034936886 -0.029482486 0.027275138 -0.03583192 -0.07353607 0.0121053485 -0.071345225 -0.059521955
-0.06672805 -0.088715725 -0.052627176 0.058542386 0.011602253 0.0077246875 -0.07036731 -0.027985385
00000000: 668f b53d f96d 59bd 9c3f 053d 14e0 2ebd
00000010: 4473 bb3c 9782 b4bd 539b 87bc 09a9 2bbd
00000020: d6f5 0ebd c3e0 a53d 12ab 623d 13f8 89ba
00000030: c16c 623d 5a13 283d 47cd a83d 33b1 8abd
00000040: 8a8f be3c 2f2b 2bbd 2f2d af3c 646a 0a3d
00000050: 6ffa 173d b762 333c 0db9 5a3d bbeb 9f3b
00000060: b3c0 24bd 0db5 1dbd 96db 8ebc db19 b13c
00000070: 76e1 413d 6f89 98bc d05a fa3c a6ed e73b
00000080: 3224 b1bd 63c6 89bd 4f9a 2abb 5869 d9bc
00000090: 21e9 31bb 9c6d 953d 2fb4 82bd e1fb a73d
000000a0: 3236 803d 7714 8a3d 976e fdbc e16f 363d
000000b0: 98d9 febc 2aa4 fb3c fd7f 933c ede5 b33d
000000c0: d632 39bd 0b92 543b 2883 7c3c 3da9 763c
000000d0: fadc 7b3d 807a 5aba e4bb 42bd 60db abbd
000000e0: 0ea6 1e3d e66a 263d f32c 923d eb96 4bbd
000000f0: 29ff 89bd 5e9c 253d 2a21 89bc 6345 81bd
00000100: 5e4d 8fbd e154 953d ac7e 8f3d 6ca9 b13c
00000110: 4da4 95bd f9cd 69bd 0abe beba bacb b8bd
00000120: 07a2 a33d 31d1 9cbc 5768 26bd 86dd 80bd
00000130: 3ad3 753d ca22 703d 61f3 8b3d 22d7 1a3d
00000140: 9101 263b fc20 98bd 5292 a6bd 3173 aabd
00000150: 9acb a6bc 3628 603d c38e 583d b15c 293a
00000160: 0370 f0bc 65ad 8fbd 90b8 9dbd 1fd9 843d
00000170: 55db 0dbd 8e98 2c3c 5150 1abd 05fc 923d
00000180: 8898 993c 664e a3bd 786d bdbc 2e41 afbd
00000190: 25a3 5bbd 64ea 943d f83f 89bd 14a2 efbc
000001a0: a658 aebd 18bc cabc 9ba7 473d 212c f3bc
000001b0: 52ed e5bc 41b5 3abc 67a6 a5bd c451 91bb
000001c0: 05fe 893d 6bb6 55bd 752a 4fbd 79fd 033d
000001d0: 1df8 d13b 27a0 28bd c448 24bd 03ed 473c
000001e0: d9ef 613d 937e 173c 404e 953d a058 7f3b
000001f0: b98d 03bd 69d6 093c 026f b9bd 9f49 953d
00000200: 4d90 853d a48e f4ba 032e b43c a881 7b3d
00000210: 299a 16bd ebd5 9e3d 0813 603d 36a8 37bd
00000220: bab9 55bd 03e8 4cbd ee6f a4bd d0a2 b5bd
00000230: c227 273d a62f 373d c17c 9a3d 4c85 533c
00000240: ac5a 8dbc fa8f 31bd 9935 2abd c1fe fb3c
00000250: 49f1 79bd 77a5 29bd d5ca 143d 47a1 353d
00000260: aa0e a63d 7541 373c 9ed5 fd3c 888a f03c
00000270: a4b0 7c3d 6ae8 383d 3f9c 3ebc 4799 c3bc
00000280: 39af 30bc 70f3 453d a571 6a3d 3faf e63b
00000290: d735 13bd cacb 86bc 5284 9dbd bce7 8f3c
000002a0: 624c 8b3d 1678 eebc 24b7 33bd aff2 983d
000002b0: 319a a93d d5a4 a63d 1ee5 8bbd 11a9 a63d
000002c0: 515f 803d 47b7 923d 5bf8 37bc 9086 23bc
000002d0: 3fc5 1b3c b99e 67bd 5b89 833d b6e2 a0bd
000002e0: c0e9 8f3d d62d 3b3d 0a4c 3cbd e508 efbc
000002f0: 9c62 7abd 620d 733d b7a7 5e3d 233b f2ba
00000300: 0e59 733d bbf9 9a3d 704e e43c ba42 e23c
00000310: 047e f33c 743f 3dbd 4185 03bd 9f4e 3a3d
00000320: defd 3f3d ff59 923c bfbd a43b fa87 463d
00000330: 1c7c a6bd d808 543d 6c05 72bd c62d 57bd
00000340: a8ce aabd 6fa9 fb3c a840 aabd 2047 ca3b
00000350: e5da 873c d744 aebc f806 fb3c 1cac 073d
00000360: 937a 91bd 3621 52bd 8b32 3cbc 05ae a63d
00000370: 513b 9d3c c1cf 34bd 75bd 25bd d116 ad3c
00000380: 9156 8fbd af0d 623c e78a 8bbd 74e0 b33c
00000390: 6d58 5c3c 40e7 16bd b211 43bd 092d 5f3c
000003a0: 5305 043d 9da3 9a3d dc45 283d cde5 913d
000003b0: f961 afbc 9595 ed3b 480e df3c 4771 3c3d
000003c0: fb19 0f3d 4185 f1bc 1c70 df3c 7ec4 12bd
000003d0: 149a 96bd 8355 463c 721d 92bd 4bcd 73bd
000003e0: b7a8 88bd 97b0 b5bd 988f 57bd 24ca 6f3d
000003f0: 6017 3e3c 601f fd3b bc1c 90bd 9b41 e5bc

fc2.weight f4 [9, 256]
-0.0063364627 -0.0013992061 0.033651855 -0.0017428547 -0.050426643 0.010062824 0.017742185 -0.047333997
-0.011800446 0.036450654 -0.031561255 -0.047593918 0.012952312 -0.0118881585 -0.056630284 -0.0060497695
-0.013074999 0.045636356 0.003943347 0.035476703 -0.04983317 0.035874348 -0.012177663 -0.027898964
0.024860017 -0.048542626 0.037547857 -0.0226915 -0.02379779 -0.009800861 -0.029402979 0.050482593
-0.0371044 0.045161683 0.002662758 -0.027802879 -0.026500601 -0.033811208 -0.018127132 -0.044096805
-0.043104187 -0.0503718 0.0025990352 0.0025447472 -0.052288745 0.051455654 0.024875961 -0.017530708
-0.0068499073 -0.028864358 0.053456314 0.040659864 -0.01874649 -0.03268327 -0.034682065 0.0002933815
-0.05359514 -0.016371809 0.034607448 -0.011256461 -0.041166376 0.049121693 0.0067357426 0.0024988651
0.05624091 -0.061385363 -0.045984484 0.02291122 0.036599353 -0.015692122 -0.0063683507 0.01846426
-0.033595063 0.035180107 -0.057912096 -0.01127232 0.004968621 -0.0043119565 -0.013207637 -0.033632915
-0.0078089526 -0.028919265 0.04532814 -0.020811193 -0.053540364 -0.056390762 0.038874447 -0.03497649
0.045985673 0.03515146 0.0010871029 -0.016011402 -0.013195963 0.013243869 0.039986152 0.03526352
-0.003343463 0.018006697 -0.04272826 0.018048009 -0.013333328 -0.032635305 0.0030835352 0.036941953
-0.018921051 0.010539288 0.008318875 0.050912037 -0.005274443 -0.03367402 -0.044952787 -0.047200788
0.04272529 0.04490608 -0.010249501 -0.047935627 0.050551746 -0.0033794672 0.010996744 0.0017155284
-0.057431452 0.033678096 0.035158724 -0.027052835 0.053421766 -0.042796444 0.026758365 0.017219052
0.060914323 0.032016054 -0.020486007 0.008524787 -0.049693197 -0.010722779 0.03835362 -0.008164512
-0.037776947 0.026208796 0.03972027 0.04487273 -0.042522464 -0.029953174 -0.027618244 -0.05168403
-0.030234203 -0.034807593 -0.01355714 0.0068155783 -0.041227184 -0.016520808 0.045045592 0.04609766
0.049091592 0.014472016 -0.043715753 0.009373717 0.027346784 0.012661863 -0.018803345 -0.047381546
0.055253673 0.047758672 0.034866028 0.032977723 -0.013891596 -0.018822853 0.008310273 -0.043523725
-0.008180456 -0.036803544 0.02922685 -0.019075144 -0.043705653 -0.0007548183 0.025765607 -0.030164782
-0.009859727 0.055295937 0.05408153 -0.037439477 -0.035588246 -0.048216417 0.050679035 -0.040224377
-0.03383018 -0.054391205 -0.02799046 -0.017265508 0.02103942 -0.014304743 0.026573956 0.05314089
-0.04212837 0.035289317 0.0068048313 -0.0058380705 -0.031338055 0.053650435 0.023735143 0.006729813
0.038128234 -0.010835294 -0.03504047 0.047598228 0.048456423 0.01935702 0.06281292 0.008471538
-0.003914319 0.019228494 -0.043468587 -0.010594539 -0.018749945 0.049165435 0.028581485 -0.050023347
-0.055989075 0.04532203 -0.015328546 -0.057232056 -0.020459305 -0.034079246 0.032749496 0.031039558
-0.006525092 0.00032785957 0.052937552 -0.015005519 0.0012190174 -0.016715087 -0.015469581 0.023310777
0.015696373 -0.02326782 -0.04239141 0.046027847 -0.029214121 0.006013071 -0.02581662 0.05233069
0.04821377 -0.009296699 0.042519085 0.00966847 0.057180822 -0.024548694 0.009824742 -0.001806379
0.021769956 0.029909892 -0.040727317 -0.048319515 -0.015946498 0.0041507035 -0.0073421537 -0.025029775
00000000: 1aa2 cfbb 9165 b7ba 87d6 093d 8070 e4ba
00000010: 2b8c 4ebd 8bde 243c 0f58 913c 4be1 41bd
00000020: a856 41bc 484d 153d 6046 01bd d7f1 42bd
00000030: ef35 543c 8dc6 42bc 28f5 67bd 253d c6bb
00000040: 8538 56bc 30ed 3a3d 3137 813b 0550 113d
00000050: de1d 4cbd fbf0 123d d284 47bc 5e8c e4bc
00000060: 3ca7 cb3c a2d4 46bd c8cb 193d 86e3 b9bc
00000070: 95f3 c2bc ca93 20bc 84de f0bc d6c6 4e3d
00000080: c9fa 17bd 75fb 383d ab81 2e3b ddc2 e3bc
00000090: ca17 d9bc 9f7d 0abd 5a7f 94bc da9e 34bd
000000a0: 048e 30bd a952 4ebd 9354 2a3b c6c5 263b
000000b0: b92c 56bd 2ac3 523d acc8 cb3c 8f9c 8fbc
000000c0: 3075 e0bb f274 ecbc 02f5 5a3d f58a 263d
000000d0: 3d92 99bc e4de 05bd c80e 0ebd 00d1 9939
000000e0: 9486 5bbd 2c1e 86bc 8ac0 0d3d 056d 38bc
000000f0: 139e 28bd d433 493d 81b7 dc3b 00c4 233b
00000100: de5c 663d 386f 7bbd 3a5a 3cbd 50b0 bb3c
00000110: 34e9 153d c48c 80bc 99ad d0bb 5c42 973c
00000120: fa9a 09bd 0419 103d 3c35 6dbd 89af 38bc
00000130: d0cf a23b 504b 8dbb d864 58bc abc2 09bd
00000140: 3ee2 ffbb 18e8 ecbc 00aa 393d 3c7c aabc
00000150: 244d 5bbd 00fa 66bd d03a 1f3d 8243 0fbd
00000160: 795b 3c3d fafa 0f3d 1f7d 8e3a 582a 83bc
00000170: e133 58bc d0fc 583c 85c8 233d 7b70 103d
00000180: 001e 5bbb c882 933c d403 2fbd 6bd9 933c
00000190: 0874 5abc 99ac 05bd 2315 4a3b 7250 173d
000001a0: 5200 9bbc faac 2c3c e44b 083c 2489 503d
000001b0: 3cd5 acbb c5ed 09bd 6a20 38bd 9d55 41bd
000001c0: b700 2f3d 70ef 373d 86ed 27bc 2658 44bd
000001d0: 590f 4f3d 0d7a 5dbb b02b 343c 95db e03a
000001e0: 3e3d 6bbd 0bf2 093d 9802 103d e89d ddbc
000001f0: c8d0 5a3d 534b 2fbd 5c34 db3c f80e 8d3c
00000200: 4c81 793d 4423 033d 45d2 a7bc 8cab 0b3c
00000210: 188b 4bbd 98ae 2fbc af18 1d3d 72c4 05bc
00000220: 00bc 1abd d4b3 d63c b9b1 223d 78cc 373d
00000230: 092c 2ebd 5c60 f5bc a83f e2bc a2b2 53bd
00000240: b8ad f7bc 6892 0ebd c41e 5ebc 3755 df3b
00000250: d6dd 28bd a556 87bc ba81 383d e6d0 3c3d
00000260: 4414 493d 091c 6d3c 4a0f 33bd 3894 193c
00000270: 5d06 e03c b473 4f3c 7909 9abc 2713 42bd
00000280: ad51 623d 999e 433d aecf 0e3d a613 073d
00000290: 9499 63bc 6232 9abc d027 083c ef45 32bd
000002a0: 5207 06bc 50bf 16bd 266d ef3c 7a43 9cbc
000002b0: b304 33bd 00df 45ba 6512 d33c 221c f7bc
000002c0: b18a 21bc fe7d 623d 9884 5d3d 235a 19bd
000002d0: fbc4 11bd 947e 45bd d294 4f3d 51c2 24bd
000002e0: 8491 0abd 50c9 5ebd 404c e5bc 6570 8dbc
000002f0: dd5a ac3c 715e 6abc a0b1 d93c 43aa 593d
00000300: cc8e 2cbd 888b 103d 10fb de3b 494d bfbb
00000310: 555c 00bd 8fc0 5b3d 3470 c23c c385 dc3b
00000320: 5a2c 1c3d 8486 31bc 9986 0fbd 5cf6 423d
00000330: 3e7a 463d 9d92 9e3c 0fa4 803d 35cc 0a3c
00000340: b043 80bb 1385 9d3c 1e0c 32bd b894 2dbc
00000350: 7c99 99bc b261 493d b823 ea3c 48e5 4cbd
00000360: cd54 65bd 98a3 393d 9524 7bbc 296c 6abd
00000370: 469a a7bc ae96 0bbd 5624 063d ac46 fe3c
00000380: 70d0 d5bb 91e4 ab39 0cd5 583d b5d9 75bc
00000390: 70c7 9f3a 14ee 88bc 2074 7dbc 3ef6 be3c
000003a0: ae95 803c 289c bebc 9da2 2dbd b287 3c3d
000003b0: 7452 efbc 4c09 c53b 607d d3bc b558 563d
000003c0: cd7b 453d 2f51 18bc 7e28 2e3d 8168 1e3c
000003d0: 7036 6a3d 581a c9bc f4f7 203c 05c4 ecba
000003e0: e856 b23c 9705 f53c b0d1 26bd afea 45bd
000003f0: 3ba2 82bc a002 883b 7396 f0bb 3e0b cdbc

fc2.bias f4 [9]
-0.015813464 -0.019811792 -0.047755808 0.009887487 0.0063539892 -0.036467437 0.056169212 -0.045438964
0.014155326
00000000: 3d8b 81bc 574c a2bc 989b 43bd 20ff 213c
00000010: 2035 d03b e15e 15bd b011 663d 351e 3abd
00000020: beeb 673c
