checkpoints/pacman_ram/160.pt (torch_old, 142093 bytes, 4 tensors)

fc1.weight f4 [256, 128]
000000 28 1f a7 bd b1 9a 1b 3c d6 ce b1 bd 5c 8d 91 bd
       -0.081602395 0.0094973305 -0.08682029 -0.0710704
000010 86 56 89 3c 0b f4 76 bd 39 4f a2 3d 54 dc 00 3d
       0.01676489 -0.06029133 0.07925267 0.03146012
000020 34 48 00 3d 1e 69 56 3d c5 33 89 bb c1 07 39 bc
       0.03131886 0.05234634 -0.0041870796 -0.011293353
000030 19 8b 27 3d 61 24 2e bd 31 be 83 bc 61 e6 17 3c
       0.04090414 -0.042515162 -0.016081901 0.009271235
000040 b9 7d bb 3c 26 5e f6 bc 56 c7 19 bd f0 6a 6e bb
       0.022887098 -0.03007419 -0.037543617 -0.0036379658
000050 f6 23 1f 3d da a0 2d bd 8f c9 9f bd d4 6f 1d bd
       0.038852654 -0.042389728 -0.07802116 -0.038436726
000060 68 5d 94 bc 2f 4a 04 bb b5 c0 32 3c fc b1 99 bd
       -0.018110946 -0.0020185818 0.010910203 -0.07504651
000070 39 2c 3a 3c c7 9b 73 bd e0 bb 9f 3d 63 e2 c7 3c
       0.011363083 -0.059474733 0.07799506 0.024399942
000080 d0 ba d1 3c 89 cb d8 bc 6a c2 9e bd f3 bc 4d bd
       0.025601774 -0.02646424 -0.07751925 -0.050229024
000090 00 e0 85 bd fd 7f 46 3d be 9b c1 bc 3b 86 4b bd
       -0.06536865 0.048461903 -0.023633834 -0.04968856
0000a0 9f c0 a2 bd 28 06 4c bd 2c b3 98 3d 63 cc b0 bd
       -0.07946896 -0.04981056 0.07456049 -0.08632734
0000b0 df f5 ce bc 20 a8 91 bd 24 2e 9b bd 9e d6 01 bd
       -0.025263725 -0.071121454 -0.0757716 -0.031698816
0000c0 64 26 95 3c d6 b0 ad bd bf e8 6a bc fd 3e 11 bd
       0.018206783 -0.084809944 -0.014337718 -0.03546046
0000d0 52 86 b1 3d fa 31 ad 3b 4f d9 4c ba 1e 79 b4 3b
       0.08668198 0.0052854987 -0.0007814364 0.0055076024
0000e0 f5 7f e8 3c 7c a1 97 3b bf 8c 84 3d 52 e6 91 3d
       0.028381327 0.0046274047 0.06472158 0.07124008
0000f0 f0 49 18 3d 38 73 19 bb 14 ad f9 3c 32 78 79 3d
       0.037179887 -0.0023414623 0.030478038 0.060905643
000100 42 45 e3 3c fd 8a 56 bd be c3 72 bd 0b 5a a5 3d
       0.027742986 -0.052378643 -0.059268706 0.08073815
000110 de 29 62 bd 44 8e 7e 3b 92 86 b0 3c 2e dc 12 3d
       -0.05521571 0.003884212 0.021548543 0.03585451
000120 33 6e ad bc 3a bd 39 bc f1 4c 96 bc 4c 3a b6 3c
       -0.021170711 -0.011336619 -0.018347235 0.022244595
000130 2c b5 83 3d f4 9e 0b 3d e2 29 e8 3a 6b 27 60 3b
       0.0643104 0.034087136 0.0017712677 0.0034203182
000140 55 bc a4 3d 92 ee 96 3d 1a d8 62 bd 3f 0c 93 bc
       0.08043734 0.073697224 -0.05538187 -0.017950175
000150 ae f2 0b 3d 32 1d 93 bd 3d fe 9b bd 0c d5 8d 3d
       0.034166984 -0.07183303 -0.076168515 0.06925401
000160 5f 76 5c 3d 5d 32 69 3d 61 7a 7d bc 0d 29 9f bd
       0.053823825 0.056932796 -0.015471072 -0.07771502
000170 77 06 68 bd 74 71 99 3d b6 73 1a bd 05 c4 ab 3d
       -0.05664679 0.074923426 -0.037708007 0.08386997
000180 0a 90 7c 3d 90 e9 5f 3c 72 50 00 3d 74 72 55 bd
       0.061660804 0.0136665255 0.03132672 -0.052111104
000190 10 f4 e4 bb 73 f3 27 bd 21 7b aa 3d 5a e8 ab 3d
       -0.0069871023 -0.041003656 0.08324266 0.08393927
0001a0 a5 c0 a8 bd bf 00 a9 bc f7 b5 80 3d 4a 22 49 bc
       -0.08239869 -0.020630239 0.06284707 -0.012276242
0001b0 43 d0 7d 3d f6 c1 e2 3c 2f 4d fe 3c 92 7c ad 3c
       0.061966192 0.027680378 0.031042663 0.021177564
0001c0 e1 fe 37 bd 4e 9d 6d bd 75 16 52 3d d0 75 72 bd
       -0.044920806 -0.058011346 0.051290948 -0.059194386
0001d0 b8 96 96 3d 50 09 00 3d 25 75 d5 3c 51 4a a6 bd
       0.07352966 0.03125888 0.026056835 -0.081196435
0001e0 32 43 ef 3c c6 5b b8 bb 20 21 cf 3b 59 77 80 bc
       0.029206846 -0.0056261746 0.0063210875 -0.01568191
0001f0 7e 7b 5e 3d fc fd 63 bc 75 d6 aa 3d bc 9e 96 3d
       0.05431699 -0.013915535 0.08341686 0.07354495
000200 c7 0c 84 3d 7f 8e b5 3c e9 e9 85 bd 9d 3a a0 3c
       0.064477496 0.022162674 -0.065387554 0.019559199
000210 40 71 81 3d a5 fd 18 3d 0f 98 51 bc bc 3a f0 3b
       0.06320429 0.03735127 -0.012792601 0.0073312204
000220 72 60 91 bd 8b fb 35 bd 69 0e 8f 3d 70 dc 93 bd
       -0.070984736 -0.044429343 0.069851704 -0.072197795
000230 a9 40 2f 3d 4c e8 d6 3b a2 ce 8b 3d b2 e0 72 bd
       0.042786274 0.0065584537 0.068265215 -0.059296317
000240 da 7c 06 ba 87 c1 91 3c 39 b3 b9 bc 57 ab 13 bb
       -0.00051302987 0.017792476 -0.022668468 -0.0022532546
000250 98 2a 8c bc 19 1d 36 bd 7a 10 58 3d 2c 73 e8 3c
       -0.017110154 -0.044461343 0.05275009 0.02837523
000260 11 e3 29 bd 05 f3 10 bd b6 b3 f0 bc 9a 39 74 bd
       -0.041476313 -0.03538801 -0.029382568 -0.059625246
000270 aa 58 bc bd 76 b7 55 3d 9f 00 68 3d 29 c2 b4 3c
       -0.09196599 0.052176915 0.056641217 0.022065239
000280 3b 26 43 3d 40 b9 aa bd 50 b4 1d bd d8 fc e1 bc
       0.04764388 -0.08336115 -0.038502038 -0.027586386
000290 eb 83 9f ba 4d 62 93 bd 10 52 25 3d ab 5f b1 bd
       -0.0012170052 -0.07196484 0.040361464 -0.08660825
0002a0 5e b4 36 3d e9 6f a5 3d b3 1c 94 bd d0 84 03 3d
       0.044605605 0.08077986 -0.072320364 0.03210908
0002b0 70 ef 6d 3d c8 00 3f 3d 18 60 a6 3c 39 1b f5 39
       0.058089674 0.046631604 0.020309493 0.00046750324
0002c0 24 f6 7d bd 9c f8 9f bb 87 94 86 bc 7c 0c 2c 3c
       -0.062002316 -0.0048819315 -0.016428245 0.010501023
0002d0 b2 4f 04 3d e3 52 20 3c 4f 3e 43 bd 7f 04 39 3d
       0.032302566 0.009785387 -0.047666844 0.045170303
0002e0 76 6f 58 3d 04 66 f9 bc 10 56 a5 bd d3 89 a3 3d
       0.052840672 -0.030444153 -0.08073056 0.07985272
0002f0 4e 44 ab 3c ff 1a 09 bd 70 ad 0d 3d 38 f4 39 3c
       0.020906594 -0.03347301 0.03458923 0.01134973
000300 f3 bd 48 3d eb e8 fa bc 42 93 b3 b7 f4 94 33 3d
       0.049009275 -0.030628642 -2.1407035e-05 0.043843225
000310 1c 02 8d 3c dd 95 16 bc 17 a6 bb bb 01 f5 a0 3c
       0.01721292 -0.009191004 -0.0057265866 0.019648077
000320 7c 71 7a bd b0 1f 94 3d 68 74 8d bd e7 02 c1 3a
       -0.061143383 0.072326064 -0.06906968 0.0014725596
000330 55 5d 6b bd 98 87 e0 bc d0 f2 04 3d 50 b5 da bb
       -0.057462055 -0.027408406 0.032458127 -0.006674446
000340 d5 25 a3 bd 8b a0 8c 3d 1a 1c 9b 3d 62 ae 89 bb
       -0.079662 0.06866559 0.07573719 -0.0042016963
000350 0c 31 03 3d 05 c4 b5 3c fc 56 90 3d 49 8d 34 bd
       0.032029197 0.022188196 0.07047841 -0.044080053
000360 10 fa 02 3d c8 c2 a3 bd 1b db b8 bc f6 3e b7 bd
       0.03197676 -0.07996136 -0.022565415 -0.08947556
000370 93 ef 53 bd 2d e6 6c 3d 4c e9 e1 3c f4 51 27 bd
       -0.051742148 0.0578367 0.027577065 -0.04084964
000380 fd cd 97 3d 79 69 11 3d d9 57 a7 bd 39 97 86 bd
       0.07412336 0.035500977 -0.081710525 -0.06571812
000390 95 03 a6 bd 52 61 91 bd d3 5f 0e 3d 20 ce 60 bd
       -0.08106152 -0.070986405 0.034759354 -0.054884076
0003a0 1d 8b 59 3c f9 a9 0a bd 4e 3e a1 3b 5f b3 42 bd
       0.013277796 -0.033853505 0.0049207574 -0.047534343
0003b0 d9 44 4a 3d c4 62 90 bd 97 56 ad bd d1 1d 60 3c
       0.049382064 -0.07050088 -0.08463781 0.013678984
0003c0 93 b0 34 bc 28 ea a4 3d e0 98 a9 bd 43 cf 59 bd
       -0.011028427 0.08052474 -0.08281112 -0.053176176
0003d0 df 9d 47 bc bc 53 dc 3b 95 55 a4 3d 60 ab 89 3c
       -0.0121836355 0.006723849 0.08024136 0.01680535
0003e0 47 74 aa bd a1 46 8b 3d c0 e5 a0 ba 59 2d 49 bc
       -0.083229594 0.06800581 -0.0012275502 -0.012278878
0003f0 7b a3 2f bd a8 39 b1 bd fe 2b 93 bd 90 dd 70 3c
       -0.042880516 -0.08653575 -0.07186125 0.014701262

fc1.bias f4 [256]
000000 19 03 b5 3d f9 6d 59 bd ac 31 02 3d 14 e0 2e bd
       0.088384815 -0.053083394 0.031785652 -0.042694166
000010 f1 d1 b9 3c ae 36 b5 bd 1b f0 84 bc 29 7c 2d bd
       0.022683116 -0.0884832 -0.016227772 -0.042354736
000020 d6 f5 0e bd 6c 9e a5 3d 12 ab 62 3d fa 81 74 ba
       -0.034902416 0.08086857 0.055338927 -0.00093272293
000030 08 6b 62 3d 8a 0e 2b 3d 47 cd a8 3d 52 e1 8d bd
       0.055277854 0.041761912 0.082422785 -0.06927742
000040 ac 07 b7 3c 2f 2b 2b bd 3b 5e 95 3c ad d0 0a 3d
       0.022342525 -0.04178923 0.01823341 0.033890415
000050 a5 54 15 3d 7e 1e 3c 3c 9b 81 59 3d 28 a2 ac 3b
       0.036457676 0.011481879 0.053102117 0.005268354
000060 b3 c0 24 bd 80 c4 1f bd 82 5b 91 bc cb f2 b3 3c
       -0.040222835 -0.039005756 -0.01774383 0.021966359
000070 76 e1 41 3d 6f 89 98 bc d0 5a fa 3c 7f d9 e1 3b
       0.047334157 -0.018620221 0.03056088 0.0068923826
000080 32 24 b1 bd 08 96 8a bd d8 58 34 bb 9b c2 df bc
       -0.08649482 -0.067668974 -0.0027518775 -0.027314475
000090 21 e9 31 bb bb b7 92 3d 2f b4 82 bd e1 fb a7 3d
       -0.0027147012 0.0716395 -0.063820235 0.08202339
0000a0 32 36 80 3d 77 14 8a 3d 81 55 ff bc e0 6b 36 3d
       0.06260337 0.067421846 -0.031168701 0.04453647
0000b0 f1 db 00 bd e8 c5 f7 3c 0e 04 90 3c 63 03 b3 3d
       -0.031459752 0.030245736 0.017580058 0.0874088
0000c0 d6 32 39 bd 4e fc 31 3b 28 83 7c 3c bd ad 75 3c
       -0.045214497 0.0027158442 0.015412129 0.014995036
0000d0 89 cd 7a 3d 80 7a 5a ba e4 bb 42 bd 60 db ab bd
       0.06123117 -0.0008334294 -0.047542468 -0.08391452
0000e0 0e a6 1e 3d e6 6a 26 3d f3 2c 92 3d eb 96 4b bd
       0.03873258 0.04062929 0.0713748 -0.049704473
0000f0 f7 39 8a bd 5e 9c 25 3d c6 4f 89 bc 63 45 81 bd
       -0.06749337 0.040432326 -0.016761672 -0.063120626
000100 5e 4d 8f bd e1 54 95 3d ac 7e 8f 3d 6c a9 b1 3c
       -0.069971785 0.0729158 0.070065826 0.021687232
000110 4d a4 95 bd 6d 0e 69 bd 4c 88 e6 ba c3 6f b9 bd
       -0.073067285 -0.056898523 -0.0017588227 -0.0905452
000120 07 a2 a3 3d 85 ea 9c bc 57 68 26 bd c0 34 81 bd
       0.07989889 -0.019154796 -0.04062685 -0.063088894
000130 3a d3 75 3d ca 22 70 3d 61 f3 8b 3d 22 d7 1a 3d
       0.060015894 0.058626927 0.0683353 0.037802823
000140 91 01 26 3b 3c 3e 99 bd 6c 75 a5 bd 31 73 aa bd
       0.0025330523 -0.074825734 -0.08079037 -0.08322752
000150 9a cb a6 bc 36 28 60 3d 8c 06 57 3d b1 5c 29 3a
       -0.020360757 0.05472585 0.052496478 0.00064606505
000160 4a bb f2 bc 97 fa 8e bd 58 89 9e bd 1f d9 84 3d
       -0.029630322 -0.0698139 -0.0774104 0.06486725
000170 65 37 10 bd 85 b3 38 3c dc 4f 17 bd 78 58 92 3d
       -0.03520908 0.01127327 -0.036941394 0.0714578
000180 88 98 99 3c 66 4e a3 bd 78 6d bd bc bc eb af bd
       0.01874949 -0.07973938 -0.023123488 -0.08589885
000190 32 09 5f bd 57 4c 94 3d e6 e7 89 bd 24 15 f0 bc
       -0.05445213 0.07241123 -0.06733684 -0.029306956
0001a0 a8 b2 ae bd d9 74 c5 bc bd 7c 46 3d 0b 5c f4 bc
       -0.0853017 -0.024103569 0.048458803 -0.029829046
0001b0 52 ed e5 bc 77 f2 43 bc f8 4f a6 bd 27 ce 0a bc
       -0.028067265 -0.011959664 -0.081207216 -0.008472002
0001c0 c5 21 89 3d 88 cd 53 bd 75 2a 4f bd fe 88 02 3d
       0.06695894 -0.05170968 -0.0505776 0.031868927
0001d0 1d f8 d1 3b 43 83 2a bd e1 8f 5d bd 03 ed 47 3c
       0.0064077512 -0.041629087 -0.05409229 0.012202504
0001e0 d9 ef 61 3d 3e ac 1f 3c cb b4 94 3d a0 58 7f 3b
       0.055160377 0.009745656 0.07261046 0.0038962737
0001f0 54 22 05 bd 56 fe 03 3c 02 6f b9 bd 3e f2 94 3d
       -0.03250344 0.008056244 -0.09054376 0.072727665
000200 4d 90 85 3d 0f c5 09 bb df e7 af 3c a8 81 7b 3d
       0.06521664 -0.0021021997 0.02147287 0.061402947
000210 f3 4a 14 bd eb d5 9e 3d f3 a6 5e 3d 36 a8 37 bd
       -0.03620429 0.07755645 0.054358434 -0.044838153
000220 60 dc 55 bd d6 55 4d bd eb 6b a4 bd b6 fb b5 bd
       -0.05221212 -0.050130688 -0.08028396 -0.08885901
000230 94 f6 27 3d a6 2f 37 3d 7e 97 98 3d 26 22 51 3c
       0.04100664 0.044723175 0.0745077 0.012764489
000240 ac 5a 8d bc 2b 5e 31 bd 20 5d 30 bd 3d 32 fe 3c
       -0.01725515 -0.043302696 -0.04305756 0.031029815
000250 a9 fb 7a bd ab 24 28 bd 95 70 13 3d a1 60 37 3d
       -0.061275158 -0.041050594 0.03599604 0.044769887
000260 01 0c a6 3d c6 f3 46 3c cd b7 f1 3c 88 8a f0 3c
       0.08107758 0.012143081 0.029506588 0.029362932
000270 ed f4 79 3d 95 f8 36 3d 0d 5b 39 bc 47 99 c3 bc
       0.061024595 0.04467066 -0.011313212 -0.0238768
000280 39 af 30 bc 89 64 43 3d 07 6d 69 3d bf 0e f3 3b
       -0.010783964 0.0477033 0.056988742 0.0074175294
000290 d7 35 13 bd ae 8f 86 bc 52 84 9d bd f5 e9 8d 3c
       -0.035940018 -0.016425934 -0.07691254 0.017323473
0002a0 62 4c 8b 3d a7 cc e6 bc a0 c6 33 bd 95 e3 97 3d
       0.06801678 -0.028173758 -0.043890595 0.07416455
0002b0 cf 3e a8 3d d5 a4 a6 3d 1e e5 8b bd 4b de a6 3d
       0.08215105 0.08136908 -0.0683081 0.08147868
0002c0 7c 11 80 3d 47 b7 92 3d 5b f8 37 bc 90 86 23 bc
       0.06253335 0.07163864 -0.011228646 -0.009980813
0002d0 a2 f2 28 3c b9 9e 67 bd 9e 59 83 3d b6 e2 a0 bd
       0.010311754 -0.056547854 0.064135775 -0.07855742
0002e0 3b df 91 3d d6 2d 3b 3d 09 08 3d bd 4b f1 f4 bc
       0.07122656 0.04569801 -0.04615024 -0.029900214
0002f0 b4 b9 7d bd 71 1a 70 3d c2 3a 5e 3d 23 3b f2 ba
       -0.06194468 0.058618966 0.054255255 -0.0018480759
000300 0e 59 73 3d bb f9 9a 3d 70 4e e4 3c 68 f5 da 3c
       0.0594111 0.075671636 0.027869433 0.026728347
000310 40 42 f4 3c 74 3f 3d bd 41 85 03 bd a2 da 39 3d
       0.029816747 -0.04620309 -0.032109503 0.04537452
000320 41 94 3c 3d 1a d8 98 3c bf bd a4 3b 56 73 48 3d
       0.046039823 0.018657733 0.0050275023 0.048938118
000330 1c 7c a6 bd d0 da 53 3d 6c 05 72 bd 2c b2 59 bd
       -0.08129141 0.051722348 -0.059087202 -0.053148434
000340 a8 ce aa bd 4c cc f8 3c a3 25 ad bd 20 47 ca 3b
       -0.08340198 0.030370854 -0.08454444 0.0061730295
000350 e0 da 87 3c d7 44 ae bc f8 06 fb 3c 1c ac 07 3d
       0.01658386 -0.02127306 0.030642971 0.03312312
000360 bb f1 93 bd a6 bc 53 bd eb c2 44 bc 05 71 a6 3d
       -0.07223841 -0.05169358 -0.012009363 0.081270255
000370 0a ff a2 3c ce 09 39 bd 8d 7a 24 bd d1 16 ad 3c
       0.019897003 -0.045175366 -0.040155936 0.021129044
000380 91 56 8f bd 00 1a 61 3c 50 ea 8b bd 23 31 b0 3c
       -0.06998933 0.013739109 -0.06831801 0.021507805
000390 6d 58 5c 3c a9 9e 19 bd b2 11 43 bd 6d 20 63 3c
       0.013448817 -0.037504826 -0.047624297 0.013862711
0003a0 3a a8 02 3d 53 6b 9a 3d dc 45 28 3d cd e5 91 3d
       0.031898715 0.07540002 0.041082248 0.07123909
0003b0 f9 61 af bc b8 64 dd 3b 14 f6 df 3c 81 70 3c 3d
       -0.021409022 0.0067563914 0.027339019 0.04600573
0003c0 ea d7 0b 3d 43 27 f0 bc 7c 09 e1 3c 49 34 10 bd
       0.03414146 -0.029315596 0.027470343 -0.035206113
0003d0 14 9a 96 bd 1d 4c 45 3c 76 ff 93 bd 9c 28 77 bd
       -0.07353607 0.012042073 -0.0722646 -0.060341462
0003e0 a5 0e 89 bd dd f9 b7 bd 98 8f 57 bd d8 79 6d 3d
       -0.06692246 -0.089832045 -0.052627176 0.057977527
0003f0 3f 6c 3a 3c 60 1f fd 3b bc 1c 90 bd de 98 e8 bc
       0.011378347 0.0077246875 -0.07036731 -0.028393205

fc2.weight f4 [9, 256]
000000 a4 56 cd bb 91 65 b7 ba 18 7f 03 3d 80 70 e4 ba
       -0.006266432 -0.0013992061 0.032103628 -0.0017428547
000010 f3 91 4a bd 18 7d 21 3c d8 52 91 3c f7 f0 3d bd
       -0.049455594 0.009856485 0.017739698 -0.04637238
000020 a8 56 41 bc 08 51 16 3d 60 46 01 bd d7 f1 42 bd
       -0.011800446 0.03669837 -0.031561255 -0.047593918
000030 e2 7b 53 3c 7a b2 20 bc 28 f5 67 bd 25 3d c6 bb
       0.012907954 -0.009808177 -0.056630284 -0.0060497695
000040 b2 56 54 bc 30 ed 3a 3d c4 2e 86 3b 3a 09 0a 3d
       -0.012960123 0.045636356 0.0040949304 0.033700205
000050 d5 23 4b bd ae d4 14 3d 6f 06 48 bc fe 73 e4 bc
       -0.04959472 0.03633564 -0.012208565 -0.02788734
000060 3c a7 cb 3c d2 6c 43 bd dc e5 17 3d 9c bd a6 bc
       0.024860017 -0.0477112 0.037084445 -0.020354085
000070 95 f3 c2 bc ca 93 20 bc 84 de f0 bc e5 82 4c 3d
       -0.02379779 -0.009800861 -0.029402979 0.04992952
000080 c9 fa 17 bd ef 48 38 3d ab 81 2e 3b d3 e0 de bc
       -0.0371044 0.04499143 0.002662758 -0.027206814
000090 ca 17 d9 bc 9f 7d 0a bd 5a 7f 94 bc da 9e 34 bd
       -0.026500601 -0.033811208 -0.018127132 -0.044096805
0000a0 04 8e 30 bd a9 52 4e bd 4d 6e da 3a c6 c5 26 3b
       -0.043104187 -0.0503718 0.0016664952 0.0025447472
0000b0 ce e2 55 bd 90 20 4f 3d 17 b2 ce 3c 06 88 8f bc
       -0.05221825 0.050568163 0.025231404 -0.017520916
0000c0 30 75 e0 bb e2 20 e8 bc 02 f5 5a 3d f3 3d 26 3d
       -0.0068499073 -0.028335992 0.053456314 0.040586423
0000d0 fa ac 98 bc e4 de 05 bd c8 0e 0e bd 00 d1 99 39
       -0.01863717 -0.03268327 -0.034682065 0.0002933815
0000e0 94 86 5b bd 2c 1e 86 bc 8a c0 0d 3d 05 6d 38 bc
       -0.05359514 -0.016371809 0.034607448 -0.011256461
0000f0 e9 8d 2b bd d4 33 49 3d 51 d9 ce 3b 00 c4 23 3b
       -0.041883383 0.049121693 0.006312527 0.0024988651
000100 de 5c 66 3d 38 6f 7b bd 3a 5a 3c bd 50 b0 bb 3c
       0.05624091 -0.061385363 -0.045984484 0.02291122
000110 34 e9 15 3d c8 8a 72 bc 6d f9 bf bb ec 86 94 3c
       0.036599353 -0.014803596 -0.0058585913 0.018130742
000120 fa 9a 09 bd f6 40 0e 3d 3c 35 6d bd b5 22 34 bc
       -0.033595063 0.03472992 -0.057912096 -0.010994603
000130 d0 cf a2 3b 50 4b 8d bb d8 64 58 bc ab c2 09 bd
       0.004968621 -0.0043119565 -0.013207637 -0.033632915
000140 3e e2 ff bb c6 26 e6 bc e7 e0 39 3d 3c 7c aa bc
       -0.0078089526 -0.02809466 0.0453805 -0.020811193
000150 24 4d 5b bd 00 fa 66 bd d0 3a 1f 3d 82 43 0f bd
       -0.053540364 -0.056390762 0.038874447 -0.03497649
000160 af b2 3d 3d 14 4f 10 3d 69 26 08 39 58 2a 83 bc
       0.046312984 0.035231665 0.0001298428 -0.016011402
000170 f2 c4 55 bc cc c4 4f 3c 77 98 2a 3d a4 64 11 3d
       -0.013047444 0.012681197 0.041649308 0.03549637
000180 00 1e 5b bb c8 82 93 3c d4 03 2f bd 7c a5 98 3c
       -0.003343463 0.018006697 -0.04272826 0.018633597
000190 c5 36 4b bc 34 c9 02 bd 23 15 4a 3b 83 34 12 3d
       -0.012403195 -0.031930164 0.0030835352 0.03569461
0001a0 c8 b9 98 bc 60 d0 3b 3c 23 4d 0d 3c 24 89 50 3d
       -0.018643275 0.011463255 0.008624348 0.050912037
0001b0 3c d5 ac bb 8d 16 09 bd 27 af 33 bd 5a 3e 40 bd
       -0.005274443 -0.03346877 -0.04386821 -0.046934463
0001c0 ec 24 1d 3d 16 7b 2f 3d 86 ed 27 bc 4c 29 3d bd
       0.03836529 0.042841993 -0.010249501 -0.046181962
0001d0 59 0f 4f 3d e0 c2 ef ba b0 2b 34 3c 95 db e0 3a
       0.050551746 -0.001829233 0.010996744 0.0017155284
0001e0 3e 3d 6b bd 3d 11 0a 3d ed 01 13 3d e8 9d dd bc
       -0.057431452 0.033707846 0.03589051 -0.027052835
0001f0 97 c2 5b 3d 53 4b 2f bd 5c 34 db 3c 04 b1 8a 3c
       0.053652372 -0.042796444 0.026758365 0.01693011
000200 4c 81 79 3d 6b 6c 04 3d 15 d9 a6 bc 8c ab 0b 3c
       0.060914323 0.032329958 -0.020367185 0.008524787
000210 33 5f 46 bd 98 ae 2f bc be 79 1e 3d 72 c4 05 bc
       -0.048430633 -0.010722779 0.03869032 -0.008164512
000220 93 36 14 bd 2e 26 d0 3c d7 d6 22 3d 96 e7 37 3d
       -0.03618486 0.02540883 0.03975567 0.044898592
000230 ac 1b 2b bd 5c 60 f5 bc 36 3b e1 bc f5 29 55 bd
       -0.041774437 -0.029953174 -0.027494054 -0.052041966
000240 b8 ad f7 bc c5 3b 0b bd 56 72 5f bc 77 20 e1 3b
       -0.030234203 -0.033992548 -0.0136381 0.006870325
000250 c1 82 22 bd 59 87 8b bc f3 67 34 3d 50 ef 37 3d
       -0.039675478 -0.017032312 0.044044446 0.04490596
000260 60 36 4b 3d 38 1f 78 3c fa 3b 32 bd 38 94 19 3c
       0.049612403 0.015144162 -0.04351423 0.009373717
000270 89 38 df 3c b4 47 5e 3c 74 3f 9a bc 27 13 42 bd
       0.027248638 0.0135669 -0.018829085 -0.047381546
000280 ad 51 62 3d 8c a6 41 3d ab f0 0d 3d 48 a0 06 3d
       0.055253673 0.047277972 0.034653347 0.0328677
000290 94 99 63 bc de e5 99 bc d0 27 08 3c ef 45 32 bd
       -0.013891596 -0.018786367 0.008310273 -0.043523725
0002a0 52 07 06 bc b1 01 16 bd 34 9e f0 3c e8 31 9c bc
       -0.008180456 -0.036622707 0.029372312 -0.019066766
0002b0 b3 04 33 bd 00 df 45 ba 65 12 d3 3c 12 85 ef bc
       -0.043705653 -0.0007548183 0.025765607 -0.029238258
0002c0 50 d3 0f bc fe 7d 62 3d 98 84 5d 3d 23 5a 19 bd
       -0.008778408 0.055295937 0.05408153 -0.037439477
0002d0 77 03 0c bd 94 7e 45 bd d2 94 4f 3d 51 c2 24 bd
       -0.03418299 -0.048216417 0.050679035 -0.040224377
0002e0 8e a2 09 bd 50 c9 5e bd 62 f1 d7 bc 65 70 8d bc
       -0.03360229 -0.054391205 -0.026360217 -0.017265508
0002f0 9f 40 b6 3c d7 4f 72 bc bf f1 d0 3c 43 aa 59 3d
       0.02224761 -0.014789543 0.025505899 0.05314089
000300 cc 8e 2c bd 88 8b 10 3d 10 fb de 3b 07 e1 b7 bb
       -0.04212837 0.035289317 0.0068048313 -0.005611542
000310 55 5c 00 bd 8f c0 5b 3d 34 70 c2 3c 2c fc d7 3b
       -0.031338055 0.053650435 0.023735143 0.0065913405
000320 52 1c 19 3d 69 b3 31 bc 99 86 0f bd 29 85 44 3d
       0.037380524 -0.010845997 -0.03504047 0.047978554
000330 3e 7a 46 3d 9d 92 9e 3c 0f a4 80 3d c7 94 09 3c
       0.048456423 0.01935702 0.06281292 0.008397288
000340 b0 43 80 bb 76 7d a9 3c 98 80 31 bd b8 94 2d bc
       -0.003914319 0.020689707 -0.043335527 -0.010594539
000350 70 99 99 bc b2 61 49 3d b8 23 ea 3c 48 e5 4c bd
       -0.018749923 0.049165435 0.028581485 -0.050023347
000360 cd 54 65 bd c1 d0 38 3d 9f 29 7e bc 29 6c 6a bd
       -0.055989075 0.04512096 -0.015512853 -0.057232056
000370 cd 3e b4 bc d2 3b 02 bd 5d 44 05 3d ac 46 fe 3c
       -0.022002602 -0.03179533 0.0325359 0.031039558
000380 70 d0 d5 bb 36 04 5c bb 80 db 54 3d c9 0b 76 bc
       -0.006525092 -0.0033571846 0.051967144 -0.015017458
000390 70 c7 9f 3a cc 7a 87 bc 20 74 7d bc 43 64 c4 3c
       0.0012190174 -0.016538046 -0.015469581 0.02397359
0003a0 42 a4 81 3c 9b ae c1 bc 9d a2 2d bd b2 87 3c 3d
       0.015825395 -0.023642829 -0.04239141 0.046027847
0003b0 74 52 ef bc 4c 09 c5 3b f4 2a d1 bc b5 58 56 3d
       -0.029214121 0.006013071 -0.025533177 0.05233069
0003c0 f6 c4 4a 3d fe de 12 bc f9 8f 2c 3d 0b 6e 0e 3c
       0.049504243 -0.008964298 0.04212949 0.0086932285
0003d0 70 36 6a 3d 58 1a c9 bc 10 8c 1f 3c 67 69 10 ba
       0.057180822 -0.024548694 0.009737983 -0.000550887
0003e0 ca 86 b1 3c 97 05 f5 3c b0 d1 26 bd 44 0b 44 bd
       0.021670718 0.029909892 -0.040727317 -0.047862306
0003f0 bc 3a 80 bc a0 02 88 3b 73 96 f0 bb aa 04 ca bc
       -0.015653007 0.0041507035 -0.0073421537 -0.024660427

fc2.bias f4 [9]
000000 91 9a 7f bc 38 05 a1 bc e0 d3 42 bd 20 ff 21 3c
       -0.015600816 -0.019655809 -0.04756534 0.009887487
000010 20 35 d0 3b f1 ae 13 bd 6d 4d 67 3d d1 fb 38 bd
       0.0063539892 -0.03605551 0.056470323 -0.045162026
000020 fe 53 65 3c
       0.013997076
