checkpoints/pacman_ram/180.pt (torch_old, 142093 bytes, 4 tensors)

fc1.weight f4 [256, 128]
0	0xbda71f28	-0.081602395
1	0x3c246400	0.0100336075
2	0xbdb1f84f	-0.08689939
3	0xbd9086aa	-0.07056935
4	0x3c8fa4af	0.017534582
5	0xbd61a514	-0.05508907
6	0x3da23581	0.07920361
7	0x3d03861d	0.032110322
8	0x3d0185e8	0.031621844
9	0x3d56a30d	0.05240159
10	0xbbaa23c9	-0.005192254
11	0xbc3c3801	-0.011487962
12	0x3d256467	0.040378954
13	0xbd2ece96	-0.042677484
14	0xbc9479b5	-0.01812444
15	0x3bdf277b	0.0068101264
16	0x3cba0e92	0.022712026
17	0xbcf72c87	-0.0301726
18	0xbd22a8bd	-0.039711703
19	0xbb80561b	-0.0039165146
20	0x3d1f23f6	0.038852654
21	0xbd2da0da	-0.042389728
22	0xbda26117	-0.07928675
23	0xbd1d6fd4	-0.038436726
24	0xbc945d68	-0.018110946
25	0xbb9175ed	-0.0044391067
26	0x3c2692db	0.010166849
27	0xbd99cc19	-0.07509632
28	0x3c27cd84	0.01024187
29	0xbd8004df	-0.06250929
30	0x3da39477	0.07987302
31	0x3cc6eaf7	0.024281962
32	0x3ccf72a8	0.025323227
33	0xbcb08c05	-0.021551142
34	0xbd9f9740	-0.077925205
35	0xbd52533d	-0.051348913
36	0xbd86b0e4	-0.06576708
37	0x3d422aa4	0.047403947
38	0xbcc2940e	-0.023752239
39	0xbd50d7c4	-0.05098702
40	0xbda2c09f	-0.07946896
41	0xbd44de8b	-0.048063796
42	0x3d96cc4c	0.07363185
43	0xbda93c30	-0.08263433
44	0xbcda08a9	-0.026615458
45	0xbd923725	-0.07139424
46	0xbd9c9e8e	-0.076474294
47	0xbd012d85	-0.03153755
48	0x3c9a4a8f	0.01883438
49	0xbdaf160d	-0.08549128
50	0xbc7eb0fc	-0.015545126
51	0xbd0c7e45	-0.034300108
52	0x3db0454e	0.08606969
53	0x3ba432b8	0.005010929
54	0xbaa0ff85	-0.0012283182
55	0x3bf261eb	0.0073969266
56	0x3d009a7e	0.031397335
57	0x3b7b3bb0	0.0038335137
58	0x3d84df44	0.06487897
59	0x3d90fcb7	0.070794515
60	0x3d16f06a	0.03685037
61	0xbb2fd7f3	-0.0026831597
62	0x3cf9ad14	0.030478038
63	0x3d7827e5	0.06058492
64	0x3ce0f075	0.027458409
65	0xbd56b564	-0.05241908
66	0xbd73c764	-0.059516326
67	0x3da4ed3e	0.08053063
68	0xbd634ded	-0.055494238
69	0x3b725898	0.0036979076
70	0x3cb165fe	0.021655079
71	0x3d15185a	0.036400177
72	0xbcad6b53	-0.02116934
73	0xbc32f0b6	-0.010921648
74	0xbc989519	-0.018625783
75	0x3cb90d56	0.022589367
76	0x3d84b2c8	0.06479412
77	0x3d0a7ae5	0.033808608
78	0x3b0bd717	0.002133792
79	0x3b88ea60	0.0041783303
80	0x3da42a4a	0.080158785
81	0x3d96c7be	0.073623165
82	0xbd63bc14	-0.055599287
83	0xbc93055b	-0.01794689
84	0x3d0f230a	0.034945525
85	0xbd918671	-0.07105721
86	0xbd9c9048	-0.07644707
87	0x3d8d15b7	0.068889074
88	0x3d5d29bb	0.053994875
89	0x3d6c0f27	0.057631638
90	0xbc7c3564	-0.015393589
91	0xbd9dfc9b	-0.07714196
92	0xbd65d090	-0.056107104
93	0x3d98feda	0.07470484
94	0xbd1bd0b1	-0.03804082
95	0x3dabc405	0.08386997
96	0x3d7bd080	0.061478138
97	0x3c5ce24a	0.013481686
98	0x3cfc81cd	0.030823613
99	0xbd55fe80	-0.052244663
100	0xbbd30ca4	-0.006440716
101	0xbd291782	-0.041282184
102	0x3da9e916	0.08296411
103	0x3dab564f	0.083660714
104	0xbda952b0	-0.082677245
105	0xbc9fc615	-0.019503633
106	0x3d8023eb	0.06256851
107	0xbc2cf113	-0.010555523
108	0x3d7cac34	0.061687663
109	0x3ce04716	0.027377646
110	0x3cfc0506	0.030764114
111	0x3cab346c	0.02089902
112	0xbd3922f0	-0.045199335
113	0xbd6ec15d	-0.058289874
114	0x3d50f266	0.05101242
115	0xbd7399df	-0.059472915
116	0x3d9c8ccb	0.07644042
117	0x3cff046b	0.031130036
118	0x3ce9698a	0.028492708
119	0xbdacb4ba	-0.08432908
120	0x3ceb3f63	0.028716749
121	0xbc0a4079	-0.008438223
122	0x3bcf2120	0.0063210875
123	0xbc562d29	-0.01307229
124	0x3d63cd17	0.05561551
125	0xbc6a2c17	-0.014292738
126	0x3da9f5e1	0.08298851
127	0x3d960cb1	0.073266394
128	0x3d840cc7	0.064477496
129	0x3cb58e7f	0.022162674
130	0xbd85e9e9	-0.065387554
131	0x3ca03a9d	0.019559199
132	0x3d817140	0.06320429
133	0x3d18fda5	0.03735127
134	0xbc51980f	-0.012792601
135	0x3bf03abc	0.0073312204
136	0xbd916072	-0.070984736
137	0xbd35fb8b	-0.044429343
138	0x3d8f0e69	0.069851704
139	0xbd93dc70	-0.072197795
140	0x3d2f40a9	0.042786274
141	0x3bd6e84c	0.0065584537
142	0x3d8bcea2	0.068265215
143	0xbd72e0b2	-0.059296317
144	0xba067cda	-0.00051302987
145	0x3c91c187	0.017792476
146	0xbcb9b339	-0.022668468
147	0xbb13ab57	-0.0022532546
148	0xbc8c2a98	-0.017110154
149	0xbd361d19	-0.044461343
150	0x3d58107a	0.05275009
151	0x3ce8732c	0.02837523
152	0xbd29e311	-0.041476313
153	0xbd10f305	-0.03538801
154	0xbcf0b3b6	-0.029382568
155	0xbd74399a	-0.059625246
156	0xbdbc58aa	-0.09196599
157	0x3d55b776	0.052176915
158	0x3d68009f	0.056641217
159	0x3cb4c229	0.022065239
160	0x3d43263b	0.04764388
161	0xbdaab940	-0.08336115
162	0xbd1db450	-0.038502038
163	0xbce1fcd8	-0.027586386
164	0xba9f83eb	-0.0012170052
165	0xbd93624d	-0.07196484
166	0x3d255210	0.040361464
167	0xbdb15fab	-0.08660825
168	0x3d36b45e	0.044605605
169	0x3da56fe9	0.08077986
170	0xbd941cb3	-0.072320364
171	0x3d0384d0	0.03210908
172	0x3d6def70	0.058089674
173	0x3d3f00c8	0.046631604
174	0x3ca66018	0.020309493
175	0x39f51b39	0.00046750324
176	0xbd7df624	-0.062002316
177	0xbb9ff89c	-0.0048819315
178	0xbc869487	-0.016428245
179	0x3c2c0c7c	0.010501023
180	0x3d044fb2	0.032302566
181	0x3c2052e3	0.009785387
182	0xbd433e4f	-0.047666844
183	0x3d39047f	0.045170303
184	0x3d586f76	0.052840672
185	0xbcf96604	-0.030444153
186	0xbda55610	-0.08073056
187	0x3da389d3	0.07985272
188	0x3cab444e	0.020906594
189	0xbd091aff	-0.03347301
190	0x3d0dad70	0.03458923
191	0x3c39f438	0.01134973
192	0x3d48bdf3	0.049009275
193	0xbcfae8eb	-0.030628642
194	0xb7b39342	-2.1407035e-05
195	0x3d3394f4	0.043843225
196	0x3c8d021c	0.01721292
197	0xbc1695dd	-0.009191004
198	0xbbbba617	-0.0057265866
199	0x3ca0f501	0.019648077
200	0xbd7a717c	-0.061143383
201	0x3d941fb0	0.072326064
202	0xbd8d7468	-0.06906968
203	0x3ac102e7	0.0014725596
204	0xbd6b5d55	-0.057462055
205	0xbce08798	-0.027408406
206	0x3d04f2d0	0.032458127
207	0xbbdab550	-0.006674446
208	0xbda325d5	-0.079662
209	0x3d8ca08b	0.06866559
210	0x3d9b1c1a	0.07573719
211	0xbb89ae62	-0.0042016963
212	0x3d03310c	0.032029197
213	0x3cb5c405	0.022188196
214	0x3d9056fc	0.07047841
215	0xbd348d49	-0.044080053
216	0x3d02fa10	0.03197676
217	0xbda3c2c8	-0.07996136
218	0xbcb8db1b	-0.022565415
219	0xbdb73ef6	-0.08947556
220	0xbd53ef93	-0.051742148
221	0x3d6ce62d	0.0578367
222	0x3ce1e94c	0.027577065
223	0xbd2751f4	-0.04084964
224	0x3d97cdfd	0.07412336
225	0x3d116979	0.035500977
226	0xbda757d9	-0.081710525
227	0xbd869739	-0.06571812
228	0xbda60395	-0.08106152
229	0xbd916152	-0.070986405
230	0x3d0e5fd3	0.034759354
231	0xbd60ce20	-0.054884076
232	0x3c598b1d	0.013277796
233	0xbd0aa9f9	-0.033853505
234	0x3ba13e4e	0.0049207574
235	0xbd42b35f	-0.047534343
236	0x3d4a44d9	0.049382064
237	0xbd9062c4	-0.07050088
238	0xbdad5697	-0.08463781
239	0x3c601dd1	0.013678984
240	0xbc34b093	-0.011028427
241	0x3da4ea28	0.08052474
242	0xbda998e0	-0.08281112
243	0xbd59cf43	-0.053176176
244	0xbc479ddf	-0.0121836355
245	0x3bdc53bc	0.006723849
246	0x3da45595	0.08024136
247	0x3c89ab60	0.01680535
248	0xbdaa7447	-0.083229594
249	0x3d8b46a1	0.06800581
250	0xbaa0e5c0	-0.0012275502
251	0xbc492d59	-0.012278878
252	0xbd2fa37b	-0.042880516
253	0xbdb139a8	-0.08653575
254	0xbd932bfe	-0.07186125
255	0x3c70dd90	0.014701262

fc1.bias f4 [256]
0	0x3db4710f	0.08810627
1	0xbd596df9	-0.053083394
2	0x3d05b54a	0.032643594
3	0xbd2ee014	-0.042694166
4	0x3cbae34a	0.022813458
5	0xbdb55a8f	-0.08855163
6	0xbc861d67	-0.016371442
7	0xbd2e9a34	-0.04262753
8	0xbd49d601	-0.049276356
9	0x3da557cc	0.080733865
10	0x3d62ab12	0.055338927
11	0xba7481fa	-0.00093272293
12	0x3d61deff	0.055144306
13	0x3d2bc500	0.04193592
14	0x3da8cd47	0.082422785
15	0xbd8de6b2	-0.06928767
16	0x3cb9719b	0.02263718
17	0xbd2b2b2f	-0.04178923
18	0x3c955e3b	0.01823341
19	0x3d084fb9	0.033279154
20	0x3d1389ca	0.036020078
21	0x3c34b037	0.011028341
22	0x3d572b19	0.052531336
23	0x3bb7ac61	0.005605266
24	0xbd24c0b3	-0.040222835
25	0xbd21c2a0	-0.03949225
26	0xbc941c01	-0.01807976
27	0x3caa600c	0.020797752
28	0x3d41e176	0.047334157
29	0xbc98896f	-0.018620221
30	0x3cfa5ad0	0.03056088
31	0x3bd7c497	0.0065847146
32	0xbdb12432	-0.08649482
33	0xbd8ac0da	-0.06775065
34	0xbb484ad4	-0.003056218
35	0xbce3dd5b	-0.027815511
36	0xbb31e921	-0.0027147012
37	0x3d92b79c	0.07163927
38	0xbd82b42f	-0.063820235
39	0x3da7fbe1	0.08202339
40	0x3d803632	0.06260337
41	0x3d8a1477	0.067421846
42	0xbd004bd2	-0.031322308
43	0x3d366be0	0.04453647
44	0xbd00dbf1	-0.031459752
45	0x3cf5dc7e	0.030012365
46	0x3c8ca2d2	0.017167483
47	0x3db32139	0.08746571
48	0xbd3932d6	-0.045214497
49	0x3b1568aa	0.002279798
50	0x3c7c8328	0.015412129
51	0x3c7216e8	0.014775969
52	0x3d795aa1	0.060877446
53	0xba5a7a80	-0.0008334294
54	0xbd42bbe4	-0.047542468
55	0xbdabdb60	-0.08391452
56	0x3d1ea60e	0.03873258
57	0x3d266ae6	0.04062929
58	0x3d922cf3	0.0713748
59	0xbd4b96eb	-0.049704473
60	0xbd8a5185	-0.0675383
61	0x3d259c5e	0.040432326
62	0xbc8a8655	-0.016909758
63	0xbd814563	-0.063120626
64	0xbd8f4d5e	-0.069971785
65	0x3d9554e1	0.0729158
66	0x3d8f7eac	0.070065826
67	0x3cb1a96c	0.021687232
68	0xbd95a44d	-0.073067285
69	0xbd69b394	-0.057056025
70	0xbb10889e	-0.0022054086
71	0xbdba76a6	-0.09104662
72	0x3da3a207	0.07989889
73	0xbca43067	-0.020042611
74	0xbd266857	-0.04062685
75	0xbd7e429b	-0.06207524
76	0x3d75d33a	0.060015894
77	0x3d7022ca	0.058626927
78	0x3d8bf361	0.0683353
79	0x3d1ad722	0.037802823
80	0x3b260191	0.0025330523
81	0xbd9a2ecd	-0.07528458
82	0xbda44f00	-0.080228806
83	0xbdaa7331	-0.08322752
84	0xbca6cb9a	-0.020360757
85	0x3d602836	0.05472585
86	0x3d57068a	0.05249647
87	0x3a295cb1	0.00064606505
88	0xbcf47850	-0.029842526
89	0xbd8ee25b	-0.06976768
90	0xbd9f8294	-0.07788578
91	0x3d84d91f	0.06486725
92	0xbd119ef4	-0.03555198
93	0x3c23cc21	0.009997399
94	0xbd1fcfa9	-0.0390164
95	0x3d90c1cd	0.070682146
96	0x3c999888	0.01874949
97	0xbda34e66	-0.07973938
98	0xbcbd6d78	-0.023123488
99	0xbdb0b79e	-0.08628772
100	0xbd63635c	-0.05551468
101	0x3d937982	0.0720091
102	0xbd8a1a6b	-0.0674332
103	0xbcf24578	-0.02957414
104	0xbdb0e820	-0.08638024
105	0xbcc78c2f	-0.024358837
106	0x3d44a256	0.048006378
107	0xbcf4c90a	-0.02988102
108	0xbce8639e	-0.028367814
109	0xbc414a59	-0.011797511
110	0xbda71929	-0.08159096
111	0xbc0ace27	-0.008472002
112	0x3d8a3bc6	0.06749682
113	0xbd58b081	-0.052902702
114	0xbd4f2a75	-0.0505776
115	0x3d039269	0.03212205
116	0x3bd1f81d	0.0064077512
117	0xbd2e4acf	-0.04255181
118	0xbd5d97aa	-0.054099716
119	0x3c47ed03	0.012202504
120	0x3d61efd9	0.055160377
121	0x3c1ae6ec	0.00945447
122	0x3d9456f0	0.072431445
123	0x3b7f58a0	0.0038962737
124	0xbd05fdfb	-0.032712918
125	0x3c2388f1	0.00998138
126	0xbdb96f02	-0.09054376
127	0x3d9506ad	0.07276664
128	0x3d85904d	0.06521664
129	0xbb13fdc6	-0.002258168
130	0x3ca7920f	0.020455388
131	0x3d7b81a8	0.061402947
132	0xbd197c2c	-0.037471935
133	0x3d9ed5eb	0.07755645
134	0x3d5d860a	0.054082908
135	0xbd37a836	-0.044838153
136	0xbd571914	-0.05251415
137	0xbd4f1d7c	-0.050565228
138	0xbda482cf	-0.08032762
139	0xbdb63011	-0.08895887
140	0x3d27a4b9	0.040928576
141	0x3d372fa6	0.044723175
142	0x3d98911d	0.07449553
143	0x3c4b105f	0.01239404
144	0xbc8d5aac	-0.01725515
145	0xbd31f490	-0.043446124
146	0xbd31eaa9	-0.04343668
147	0x3cf7ebe8	0.030263856
148	0xbd7c42f4	-0.06158729
149	0xbd2b1ca0	-0.041775346
150	0x3d13d115	0.036088068
151	0x3d363c3f	0.04449105
152	0x3da5bfda	0.080932334
153	0x3c46fb00	0.012144804
154	0x3cf4619a	0.029831696
155	0x3cf08a88	0.029362932
156	0x3d776523	0.060399186
157	0x3d35cd5f	0.04438531
158	0xbc4c7605	-0.01247931
159	0xbcc39947	-0.0238768
160	0xbc30af39	-0.010783964
161	0x3d41dd12	0.04732997
162	0x3d69e9f3	0.057107877
163	0x3be11f1e	0.0068701645
164	0xbd2b8a2f	-0.04187983
165	0xbc8d681e	-0.017261561
166	0xbd9d8452	-0.07691254
167	0x3c862faa	0.01638015
168	0x3d8b4c62	0.06801678
169	0xbcdf8033	-0.02728281
170	0xbd354e08	-0.04426387
171	0x3d9798f7	0.074022226
172	0x3da7b82a	0.081894234
173	0x3da6a4d5	0.08136908
174	0xbd8be51e	-0.0683081
175	0x3da56f15	0.08077828
176	0x3d7f64f2	0.06235213
177	0x3d92b747	0.07163864
178	0xbc37f85b	-0.011228646
179	0xbc238690	-0.009980813
180	0x3c2f8bf7	0.010714523
181	0xbd63c644	-0.055609003
182	0x3d835993	0.06413569
183	0xbda0e2b6	-0.07855742
184	0x3d9017ef	0.07035815
185	0x3d3b2dd6	0.04569801
186	0xbd3c589a	-0.045982935
187	0xbcf4fe7d	-0.029906506
188	0xbd7b3098	-0.06132564
189	0x3d6ee683	0.0583253
190	0x3d5db80b	0.054130595
191	0xbaf23b23	-0.0018480759
192	0x3d73590e	0.0594111
193	0x3d9af9bb	0.075671636
194	0x3ce44e70	0.027869433
195	0x3cd5416d	0.026032174
196	0x3cf7313d	0.030174846
197	0xbd3d3f74	-0.04620309
198	0xbd038541	-0.032109503
199	0x3d384419	0.044986818
200	0x3d3ab289	0.04558042
201	0x3c902476	0.01759551
202	0x3ba4bdbf	0.0050275023
203	0x3d48a9ab	0.048989933
204	0xbda67c1c	-0.08129141
205	0x3d4d79a9	0.050164852
206	0xbd72056c	-0.059087202
207	0xbd5cd7cc	-0.053916737
208	0xbdaacea8	-0.08340198
209	0x3cfa60f9	0.030563818
210	0xbdacf19c	-0.08444521
211	0x3bca4720	0.0061730295
212	0x3c87dae0	0.01658386
213	0xbcae44d7	-0.02127306
214	0x3cfb06f8	0.030642971
215	0x3d07ac1c	0.03312312
216	0xbd93f1bb	-0.07223841
217	0xbd527c69	-0.051388178
218	0xbc4c51e9	-0.012470701
219	0x3da6dc6d	0.08147512
220	0x3c963f35	0.018340686
221	0xbd3bee76	-0.04588171
222	0xbd270e78	-0.040785283
223	0x3ca896af	0.020579664
224	0xbd8f5691	-0.06998933
225	0x3c5ea752	0.013589697
226	0xbd8c84e3	-0.06861284
227	0x3cac2a02	0.021016125
228	0x3c5c586d	0.013448817
229	0xbd1cac3d	-0.038250197
230	0xbd4311b2	-0.047624297
231	0x3c47b706	0.012189632
232	0x3d008aae	0.031382255
233	0x3d985619	0.07438297
234	0x3d2845dc	0.041082248
235	0x3d91e5cd	0.07123909
236	0xbcaf61f9	-0.021409022
237	0x3bdb8d51	0.006700196
238	0x3cda62ea	0.026658494
239	0x3d368e2f	0.04456919
240	0x3d0de26f	0.034639772
241	0xbceeb3ab	-0.029138407
242	0x3ce0038c	0.027345441
243	0xbd121e03	-0.035673153
244	0xbd969a14	-0.07353607
245	0x3c42460d	0.011857522
246	0xbd93efba	-0.072234586
247	0xbd797a55	-0.06090768
248	0xbd88d263	-0.06680753
249	0xbdb7f9dd	-0.089832045
250	0xbd578f98	-0.052627176
251	0x3d6afc0e	0.057369284
252	0x3c2dfb84	0.010619048
253	0x3bfd1f60	0.0077246875
254	0xbd901cbc	-0.07036731
255	0xbced66ab	-0.02897962

fc2.weight f4 [9, 256]
0	0xbba8947e	-0.005144655
1	0xbab76591	-0.0013992061
2	0x3d03dacf	0.032191094
3	0xbae47080	-0.0017428547
4	0xbd41d959	-0.04732642
5	0x3c04511d	0.00807598
6	0x3c8e6e0d	0.01738646
7	0xbd3b5894	-0.04573877
8	0xbc4156a8	-0.011800446
9	0x3d16776f	0.036734995
10	0xbd014660	-0.031561255
11	0xbd42f1d7	-0.047593918
12	0x3c56790c	0.013090383
13	0xbc20045c	-0.009766664
14	0xbd67f528	-0.056630284
15	0xbbc63d25	-0.0060497695
16	0xbc546179	-0.012962692
17	0x3d3aed30	0.045636356
18	0x3b862ec4	0.0040949304
19	0x3d03c515	0.032170374
20	0xbd4626af	-0.048376735
21	0x3d14d6ff	0.03633785
22	0xbc2bf8ea	-0.010496357
23	0xbce30eb1	-0.027716966
24	0x3ccba73c	0.024860017
25	0xbd3f911d	-0.04676925
26	0x3d195b53	0.03744061
27	0xbc90d108	-0.017677799
28	0xbcc2f395	-0.02379779
29	0xbc2093ca	-0.009800861
30	0xbcf0de84	-0.029402979
31	0x3d4b8899	0.049690817
32	0xbd17fac9	-0.0371044
33	0x3d350d69	0.044202242
34	0x3b30e91c	0.0026994413
35	0xbcdf07bc	-0.027225368
36	0xbcd917ca	-0.026500601
37	0xbd0a7d9f	-0.033811208
38	0xbc947f5a	-0.018127132
39	0xbd349eda	-0.044096805
40	0xbd308e04	-0.043104187
41	0xbd4e52a9	-0.0503718
42	0x3af4c7ab	0.0018675228
43	0x3b26c5c6	0.0025447472
44	0xbd55e2ce	-0.05221825
45	0x3d4e1070	0.050308645
46	0x3ccc3471	0.02492735
47	0xbc900f60	-0.017585456
48	0xbbe07530	-0.0068499073
49	0xbcdf2433	-0.02723894
50	0x3d5af502	0.053456314
51	0x3d247eb1	0.040159885
52	0xbc98acfa	-0.01863717
53	0xbd05dee4	-0.03268327
54	0xbd0e0ec8	-0.034682065
55	0x3999d100	0.0002933815
56	0xbd5b8694	-0.05359514
57	0xbc861e2c	-0.016371809
58	0x3d0dc08a	0.034607448
59	0xbc386d05	-0.011256461
60	0xbd27606a	-0.040863432
61	0x3d4933d4	0.049121693
62	0x3c01b50f	0.007916703
63	0x3b23c400	0.0024988651
64	0x3d665cde	0.05624091
65	0xbd7b6f38	-0.061385363
66	0xbd3c5a3a	-0.045984484
67	0x3cbbb050	0.02291122
68	0x3d15e934	0.036599353
69	0xbc6fa158	-0.01462587
70	0xbbbd213a	-0.005771783
71	0x3c95fc99	0.018308925
72	0xbd099afa	-0.033595063
73	0x3d0a1511	0.033711497
74	0xbd6d353c	-0.057912096
75	0xbc48913d	-0.012241659
76	0x3ba2cfd0	0.004968621
77	0xbb8d4b50	-0.0043119565
78	0xbc5864d8	-0.013207637
79	0xbd09c2ab	-0.033632915
80	0xbbffe23e	-0.0078089526
81	0xbce73310	-0.02822259
82	0x3d3e84db	0.04651342
83	0xbcaa7c3c	-0.020811193
84	0xbd5b4d24	-0.053540364
85	0xbd66fa00	-0.056390762
86	0x3d1f3ad0	0.038874447
87	0xbd0f4382	-0.03497649
88	0x3d3bb1d1	0.045823876
89	0x3d0ff819	0.035148714
90	0x39959686	0.00028531643
91	0xbc832a58	-0.016011402
92	0xbc55e0c3	-0.013054076
93	0x3c4d5b5a	0.012533987
94	0x3d27033c	0.04077457
95	0x3d11146d	0.03541987
96	0xbb5b1e00	-0.003343463
97	0x3c9382c8	0.018006697
98	0xbd2f03d4	-0.04272826
99	0x3c98d93e	0.018658277
100	0xbc4b31ad	-0.01240198
101	0xbd01d3e7	-0.031696226
102	0x3b4a1523	0.0030835352
103	0x3d12e333	0.035861205
104	0xbc87f651	-0.016596945
105	0x3c4ddf01	0.012565375
106	0x3c0d1800	0.008611679
107	0x3d508924	0.050912037
108	0xbbacd53c	-0.005274443
109	0xbd091366	-0.033465765
110	0xbd2f64be	-0.042820685
111	0xbd403e5a	-0.046934463
112	0x3d1700fc	0.036866173
113	0x3d2c39e2	0.04204739
114	0xbc27ed86	-0.010249501
115	0xbd367801	-0.04454804
116	0x3d4f0f59	0.050551746
117	0xbb0a8850	-0.0021138377
118	0x3c342bb0	0.010996744
119	0x3ae0db95	0.0017155284
120	0xbd6b3d3e	-0.057431452
121	0x3d0a81a6	0.03381505
122	0x3d115bdc	0.035487995
123	0xbcdd9de8	-0.027052835
124	0x3d5b76f6	0.053580247
125	0xbd320d2d	-0.043469597
126	0x3cdb345c	0.026758365
127	0x3c8bfb80	0.017087698
128	0x3d79814c	0.060914323
129	0x3d035bdc	0.032070026
130	0xbcab3f55	-0.020904223
131	0x3c0bab8c	0.008524787
132	0xbd3d2991	-0.04618222
133	0xbc2fae98	-0.010722779
134	0x3d1d1d41	0.038357977
135	0xbc05c472	-0.008164512
136	0xbd123dea	-0.035703577
137	0x3cd2e017	0.02574162
138	0x3d22d6d7	0.03975567
139	0x3d36d2be	0.044634573
140	0xbd26fd91	-0.040769164
141	0xbcf5605c	-0.029953174
142	0xbce13b36	-0.027494054
143	0xbd4ce5c5	-0.050023813
144	0xbcf7adb8	-0.030234203
145	0xbd04f693	-0.032461714
146	0xbc5f7b54	-0.013640244
147	0x3bf13134	0.007360602
148	0xbd1fbdb0	-0.03899926
149	0xbc7a38c7	-0.015272326
150	0x3d323ddf	0.043516036
151	0x3d3891e5	0.04506101
152	0x3d4ac8ca	0.049507894
153	0x3c62e028	0.013847388
154	0xbd38af6c	-0.04508917
155	0x3c199438	0.009373717
156	0x3cd99807	0.02656175
157	0x3c5e082f	0.013551756
158	0xbc890a5b	-0.01672857
159	0xbd421327	-0.047381546
160	0x3d6251ad	0.055253673
161	0x3d3f3696	0.046682917
162	0x3d00e6d9	0.031470153
163	0x3d062cd4	0.032757595
164	0x3a7f4e48	0.0009739143
165	0xbc971db2	-0.018446777
166	0x3c0827d0	0.008310273
167	0xbd3245ef	-0.043523725
168	0xbc060752	-0.008180456
169	0xbd15fbf0	-0.03661722
170	0x3ce9de24	0.028548308
171	0xbc9c31e5	-0.01906676
172	0xbd32e3fb	-0.04367445
173	0xba45df00	-0.0007548183
174	0x3cd31265	0.025765607
175	0xbce211c2	-0.027596358
176	0xbbe87c29	-0.007094879
177	0x3d627dfe	0.055295937
178	0x3d5d8498	0.05408153
179	0xbd195a23	-0.037439477
180	0xbd095548	-0.033528596
181	0xbd29cef6	-0.04145714
182	0x3d4f94d2	0.050679035
183	0xbd24c251	-0.040224377
184	0xbd0a228f	-0.033724364
185	0xbd5ec950	-0.054391205
186	0xbccfb6e5	-0.025355766
187	0xbc8d7065	-0.017265508
188	0x3ca31039	0.019905197
189	0xbc52d4f4	-0.012868155
190	0x3cde82bb	0.027161947
191	0x3d59aa43	0.05314089
192	0xbd2c8ecc	-0.04212837
193	0x3d108b88	0.035289317
194	0x3bdefb10	0.0068048313
195	0xbbd4909f	-0.0064869667
196	0xbd015051	-0.031570736
197	0x3d5bc08f	0.053650435
198	0x3cc27034	0.023735143
199	0x3bcb938d	0.006212658
200	0x3d158c28	0.036510617
201	0xbc25e897	-0.0101262545
202	0xbd0f8699	-0.03504047
203	0x3d4486df	0.047980186
204	0x3d467a3e	0.048456423
205	0x3cab73a0	0.020929158
206	0x3d80a40f	0.06281292
207	0x3c0de566	0.00866065
208	0xbb8043b0	-0.003914319
209	0x3cb02bd4	0.021505274
210	0xbd3194ba	-0.043354727
211	0xbc2d94b8	-0.010594539
212	0xbc999970	-0.018749923
213	0x3d4961b2	0.049165435
214	0x3cea23b8	0.028581485
215	0xbd4ce548	-0.050023347
216	0xbd6554cd	-0.055989075
217	0x3d392ad9	0.04520688
218	0xbc6dcbf4	-0.014513958
219	0xbd6a6c29	-0.057232056
220	0xbcbcdada	-0.023053575
221	0xbcffdea4	-0.031234093
222	0x3d05412b	0.032532852
223	0x3cfe46ac	0.031039558
224	0xbbd5d070	-0.006525092
225	0xbb49050a	-0.003067317
226	0x3d5535db	0.052053314
227	0xbc75dcfa	-0.015006298
228	0x3a9fc770	0.0012190174
229	0xbc86d0ec	-0.016457044
230	0xbc7d7420	-0.015469581
231	0x3cc47094	0.023979463
232	0x3c81a443	0.015825396
233	0xbcc4afcb	-0.024009606
234	0xbd2da29d	-0.04239141
235	0x3d3c87b2	0.046027847
236	0xbcef5274	-0.029214121
237	0x3bc5094c	0.006013071
238	0xbcb56bb9	-0.022146093
239	0x3d5658b5	0.05233069
240	0x3d3f7423	0.046741616
241	0xbc09ba29	-0.0084062
242	0x3d2a3dbe	0.04156279
243	0x3c31e2fc	0.01085734
244	0x3d6a3670	0.057180822
245	0xbcc8eda3	-0.024527377
246	0x3c21147e	0.009831546
247	0x39861cc9	0.00025579918
248	0x3cbbb04b	0.022911211
249	0x3cf50597	0.029909892
250	0xbd26d1b0	-0.040727317
251	0xbd416ab6	-0.047220908
252	0xbc7f54e4	-0.015584204
253	0x3b8802a0	0.0041507035
254	0xbbf09673	-0.0073421537
255	0xbcb81eb6	-0.022475582

fc2.bias f4 [9]
0	0xbc7a0923	-0.015260967
1	0xbc9fb192	-0.019493852
2	0xbd4243a5	-0.047427792
3	0x3c21ff20	0.009887487
4	0x3bd03520	0.0063539892
5	0xbd131e57	-0.035917606
6	0x3d6863ce	0.056735806
7	0xbd37e956	-0.04490026
8	0x3c68016a	0.014160493
