checkpoints/pacman_ram/20.pt (torch_old, 142149 bytes, 4 tensors)

fc1.weight f4 [256, 128]
000000 20 5f 68 bd 3e f4 42 3d cc e7 20 bd c0 d3 8d bb
       -0.056731343 0.04759621 -0.03928356 -0.004328221
000010 4a 87 3e 3d a8 d4 d7 3c 5e c6 1b bd 46 83 3b 3d
       0.04651574 0.02634652 -0.038030975 0.04577949
000020 c8 07 ad bc 82 94 30 3d 34 5c 8d bc 5a c8 6d 3d
       -0.021121874 0.043110378 -0.01725588 0.0580524
000030 22 09 63 3d d0 e4 2f 3c ac f6 df bc 18 40 ae 3c
       0.05542863 0.0107357055 -0.027339302 0.021270797
000040 3d a1 18 bd d7 5d a8 3d 00 f1 e6 bc c0 1a 4f 3b
       -0.037263144 0.082210235 -0.02819109 0.0031601638
000050 78 80 b2 3c 18 84 80 bd f5 7a 96 3d 9e 83 56 3d
       0.021789774 -0.06275195 0.07347671 0.052371614
000060 49 f0 b4 3d 74 bb 96 bd 28 4f 68 bc bc ff f8 bc
       0.08834893 -0.073599726 -0.014179029 -0.030395381
000070 04 68 4f bd 5e 99 5d 3d 42 93 b3 bd 7c d3 ec 3c
       -0.050636306 0.05410134 -0.087683216 0.028909437
000080 84 ca b9 bc 0b 12 b2 3d 79 81 a2 bd 42 bb 79 3d
       -0.022679575 0.08694848 -0.07934851 0.0609696
000090 88 f3 9b 3c 58 2f 1e bc ef 75 4c bd c2 9a 48 bd
       0.019037023 -0.009654842 -0.049917158 -0.048975714
0000a0 e8 56 86 bc a0 20 3b bc 40 0d 8f 3b 38 c6 86 3c
       -0.016398862 -0.011421353 0.004365593 0.01645194
0000b0 b0 68 1c bc 11 33 a9 bd 00 a9 52 3c 62 9f 73 bd
       -0.009546444 -0.08261693 0.012857676 -0.05947817
0000c0 17 ae 96 bd fa 55 7a 3d 25 e6 3f bd 56 c4 00 bd
       -0.07357424 0.06111715 -0.046850342 -0.03143724
0000d0 92 1a 54 3d b2 58 2b bd 5b 48 97 3d 9b f0 95 3d
       0.051783152 -0.041832633 0.073868476 0.073212825
0000e0 af 57 9d bd 60 af 10 bb 88 b6 9b bd 4e 69 6e 3d
       -0.0768274 -0.0022077188 -0.076031744 0.058205895
0000f0 a4 e2 ba 3c b8 47 81 bc f0 25 0c 3d 02 87 29 bd
       0.022813149 -0.015781268 0.034215868 -0.04138852
000100 3a b7 0e 3d 39 1e ad 3d 39 cf 01 bd 4b 3c 8a 3d
       0.034842707 0.0845303 -0.031691764 0.06749781
000110 00 4e 08 39 83 3c 91 3d 34 06 d4 bc a6 c0 89 bd
       0.00012999028 0.0709162 -0.025881864 -0.06726198
000120 0e 9c 87 bd d3 58 b0 3d e9 51 9f 3d fc 30 9e 3c
       -0.06621562 0.08610692 0.07779295 0.019310467
000130 72 62 28 3d 61 ea 29 bd 8a 91 dd bc 6e b8 71 3d
       0.04110951 -0.041483287 -0.027046937 0.059013776
000140 d6 ac 1f 3d fc 1c b3 3c 1f d8 15 bd 16 2e 23 3d
       0.03898319 0.021864407 -0.036583062 0.039838873
000150 d4 ca c1 3c d4 30 df 3c 90 88 9c bb b9 90 9b bd
       0.023656286 0.027244963 -0.0047770217 -0.07595963
000160 d1 a6 12 bd 1c 9e c2 bc d0 d4 21 bc e6 24 64 bd
       -0.03580362 -0.023757033 -0.009877399 -0.05569925
000170 b4 bf 8c bd 95 b4 45 bd 4d 09 07 bd d0 7b 21 3c
       -0.06872502 -0.04826792 -0.032967854 0.009856179
000180 b9 21 9a bd 72 f8 b0 bd bf e6 86 bd 14 5d fb bc
       -0.07525963 -0.08641137 -0.0658698 -0.030684032
000190 c0 2e fc 3a 72 a6 19 3d 15 22 6c bd a4 14 ef 3c
       0.0019240007 0.03751225 -0.05764969 0.029184647
0001a0 b6 61 8c bd 58 44 4d bc 20 e7 41 bb d9 85 51 bd
       -0.068545744 -0.012528501 -0.0029587224 -0.051153038
0001b0 ca 45 75 3d 0d 38 b4 3d 1d 1c 21 bd ca 63 72 bd
       0.05988101 0.08799753 -0.03933345 -0.059177198
0001c0 cf 16 99 bd 00 b4 65 3b c2 63 76 bd d0 39 bd bc
       -0.074750535 0.0035049915 -0.06015373 -0.023098856
0001d0 c8 d8 b4 bc 79 84 a1 3d 58 9d 72 bd 75 b2 b3 3d
       -0.022076026 0.07886595 -0.059232086 0.08774272
0001e0 06 7d 66 bd 40 5d 6c bc e0 9f 9e bc 28 cd 2b 3c
       -0.056271575 -0.014426529 -0.019363344 0.010485925
0001f0 29 76 9a 3d 40 f4 c4 bb be 35 0d 3d 63 d5 9e 3d
       0.075420685 -0.006010562 0.03447508 0.07755544
000200 b3 9b 81 3d 00 29 0a 3d b3 04 8b 3d fa 13 fe bc
       0.063285254 0.033730507 0.06788006 -0.031015385
000210 cc 9b b3 3d bc ab 29 bd 3c 51 03 bc 5d 7c 9e 3d
       0.0876995 -0.041423544 -0.008014973 0.07738564
000220 88 03 5d 3d 22 d0 0b 3d 0b 37 ce bc 54 b8 86 bd
       0.053958446 0.034134038 -0.02517273 -0.065781265
000230 07 7f 5d 3d da 23 27 bd 76 0c 7f 3d cf c4 d6 3c
       0.05407622 -0.040805675 0.062267743 0.026216893
000240 4e 1f 77 3d e0 9f 90 3c e7 4b 04 bd db 28 c0 3c
       0.06033259 0.01765436 -0.03229895 0.023456981
000250 9c 22 0e bd cb 11 8c bd 40 c1 af 3d 10 95 fd 3b
       -0.034700975 -0.06839331 0.085817814 0.007738717
000260 66 6f 24 3d 26 07 71 3d e5 c0 37 bc 62 6d 99 3d
       0.0401453 0.058844708 -0.011215423 0.07491566
000270 fa 3d 8f 3c 28 75 5f 3d 0d a8 9c bd 67 0d a3 bd
       0.017485607 0.05455509 -0.07649241 -0.07961541
000280 c8 09 82 bd bd a3 51 bd d7 a8 8d 3d 13 d1 61 bc
       -0.06349522 -0.051181544 0.06916969 -0.013782757
000290 27 7d 7d 3d 3e af 49 bd f7 96 6d bd 44 34 a2 bd
       0.061886933 -0.04923939 -0.0580053 -0.07920125
0002a0 98 98 73 3c 82 92 e0 3c d4 42 0a 3d 62 16 81 bd
       0.014867924 0.02741361 0.03375514 -0.06303097
0002b0 13 47 34 bb 84 6e 8e bc 57 79 88 3d 82 3e 9b 3c
       -0.0027508184 -0.017386682 0.06663769 0.018950704
0002c0 9d 22 12 bd c4 03 91 bd 6a 7d a8 3d 67 06 a6 3d
       -0.03567754 -0.07080796 0.08227046 0.0810669
0002d0 ad 21 85 3d 90 94 d5 bc 42 73 56 3b e3 40 0c 3c
       0.06500564 -0.026071817 0.0032722508 0.008560392
0002e0 66 be 09 3d 32 7e 18 3d b2 00 8f bd 5c 5e 3f 39
       0.033628844 0.037229724 -0.069825545 0.00018250331
0002f0 b7 f2 bb 3b 8d 70 4a bd bc a7 cc 3c 5c 6d 70 3d
       0.005735721 -0.049423743 0.024982326 0.058698043
000300 94 47 8e 3d 85 bf 06 3d 75 91 c6 bc 37 56 f3 3b
       0.06947246 0.03289749 -0.024239281 0.007426049
000310 13 ef 94 bc a8 11 a4 3d 2d 1e 0d bd 8b 06 41 bd
       -0.018180406 0.0801118 -0.034452606 -0.04712538
000320 ea f5 05 bd 7b 77 9c 3d 6b f7 e0 bc 23 8e ab 3d
       -0.032705225 0.076399766 -0.027461728 0.0837672
000330 d0 73 8e 3d db 5a a9 3d 25 fb 6e bc d6 ef 21 3b
       0.06955683 0.082692824 -0.014586245 0.0024709604
000340 9a 50 33 3c 19 37 24 bd e9 eb 85 bd 5a 91 62 bd
       0.01094451 -0.040091608 -0.06539137 -0.0553144
000350 77 be a2 3b b0 b1 47 3d 36 11 5a 3d 8b d1 99 bb
       0.004966553 0.04875344 0.05323907 -0.004694169
000360 68 b9 88 bc 45 97 44 bd 4b a6 b1 3d 99 f0 9c bc
       -0.016689971 -0.047995824 0.08674296 -0.019157695
000370 b3 fa df 3b 47 8f 11 3d 79 85 18 bd e8 7f 0c bc
       0.0068353056 0.03553703 -0.037236664 -0.008575417
000380 55 4c e8 bb 87 1f fe 3c 58 9f 37 3d dd e7 08 3d
       -0.0070891776 0.031020893 0.044829696 0.033424247
000390 8a d3 08 bd 2d 9d db bc 9c c3 46 3c 28 45 0c 3d
       -0.033404864 -0.026808346 0.012131598 0.03424564
0003a0 e4 c0 02 3d 57 fd 8b 3c f3 3b 11 bd bb d0 91 bb
       0.031922236 0.017088575 -0.035457563 -0.0044499314
0003b0 27 ad 9d 3d cc 18 3e 3c f6 c2 0c 3d 31 ec b3 39
       0.07699042 0.011602592 0.034365617 0.00034317517
0003c0 6a 5f 61 bc 06 9c 4e 3d 3e 74 67 3c d3 4c 0b bd
       -0.013755659 0.050441764 0.014126835 -0.034008812
0003d0 04 1c c7 3c bc b2 0d 3d ee 99 7f 3d 0d ba af bd
       0.024305351 0.034594283 0.06240266 -0.08580408
0003e0 2d c7 5c 3b ae 41 1b 3d 45 57 7d bd cd f2 4f bc
       0.0033688054 0.037904434 -0.061850805 -0.012692166
0003f0 db d7 3e 3d e2 16 5d bc 26 cf 28 bd 12 f7 34 3d
       0.046592575 -0.013494225 -0.041213177 0.044180937

fc1.bias f4 [256]
000000 c0 15 11 3c 26 46 46 3d a9 92 fe bb 1c fc cc bc
       0.008855283 0.048406743 -0.007768948 -0.025022559
000010 6c 4d 8d bd 1a db ae bd 95 0e 19 bd 98 3d a3 bd
       -0.06899533 -0.08537884 -0.037367422 -0.079707325
000020 4d ec a6 bd 46 9a 00 bd c0 07 d2 3b 8d c7 91 bd
       -0.081505395 -0.031397127 0.0064096153 -0.071181394
000030 a2 65 77 3d 2f cc e9 3b 4b 6b c7 bb 0a 44 5a bd
       0.06039966 0.0071349363 -0.0060857884 -0.053287543
000040 42 d1 36 3d 7d 76 1d bd 37 71 8b bd ee 56 79 bd
       0.044633158 -0.038443077 -0.068087034 -0.06087392
000050 94 e5 3a bc 86 f7 3b bd 69 df e8 3c 21 14 16 3d
       -0.011407275 -0.045890354 0.028426843 0.03664029
000060 e5 f8 78 bd e4 be 49 bd 1a 57 dc bc f7 8c 8b bc
       -0.06078424 -0.049254313 -0.026897002 -0.01703499
000070 7a aa ca bc 41 d9 09 3c 9f 25 05 bc 41 ce 9f bd
       -0.024739493 0.008413614 -0.008126645 -0.07803012
000080 21 53 0d 3d 04 ab a7 bb 95 dc 85 bd 9e b1 20 bd
       0.034503106 -0.005116822 -0.06536213 -0.03923189
000090 28 6a ae bd c8 52 d6 bc ab 6c 59 bd 03 37 0c bd
       -0.085163414 -0.02616252 -0.05308215 -0.03423215
0000a0 51 f5 c2 3c ff c9 1b 3c 06 b1 d8 3c f0 f0 2c 3c
       0.023798617 0.009508609 0.026451599 0.010555491
0000b0 01 19 49 bc 9b 75 a4 bd 77 1e 85 3d 54 d9 1f 3d
       -0.012274028 -0.08030244 0.06499951 0.03902562
0000c0 d7 c7 c1 ba 82 0e e5 bc b1 0c 3b bd f0 da 8f bb
       -0.0014784288 -0.02796102 -0.0456664 -0.004390113
0000d0 60 84 85 bc 82 b8 7f 3d 47 fd 66 3d 5a 0c 0d bc
       -0.016298473 0.06243182 0.056393888 -0.008608902
0000e0 84 f9 c2 bc 18 01 1d 3c 74 d2 9f bd 80 ed a8 bd
       -0.023800619 0.00958278 -0.078038126 -0.082484245
0000f0 ee 16 0f 3d e4 32 62 3d b0 14 af bc 46 32 58 3c
       0.034933977 0.055224314 -0.02137217 0.01319558
000100 9e 39 5c bd 65 ff a3 3d 9a d4 f0 3c ac 0f 97 bc
       -0.053765886 0.08007697 0.029398251 -0.01844009
000110 80 37 48 3b 88 e8 64 bc 46 08 26 3d 43 41 63 3d
       0.0030550659 -0.013971455 0.040535234 0.05548216
000120 08 d2 9c 3c 4d 5f c8 bc 10 b9 8b bd 3a ab fc 3c
       0.01914312 -0.024459505 -0.06822407 0.030843366
000130 19 69 a2 3d 62 40 3c 3d 80 ca 51 3d bd f8 2f 3d
       0.07930202 0.045959838 0.05121851 0.042961825
000140 94 48 c9 bc 88 d2 87 bc a0 86 85 bc a6 62 2e bd
       -0.02457074 -0.016579881 -0.016299546 -0.042574547
000150 ea f4 1c 3d d6 f8 2f 3d 60 d8 08 bb 6e 5e 6d bc
       0.038319506 0.042961918 -0.0020880923 -0.014487846
000160 f4 25 8f 3d 89 b5 25 3c fd e5 06 3d c0 ba 59 bb
       0.06989661 0.010114082 0.032934178 -0.0033222884
000170 f3 63 80 3d 88 2d 68 bd 64 31 aa 3d a6 6f e3 bc
       0.06269064 -0.056684047 0.08310202 -0.027763199
000180 8f 7f 1d bd c1 9b 47 bd d0 96 8a 3d 86 58 b0 3b
       -0.038451727 -0.048732523 0.067670465 0.0053816466
000190 e7 4f 81 3d 06 36 ed bc 80 be d8 3b 05 61 58 3d
       0.06314068 -0.028956424 0.0066145062 0.0528269
0001a0 ba 36 10 bd 67 a0 39 bd 46 db 89 bd 63 8c 9e 3d
       -0.03520844 -0.045318987 -0.06731276 0.077416204
0001b0 95 6e 1c 3d a4 0a 08 3d 1e f8 24 3d f0 47 a1 bd
       0.038191397 0.033213273 0.040275685 -0.07875049
0001c0 5c 9f d5 bc 99 ae 92 3d 95 b2 76 3c ae cc 2e 3d
       -0.026076965 0.07162208 0.015057226 0.042675667
0001d0 81 1a d4 3c 0e f6 a1 3d 31 56 37 3d 33 e8 6c 3d
       0.025891544 0.07908259 0.044759933 0.05783863
0001e0 df a5 c4 3b d6 0c 65 3b a0 fc e9 3c 4f 41 1e 3d
       0.0060012187 0.0034950278 0.028562844 0.038636502
0001f0 cc ce c6 3c ba a3 98 bd 01 f1 9f 3d 2e 82 af bd
       0.02426853 -0.07453103 0.0780964 -0.08569752
000200 03 97 f5 3c d3 73 5d 3d 1f 5c ba 3c 07 b5 85 3d
       0.029979235 0.054065537 0.022749005 0.06528669
000210 f3 26 18 3d 17 16 50 bd 7f dc d6 3a 75 71 29 bc
       0.03714652 -0.050802317 0.0016392617 -0.010341992
000220 52 78 00 bd 6a 1e a3 3c cc 1c a0 bc 3a 54 1b bd
       -0.031364746 0.019911963 -0.019544981 -0.03792212
000230 9f f7 e0 bc ee f9 4f 3d 99 c4 a8 3d 70 fa 06 3d
       -0.027461825 0.05077546 0.08240623 0.03295368
000240 33 0d 97 3d ad b5 a8 3b eb 26 6d 3d fd 67 80 3d
       0.073755644 0.0051486106 0.057898443 0.06269834
000250 27 a9 0a bc 6e 6d 8b bd bc 27 14 3d 23 1b 6a 3c
       -0.008463181 -0.068079814 0.036170706 0.014288696
000260 39 34 47 3d d6 ac 3e 3d 77 dc a7 bd d8 71 fa 3c
       0.048633788 0.046551548 -0.08196347 0.030571863
000270 23 6d 17 3d 43 24 2d bd ab 1a 9a 3d 7b a6 34 bd
       0.036969315 -0.04227091 0.07524618 -0.04410408
000280 c8 b1 5e bc b8 44 60 bd 7a 14 f8 b9 7d eb 48 bd
       -0.013592191 -0.054753035 -0.00047317502 -0.049052704
000290 ae aa 62 bd eb 57 07 3d c8 ba a0 3d 17 f8 83 3d
       -0.055338554 0.03304283 0.07848126 0.06443804
0002a0 54 62 f3 3b 2b 6a 7e 3d e0 d0 1d bd db 53 55 bd
       0.007427493 0.06211297 -0.038529277 -0.052081924
0002b0 7e f5 55 bd c7 9b 85 3d e8 33 78 3c 54 88 93 bc
       -0.052236073 0.06523853 0.015149094 -0.018009342
0002c0 3a bf 5a bd 59 85 a7 bc 9d b6 7b 3d 86 be a8 bd
       -0.053405024 -0.020449327 0.06145345 -0.082394645
0002d0 b7 6a b4 3d 5d 5c 44 bd 0a 4c d5 3c d0 67 28 bd
       0.08809417 -0.047939647 0.026037235 -0.04111463
0002e0 9e 5b 3e bd f7 26 a8 bd b1 fc 54 3c 3f 06 89 38
       -0.04647409 -0.08210557 0.012999699 6.5338325e-05
0002f0 7e c0 64 3d c0 cb ff 3c 89 e2 9d bc f8 73 a7 3c
       0.055847637 0.031225085 -0.01927306 0.02044104
000300 09 d7 a7 bd 30 42 e9 bc 42 cf 94 bd 90 dc 0c bd
       -0.081953116 -0.028473943 -0.07266094 -0.034390032
000310 85 dc 9f 3d 5c d3 59 bd a3 b4 60 bd 6b 4a b1 3d
       0.07805733 -0.053180084 -0.05485977 0.08656772
000320 ab f6 2f 3d 68 5e a6 bd 06 a3 05 bc 38 c2 83 bd
       0.04295985 -0.08123475 -0.008156544 -0.06433529
000330 ef db 0d 3d 11 36 9b 3d 7c 0d e4 3a a7 87 f8 3c
       0.034633573 0.07578672 0.0017399038 0.030338122
000340 c2 c6 e1 bb 75 68 a0 3d b2 a9 ad bc 98 10 45 3d
       -0.006890149 0.078324236 -0.021199081 0.04811153
000350 d4 8e b5 bd 56 4f 5f 3d fa 4f bb bd 0a 1a 83 3c
       -0.08865133 0.05451902 -0.09146114 0.016003627
000360 a3 f3 ad bc 55 64 a4 bd ae 4c a4 bd 94 0f 88 3c
       -0.02123434 -0.08026949 -0.08022438 0.01660899
000370 96 31 52 3d db 69 86 3d a0 ea 9a bd 10 8f 08 bd
       0.05131682 0.06563159 -0.075642824 -0.03333956
000380 ab ef ae 3d 7c 28 a0 bd c9 7f 98 3d 08 91 99 bd
       0.08541807 -0.07820222 0.07446248 -0.07498366
000390 6f 15 89 3d 39 59 9f bd ad 3a 6c bd 82 a7 26 3d
       0.06693541 -0.0778069 -0.057673145 0.04068709
0003a0 7c 2c e3 3c 73 a6 1a 3d c1 2e 92 bd 21 59 9e bd
       0.027731173 0.037756395 -0.07137824 -0.07731844
0003b0 a0 fa 09 bd 43 63 c0 3c bd 2f 87 bd 20 33 f7 bc
       -0.03368628 0.023484832 -0.06600902 -0.030175745
0003c0 cc 5d a5 bc 99 9d 91 3c 9c e4 df bc 48 f9 0a bd
       -0.020186327 0.017775344 -0.02733069 -0.03392914
0003d0 be 69 c4 bc ea 00 e1 3c d1 d3 a6 bc a8 6b 2c 3d
       -0.023976203 0.027466256 -0.020364674 0.042094857
0003e0 cc 3c fb bc d1 71 1f bd b6 4d 28 bc ee 13 79 3d
       -0.030668639 -0.038926903 -0.010272434 0.060810022
0003f0 12 56 ab bd 6a 82 34 3d 77 bc 84 3d d8 0c eb bc
       -0.08366026 0.044069685 0.06481259 -0.028692648

fc2.weight f4 [9, 256]
000000 80 1c 37 bc 9f 7e 75 3d 6c 73 14 3c 6e c6 61 3d
       -0.0111762285 0.05993521 0.009060722 0.055120878
000010 3e 77 0d bd d2 8f 4b bc 33 94 54 3b d9 b9 29 3c
       -0.034537546 -0.012424426 0.0032436966 0.010359251
000020 bf a7 81 bc 9f 5d 1b 3b 00 a8 7b bc 49 35 a5 bc
       -0.015827058 0.0023706926 -0.015359879 -0.02016701
000030 f8 16 da 3c 48 83 b4 bc ed 9d 58 3a 47 20 35 3c
       0.02662228 -0.022035256 0.0008263279 0.011055059
000040 70 29 0f 3d 8b 63 4d 3d 6a 76 77 bd e1 a5 46 3c
       0.034951627 0.05014376 -0.060415663 0.01212451
000050 67 c5 1d 3d 58 73 92 bc 2a 73 75 3d a7 29 45 bd
       0.038518336 -0.017877266 0.059924282 -0.048135426
000060 1d af 19 bb b0 30 5d bc 4c b0 d4 bc b2 e7 f7 39
       -0.0023450323 -0.013500378 -0.025962971 0.00047284138
000070 1f 1a d5 3c cb 7c 52 3c d8 7c 90 3c 8b 1c 7d 3d
       0.026013432 0.012847136 0.017637655 0.0617948
000080 fa a9 1f 3d 11 90 59 3d 83 e1 6f bc d4 f3 59 bd
       0.03898046 0.053115908 -0.0146411685 -0.05321105
000090 42 bb 96 3c f0 9f b0 bb 72 18 b3 3c 4f 7d 51 3d
       0.018399838 -0.00539016 0.021862242 0.051144894
0000a0 e8 61 36 3d f1 d9 b4 3a 9c 13 7e 3d 00 f5 05 3c
       0.044526964 0.0013797862 0.06203042 0.008176088
0000b0 b8 c7 3e 3d 5e ae d9 3c 1f 24 6a 3d 94 c6 26 3c
       0.046577185 0.026572403 0.057163354 0.010179181
0000c0 48 57 03 3c c0 f6 ea ba cf e7 1e 3c a6 80 22 bd
       0.008016415 -0.001792632 0.009698822 -0.03967347
0000d0 a5 55 81 3d c6 71 12 bd 53 c0 0c 3d 14 76 95 bc
       0.063151635 -0.035753034 0.034363102 -0.01824478
0000e0 e8 f5 6a 3d 5e a8 32 3d 66 7f 17 3d 10 ee 31 bd
       0.05736342 0.0436176 0.03698673 -0.043439925
0000f0 d6 d1 5b 3d f0 64 ab 3c ac 52 1c 3c 9d ee 74 3d
       0.053666912 0.020922154 0.009541195 0.05979787
000100 c6 71 9e 3c e0 e8 3d 3d 80 63 dd bb 05 7a e9 bc
       0.01934136 0.046364665 -0.006756246 -0.028500566
000110 04 ed d0 3c ce e3 31 3d b6 c9 6d bd 9a 80 15 bd
       0.025503643 0.043430142 -0.058053695 -0.036499597
000120 c0 4c 84 bb 33 2d 1b bd e9 13 36 bd 00 2e c9 3c
       -0.0040374696 -0.037884902 -0.04445258 0.024558067
000130 9a 65 7a 3d 37 31 e9 bb 27 0f 32 bd f2 b3 be 3c
       0.06113205 -0.0071164626 -0.04347148 0.023279164
000140 20 44 14 3b 54 21 1b 3d 88 b3 66 bc d9 4f 39 3d
       0.0022623613 0.03787358 -0.0140808895 0.045242164
000150 38 c6 25 3c 7c 12 3f bd f0 a8 47 bc ca 6f ae bc
       0.01011806 -0.046648487 -0.012186274 -0.02129354
000160 5e 63 bb 3c 66 0a 17 3d 43 5b 10 3d 58 cd 52 3d
       0.02287453 0.03687515 0.035243284 0.051465362
000170 0d 74 65 bc ea 18 dd 3c a4 58 de bc 5d ea d0 3c
       -0.014004719 0.026989419 -0.027141877 0.025502378
000180 f2 51 96 3c ff 98 40 3d 1d cd 2e 3d 8e ad 2a bd
       0.018349621 0.04702091 0.04267608 -0.04166942
000190 b8 8c 83 bc 54 a0 d5 bc ca 70 61 3d 9c b3 5f 3d
       -0.01605831 -0.026077427 0.055039205 0.05461465
0001a0 82 b6 59 bd 00 9e 75 3a 34 f7 cf bc a6 bb 3a 3c
       -0.05315257 0.0009369552 -0.02538643 0.011397278
0001b0 98 12 09 bd 50 2c 10 bc d0 85 68 3d df 4d cb bc
       -0.033464998 -0.008799627 0.05676824 -0.024817405
0001c0 cd fb 0a bb c8 25 1f 3c 22 ed b9 3c e0 71 24 bd
       -0.0021207214 0.009713598 0.022696082 -0.040147662
0001d0 da b0 11 3d 0a 02 63 3d bd 6d 18 3d bd ca 19 3a
       0.03556905 0.055421866 0.03721403 0.0005866697
0001e0 b3 04 46 3c 60 b9 dc 3c 87 00 a1 ba ca 73 3a 3d
       0.012086081 0.026943862 -0.0012283482 0.04552058
0001f0 4e a0 11 3d 25 a6 99 3b 38 b2 c8 bc 62 98 c7 3c
       0.03555327 0.0046889954 -0.024499044 0.024364654
000200 20 a5 67 3d 4e 30 d7 bb 7e 90 39 3b 50 84 cc bc
       0.05655396 -0.0065670377 0.0028314884 -0.024965435
000210 8e 14 1f 3d f2 7b 86 3c 56 d0 57 bd bf 4c 6a bd
       0.03883796 0.016416524 -0.05268892 -0.057202097
000220 8d a0 05 bd af d0 1e bd e8 58 4d 3d 1c ea e3 3c
       -0.032623816 -0.038773235 0.050133616 0.027821593
000230 0f 7f 68 bc c8 ee 8c 3c 2b 55 9b 3c 98 88 01 3c
       -0.014190449 0.017203704 0.01896151 0.007906102
000240 42 6f 22 bd b2 e8 58 bc 8a de 6d 3d 2c 45 af 3c
       -0.039656885 -0.013239073 0.058073558 0.021395288
000250 97 e8 8d 3d 3c 96 09 3d 07 b9 55 bd 96 17 4f 3d
       0.069291286 0.03359054 -0.05217841 0.050559603
000260 30 2f 61 bd 18 62 7f bd 6a 1d 2f bd 03 c6 d8 3b
       -0.054976642 -0.06234941 -0.04275266 0.0066154017
000270 3d 24 b6 3b 90 1d d4 bb 3a 2d 4c bd 84 6a 26 bd
       0.005558519 -0.0064732507 -0.04984782 -0.040628925
000280 e8 3d 75 bc 54 05 8c bb 64 d7 23 bc 82 46 44 bd
       -0.014968373 -0.004273096 -0.010000084 -0.047918804
000290 54 00 2c 3d 7e 0f 12 bd 7e 42 d9 bc ac 00 ee 3c
       0.0419925 -0.035659306 -0.026520964 0.029053055
0002a0 da e2 49 bc c3 c2 54 3c 76 d4 25 3d 60 5e b0 3b
       -0.012322152 0.012985888 0.04048582 0.005382344
0002b0 e0 47 22 bd c3 df cc 3c 78 fb 33 bd 76 53 c7 bc
       -0.039619327 0.025009042 -0.04394099 -0.02433179
0002c0 ef 7d 76 bc 52 d3 f4 3b b6 d7 53 3c 91 96 40 bc
       -0.015044673 0.0074714804 0.012929847 -0.011754648
0002d0 f2 2a 5b bd a4 96 87 3c 4d 80 02 bd 48 e2 39 3c
       -0.053507753 0.016551323 -0.03186064 0.011345454
0002e0 28 a8 1f 3c d3 73 01 3d 9f db 21 3d 4c f6 a0 3b
       0.009744681 0.0316046 0.039516088 0.0049121734
0002f0 54 40 06 3d 70 36 54 bd fd 73 22 bb 24 74 c7 bc
       0.03277619 -0.05180973 -0.0024788373 -0.024347372
000300 02 a0 00 3d ae ed ff bc 8d 96 0f bd 3c 37 5e bd
       0.031402595 -0.031241264 -0.035055686 -0.054251894
000310 08 1a 53 bc 15 e4 f4 bc 02 41 e6 3c 21 25 76 bc
       -0.012884624 -0.029893914 0.02810717 -0.015023501
000320 90 80 bd bc f4 b5 69 bd 02 b6 31 3d 80 98 78 bb
       -0.023132592 -0.05705829 0.043386467 -0.0037932694
000330 cb 17 80 bb 58 aa a6 3c 19 6b 82 bc b4 e4 6b 3d
       -0.0039090863 0.020344898 -0.015920209 0.057591155
000340 e1 09 65 3d 54 c7 16 bd b9 73 74 bd fe cc 83 3d
       0.055917624 -0.036811188 -0.059680674 0.064355835
000350 d8 33 d1 bc 38 1f f3 3c 4c dd bb bc 84 b9 da bb
       -0.025537416 0.029677972 -0.022932671 -0.006674947
000360 9a e4 cd bc 0c 9e a4 3c 35 b5 c8 3c b0 03 34 bd
       -0.02513342 0.020094894 0.024500469 -0.04394883
000370 e4 59 b5 bb 42 8d 0b 3d 50 f8 aa 3b 37 48 68 bc
       -0.0055343974 0.03407026 0.0052175894 -0.014177374
000380 8c c3 79 3d 5d de ca 3c 08 d7 39 3d 94 3a 68 bc
       0.060977504 0.024764234 0.045371085 -0.014174122
000390 9a d6 56 3d b0 74 af 3c 19 16 10 3c 87 51 7a 3d
       0.052450754 0.021417946 0.008794331 0.061112907
0003a0 20 72 e4 bb d2 04 63 3d 35 7d 9a bc a0 ba 51 bb
       -0.0069716126 0.05542452 -0.018858531 -0.0032002106
0003b0 ac d9 39 bd df 2b 33 bb c0 c2 f2 3b 6a 2f 09 bd
       -0.045373604 -0.0027339382 0.00740847 -0.033492483
0003c0 bd 53 d2 bc 99 df 3a 3d c5 84 16 3d 7e 10 d3 3c
       -0.025674695 0.045623396 0.036747713 0.0257647
0003d0 9e fe 94 bc 39 79 65 3d 27 0d 0a bd f0 bd 49 3d
       -0.018187817 0.05602381 -0.03370395 0.049253404
0003e0 aa bf 07 3d f0 d3 10 3d b6 35 e2 3c 2e 5b 78 3d
       0.03314177 0.03535837 0.027613502 0.06063383
0003f0 8a 3f 6c 3d ac cd 04 3d d4 a9 45 bd c0 29 71 bb
       0.057677783 0.032422706 -0.048257664 -0.0036798567

fc2.bias f4 [9]
000000 16 9d 1d bd df 0b d4 3c fc e4 a6 3c 70 a3 68 bc
       -0.038479887 0.025884567 0.02037286 -0.014199123
000010 58 24 5c 3d 18 81 d2 3c fc 34 6c 3d 8c 38 aa 3c
       0.053745598 0.025696322 0.057667717 0.020778917
000020 7d 81 2e bd
       -0.04260396
