checkpoints/pacman_ram/20.pt (torch_old, 142093 bytes, 4 tensors)

fc1.weight f4 [256, 128]
00000000: 46e5 34bd 8107 1fbd 2948 ac3d 45cf c73b
00000010: 6621 ffbc c311 863d d0a4 143d 3222 dabc
00000020: e6b7 cd3b d700 853c 87fe 8cbd e05f 14bc
00000030: d3e8 a6bc b0c3 4c3c 74f8 dcbc 93e0 c73c
00000040: 4314 1f3d 1626 97bd 5c6c 78bc 3007 97bd
00000050: 7e1d 5b3d b5d3 9b3d c9e7 abbc 0a54 6fbd
00000060: 6881 65bc 0ec7 623d 3870 56bd 0bd6 ba3c
00000070: 7b43 993d ba10 16bd 6f74 b3bb 9c60 90bc
00000080: c985 78bc 8c4f 2cbd a8d3 4cbd 8131 843c
00000090: 7784 4cbd 4ab0 b43d 2852 363d b3ca 92bd
000000a0: 6d9e 69bd 565e 32bd 6e3f efbc 653d abbb
000000b0: f926 7bbb 87a4 9ebb 3699 633d 6585 dabc
000000c0: 4763 2f3d 4f4d ae3d cb36 39bd c6da ab3c
000000d0: 36a6 1a3c 78b0 a2bc 7a86 81bc d651 a93d
000000e0: 1789 61bd 9ec1 313d 0842 9a3d c287 933d
000000f0: 7771 d93a f9fc 8fbd 4c86 91bc 6685 923d
00000100: 8610 69bd d734 173d 9aa5 e4bc 7b3a fe3c
00000110: 627d 37bd 6df6 a03d 9f2e 32bd e844 5e3d
00000120: df53 773d 0410 aabd c6ff 863d ed5c 953d
00000130: fefe 0cbc 4e47 093d bbca a4bd 12ce c4bc
00000140: bf31 a3bd 9d48 b939 487c 9a3d 5e56 4d3c
00000150: c644 48bc fa30 f63a e832 26bd acc0 0fbd
00000160: f6c1 9c3d 7a31 b2bd 8ae0 a93d a9d8 eabc
00000170: bfcd 89bc c73a 943d 06dc 26bc e5b3 93bd
00000180: de6a 2fbd 8a6b 01bc b2e7 90bd 117e adbd
00000190: 513e 813d 12cc 6fba 942c b9bb ba9f 62bd
000001a0: 5443 463c f6c2 5cbd 1e8d 713c efaa 853d
000001b0: 6cfe afbd 9bc5 553d 6495 a7bd e9a1 aa3d
000001c0: 7c55 373c e0e6 1fbd 8a0e 573d 638c 8dbc
000001d0: bd44 78bd 9ac8 acbc 1353 91bd d84a 49bc
000001e0: d693 f7bc 753c 543d 8a32 30bd dc70 753c
000001f0: c617 d8bb f460 463d 009b 2fbc 02e6 9d3d
00000200: 2edb 44bd afac 9ebd 88ce 833c c0d6 9d3c
00000210: 6f8a 563d 25d7 b1bd 216f fcbc 72fa b8bc
00000220: 6ffb d23c 698d b2bd 6e95 253d 7e76 86bd
00000230: 071a 6f3d cc83 db3c 9b46 2bbd 27f2 abbd
00000240: d442 123c 3d7c 85bd 3ff9 833d 4643 87bd
00000250: 20e5 20bd cc43 d23c 6c7a aa3d b0e1 3c3c
00000260: d66c 5b3d 0216 9e3c 6d74 893d 98b1 bd3c
00000270: d1fc 053d acf5 a13d 5bd9 77bd 4a89 31bd
00000280: 98e7 03bd 529a 51bd dbaa 8d3d 3871 e2bb
00000290: d9d9 96bd 4e47 693d 7af0 da39 8a6e c3bc
000002a0: a8a1 7fbc 1e22 3e3d 0bf8 953d 0fb9 813c
000002b0: e419 953d 7ba1 87bd ac8f b6bc 6c4c 8b3c
000002c0: 1dd1 97bd f3ff b03c f474 94bc 7d0b 20bd
000002d0: 137e 2dbd 59fc fd3b 4e3d 783d af83 183d
000002e0: ecb8 07bd 6b74 72bd 3124 29bd d897 6dbd
000002f0: 185d 613d 79e0 9dbd e772 923d ddf8 8dbd
00000300: 437c ec3c 5486 983c 2973 f83c 8910 4fbd
00000310: 8b05 b9bd b86b 503d 10aa 5cbd be5b 3b3c
00000320: 7429 613d 3cf4 b3bd 9af1 53bc 4f14 0b3d
00000330: b617 66bd 8497 e7bc 2520 0cbd 4982 60bd
00000340: 456c 863d d919 05bb 59e8 bf3c b71f 0d3d
00000350: 5aa2 5bbd f7a4 0e3d d7e6 693d 6962 a03d
00000360: 945f a03d 459e 40bd 0741 9ebc 3c4b dcbc
00000370: 75b9 75bd f298 d3bc 8907 02bd e3e5 4abd
00000380: 06dd 553c 16b5 60bd 7ce6 68bd 8d7d 3e3d
00000390: 5c5d 69bd 5888 85bd e5cc 06bc f847 b7bd
000003a0: 7125 8a3d 8133 aa3c 00c2 bfbc 4e68 613d
000003b0: a96d 823d e178 b1bd 427c 46bb 57f2 aa3d
000003c0: d44c 59bd ee0f 15bc e3e4 443d ae34 623c
000003d0: 876f 2a3b 4b17 1d3d 4ae2 403d fb12 413d
000003e0: 2fba 663b 2182 85bd 1c6e fdbc 4f6a b1bd
000003f0: 4fd2 b1bb ce50 473d 499b 9abd a05c 2b3b
-0.044163965 -0.038825516 0.08412201 0.0060977065 -0.031143855 0.065463565 0.03628999 -0.026627634
0.006278026 0.016235752 -0.06884485 -0.0090560615 -0.020374691 0.012497827 -0.02697394 0.024399078
0.038837682 -0.07380311 -0.015162554 -0.07374418 0.053494923 0.07608739 -0.020984547 -0.058429755
-0.014007904 0.055365615 -0.052353114 0.022807142 0.07483574 -0.036637045 -0.0054765265 -0.017624192
-0.015168616 -0.04206805 -0.05000654 0.016136887 -0.049931016 0.08822687 0.044511944 -0.07167568
-0.057035852 -0.043546997 -0.02920505 -0.0052258247 -0.003832279 -0.0048413905 0.055566035 -0.026674936
0.042819288 0.08510839 -0.04521827 0.020978343 0.009439042 -0.019859537 -0.015811194 0.08267562
-0.05506238 0.04339754 0.07532126 0.07203628 0.0016589601 -0.070306726 -0.017764233 0.0715435
-0.056900524 0.036915626 -0.027910996 0.031033745 -0.04479731 0.07859502 -0.043501493 0.054264933
0.06038272 -0.08303836 0.06591754 0.07293115 -0.008605717 0.033515267 -0.0804648 -0.024024043
-0.07968473 0.0003534005 0.07543236 0.012532799 -0.012223428 0.0018782907 -0.04057589 -0.035095856
0.076541826 -0.08700843 0.082947806 -0.028667765 -0.01682174 0.072377734 -0.010184294 -0.072120465
-0.042826526 -0.0078991745 -0.070754424 -0.08471311 0.06310714 -0.00091475353 -0.005651066 -0.05532811
0.012101013 -0.053896867 0.014743118 0.065267436 -0.08593449 0.052190404 -0.08182791 0.08331663
0.011189815 -0.03903854 0.0525041 -0.017278856 -0.06061243 -0.021091748 -0.07095923 -0.012285911
-0.03022186 0.05181547 -0.043016948 0.014980521 -0.006594631 0.048432305 -0.010718107 0.07709886
-0.04806059 -0.077477805 0.016089693 0.01926744 0.052378114 -0.08683614 -0.03081471 -0.02258036
0.025754659 -0.08718378 0.04042571 -0.06565569 0.05837443 0.026796244 -0.04181538 -0.08395796
0.008927066 -0.06517837 0.06444024 -0.06604628 -0.03928101 0.025667094 0.08324131 0.0115284175
0.05357059 0.019297604 0.067116596 0.023155972 0.032711808 0.07908186 -0.06051002 -0.04334382
-0.032203287 -0.051172562 0.06917354 -0.0069104694 -0.0736577 0.056952767 0.0004175937 -0.02385642
-0.015602507 0.046419255 0.07322701 0.015835313 0.07280329 -0.06622597 -0.022285305 0.017004214
-0.07412932 0.021606421 -0.018122174 -0.039073456 -0.042356562 0.0077510295 0.06060534 0.03723496
-0.03313534 -0.059193056 -0.04129428 -0.058006138 0.05502042 -0.077088304 0.07150822 -0.069322325
0.028867846 0.01861874 0.03032835 -0.05055288 -0.0903426 0.05088398 -0.05387312 0.011435447
0.054971173 -0.087868184 -0.01293602 0.033954915 -0.056174956 -0.02827049 -0.034210343 -0.05481175
0.065636195 -0.0020309596 0.023426222 0.034454074 -0.053621627 0.03482529 0.05710491 0.0783127
0.0783073 -0.047025938 -0.019318117 -0.026891343 -0.05999132 -0.025829766 -0.031745467 -0.049535643
0.013053184 -0.054860197 -0.056860432 0.046506453 -0.0569738 -0.06520146 -0.008227562 -0.08949274
0.06745423 0.020776512 -0.023407936 0.055031113 0.06368572 -0.08665634 -0.0030286466 0.08347004
-0.053051785 -0.009098036 0.048069846 0.013806505 0.0026006417 0.038352292 0.047090806 0.04713724
0.003520619 -0.06518961 -0.030936293 -0.08662855 -0.005426682 0.048661046 -0.075491495 0.0026147738

fc1.bias f4 [256]
00000000: 639b 133d 609c a8bd eccf 59bd 7e7e 6dbd
00000010: 3f74 803d e691 f6bc 16fc 1bbd 0ba9 ac3c
00000020: 6a8b 513d 6a44 a33d ae6a abbd f155 9fbd
00000030: fce9 b5bd 96e2 7d3b d184 913d dc14 77bd
00000040: ee7e 01bd 0140 963d a296 23bd cdd1 913d
00000050: a895 c2bc 0afe b3bd 61ee adbd 1c29 663d
00000060: 9034 333c c026 49bc 7796 6f3c 5344 c03c
00000070: 110d 983c 3435 84bd fd49 733d c05a 3bbd
00000080: 4e2c dd3b 0072 8e3d 541f 853d 5c58 54bd
00000090: c2d0 79bd 07ac 2ebd d02b a13c 16dd d33c
000000a0: 2e46 00bd b0d2 4e3d 1bba 8c3d 2464 a13c
000000b0: 0120 a7bd 454c 3ebd fc4f 8dbc f2c6 0e3c
000000c0: a8ce afbd 3af8 f43c 17e9 923d a61c 963c
000000d0: 347c f13c 4596 8f3d 6736 a13d 2e6d a6bc
000000e0: d863 a13d 5091 9a3d c46a c2bc 976d b03d
000000f0: c279 f6bb caaf 25bd 6d82 6f3d dfd5 883d
00000100: 555c 80bb 5538 bcbc d027 9e3d c580 ae3d
00000110: d1e3 c73c bbaa 83bd ae8f 263d c507 1cbd
00000120: d501 8a3d 49a0 5d3a 323b 1b3c 8ccb 453d
00000130: f2bb d03c bcfe 87bc f562 9d3d 89ed 8fbd
00000140: de9f 203d 2806 ffbc b9cb 87bd a516 a43d
00000150: 9f41 b43d d57f a8bc 7c40 9abd 2a1f 83bd
00000160: 8cab 683c cc9b 87bd 06f0 a93d dbe7 8c3d
00000170: 2442 e9bc 5e81 b2bd 30f5 c1bc e6a7 243a
00000180: d801 023c 60b2 47bc 5482 743d 4206 6d3d
00000190: 21e7 3a3a 5fec 893d 0c9f bfbc eaec b23b
000001a0: 40b7 b8bc d66f cdbb 667f 11bd d040 0b3d
000001b0: c990 06bd ea15 883d dd99 cd3c ccf8 9c3c
000001c0: f5b8 45bd b07b 123c 9275 00bb 393c 06bc
000001d0: 4f44 3fbd ac02 abbc 4806 dd3c 1cc3 983c
000001e0: ffd5 203d 20e3 8f3d be3a 4fbd 9009 c5bb
000001f0: 94ee 94bc 7b5d 9c3d 77bc 3e3d be92 bcbd
00000200: 0c0d 9bbc 93f4 67bd e2a0 5dbd d5bb 2dbd
00000210: 1acc 2c3d 691c 883d a339 cdbc df03 653d
00000220: b29e b53c 7616 1cbd 509b 56bd b0de e13c
00000230: e9a4 013d 3740 60bd 8ac0 95bd 04be 8a3c
00000240: 3179 9f3d df84 2ebb 586b 8c3d f338 9a3d
00000250: 3026 8cbd 7de2 343d fc27 d83a 758f 17bd
00000260: 1d3b 5c3d c913 20bd d22a 4dbd f669 33bd
00000270: ba2d 89bc f326 c9bc 44cd 16bd 40f1 68bc
00000280: 44c9 f93c c314 ca3c 826e efbc 9e64 ae3d
00000290: 4106 d5bc 5db7 8bbd ac9c 843c ad27 113d
000002a0: f741 36bd 4091 b8bc ecd5 a5bc 5c7e 2dbd
000002b0: a73e a03d af68 993a 38a2 793c 86fa 603d
000002c0: 5020 efbc cafb 1a3d a8ec 3cbd 71f3 b7bb
000002d0: d025 563d 6491 453b 323a 4cbd bb1e 9f3d
000002e0: 5224 7abd bdf7 7cbd 3592 a6bd 5641 8f3d
000002f0: 5a11 873d aed9 fa3c a184 a13d bbc3 a1bd
00000300: e088 50bd 6078 613c 6b99 a6ba abb3 89bc
00000310: 4a38 9dbc b2f6 d93a 4b8f 5dbd dfc9 3abc
00000320: 1d9d a3bd a20f 92bd 4fff 773d e0e9 8dbd
00000330: 3fbb 73bd 8a8d 9fbd 46de 2fbd c20a 1c3d
00000340: ce9a 04bc 3d2f 593d 8f11 2bbd 1bbf 5e3d
00000350: 6e92 8ebd fd2f a63d e99d 863d e4a4 9e3c
00000360: 6ae6 7d3d 995f 4cbd 8dee 2d3d b840 bebb
00000370: a849 f1bc 031f a2bd 9572 6e3d bd2e 8b3c
00000380: 8abe 61bc 314c e03c 42ca 373d 8db7 053c
00000390: 1df3 af3d 8223 8c3d 105a fd3c 1f1d 14bd
000003a0: 0066 8cba b968 a3bd e2b0 8e3d 2b83 82bd
000003b0: 09ac 813d c953 ebbc 564b b1bd 750b 8cbd
000003c0: ccc3 763d a85f 94bd 4e2c b3bd e013 63bd
000003d0: 7248 243d b9f4 a8bd e104 ad3d 2222 99bd
000003e0: 359f 553c 6bc3 28bd def7 0cbd 00b2 5ebc
000003f0: bbf1 33bd 0031 5fbb 5ac1 083d 66d0 3ebd
0.03603686 -0.08232951 -0.053176805 -0.05798196 0.06272172 -0.030098867 -0.038082205 0.0210767
0.051158346 0.07972033 -0.08369957 -0.07780064 -0.088825196 0.0038739792 0.07105411 -0.060322627
-0.03161519 0.073364265 -0.039938577 0.071200944 -0.023753002 -0.087886885 -0.08492733 0.05619155
0.010937825 -0.012277305 0.014623276 0.02347008 0.018560918 -0.0645546 0.059396733 -0.045740843
0.0067496663 0.069553375 0.06500116 -0.05184208 -0.060990103 -0.042644527 0.019674212 0.025862258
-0.03131693 0.050493896 0.06871434 0.019701071 -0.08160401 -0.046459455 -0.017250054 0.008714424
-0.085843384 0.02990352 0.071733646 0.018324208 0.02947817 0.070110835 0.078717045 -0.020315733
0.07880372 0.075472474 -0.02373255 0.086146526 -0.007521839 -0.04045085 0.058473993 0.06681418
-0.003917257 -0.02297608 0.077224374 0.085206546 0.024400624 -0.06429049 0.040664367 -0.038093347
0.06738631 0.00084543653 0.0094745625 0.04828982 0.025480244 -0.016600959 0.0768489 -0.07027728
0.03921496 -0.031130865 -0.06630654 0.080121316 0.08801579 -0.020568768 -0.07531831 -0.064024284
0.014201056 -0.06621513 0.08297734 0.068801604 -0.028473921 -0.08716081 -0.023676485 0.00062811223
0.00793501 -0.012188524 0.059694603 0.057867296 0.0007129778 0.06734537 -0.02339127 0.0054603713
-0.022548318 -0.0062694354 -0.035521887 0.033997357 -0.03285292 0.06644805 0.025097782 0.019161604
-0.048272092 0.008940622 -0.0019601327 -0.008193069 -0.046696004 -0.020875297 0.026980534 0.018647723
0.039266583 0.070257425 -0.05059313 -0.006013103 -0.01818017 0.076350175 0.046566453 -0.09207676
-0.01892712 -0.05662973 -0.054108508 -0.04241546 0.042186834 0.06646044 -0.025051897 0.055911895
0.022170398 -0.038107358 -0.05239421 0.027572006 0.03165141 -0.05474874 -0.073121145 0.01693631
0.07786787 -0.002662949 0.06856412 0.075303935 -0.06843221 0.04416131 0.0016491408 -0.037002046
0.053767312 -0.03908137 -0.050089665 -0.043802224 -0.016745437 -0.024554705 -0.03681685 -0.014217675
0.030491479 0.024668103 -0.029227499 0.08515285 -0.026003959 -0.06822083 0.016187988 0.03543823
-0.044496503 -0.022530198 -0.020243607 -0.042356834 0.0782445 0.0011704172 0.01523643 0.054926418
-0.029190212 0.03783778 -0.04612413 -0.0056137373 0.052282155 0.0030146474 -0.049860187 0.07769533
-0.061069794 -0.0617597 -0.081333555 0.06994884 0.065951064 0.030621376 0.07886625 -0.07898661
-0.050911784 0.01376161 -0.0012710517 -0.016809305 -0.01919188 0.0016629307 -0.054091733 -0.011400669
-0.07988951 -0.07131888 0.060546216 -0.06929374 -0.059504744 -0.07790668 -0.042936586 0.038096197
-0.008093549 0.053023566 -0.041764792 0.05438147 -0.06961523 0.08114622 0.06573088 0.019365735
0.061987318 -0.049895857 0.042463828 -0.005806055 -0.029454067 -0.07916071 0.058214743 0.01699006
-0.013778338 0.02738008 0.044870622 0.008161438 0.08591292 0.0684271 0.030926734 -0.036160585
-0.0010711551 -0.07978959 0.069673315 -0.063726746 0.06331641 -0.028726475 -0.08656947 -0.06838123
0.06024532 -0.072448075 -0.08748685 -0.055438876 0.04010815 -0.08249802 0.08448196 -0.074772134
0.013038446 -0.04120199 -0.034416072 -0.013592243 -0.043931704 -0.0034056306 0.03338752 -0.046585463

fc2.weight f4 [9, 256]
00000000: 0a55 3e3d a376 1e3d 7dd1 253d 26a8 84bb
00000010: 2fdc 333d c366 0f3d 8907 82bc 8298 683d
00000020: 54b3 7c3d 5050 0bbc 2c90 89bc 80d9 9ebc
00000030: f25f 163d 2ea0 2dbd 3f57 54bd 4034 1b3d
00000040: 75ba 803d 9b0b aebc d1a6 e63c cf0d 7cbd
00000050: 7e9d 7ebd 8b20 3a3c ca4c f4bb 3e8b 89bb
00000060: 6d76 4bbd a017 913b a104 d3bc 4623 013d
00000070: 60d7 813b b8d2 33bc fc81 24bd 054f 27bd
00000080: d3fb 1bbd 455c bcbb a326 72bc 604e 4a3b
00000090: 436c 113d 1f9f d33b 4815 6dbc 5971 b03a
000000a0: acc1 0c3c db7e 313d 044e 843d 0964 97bc
000000b0: 08ae 7dbc ad8c 813c abac 9b3c 5855 48bd
000000c0: 5ae3 693d 7411 52bc f890 93bc 708f 02bd
000000d0: d528 473d b362 003d 20d4 77bb 15be 073d
000000e0: d447 24bd 9943 50bc 2a2a 05bd 28a1 533d
000000f0: f15d 5d3c bcc2 123d a13b 303d 8024 0d3d
00000100: ac57 46bd 22d9 07bd b078 6cbc 35eb 65bd
00000110: 0b35 02bd 25e9 23bd d827 e03c e31a 4f3d
00000120: 5847 48bd 529f cabc 552c 2dbd e20d 013d
00000130: 185b 93bc 74f3 bfbc c7c5 12bd 4e26 c23c
00000140: e2dc 5dbd 0d98 193d 1c71 99bc 0edd 2ebd
00000150: 6397 783d 451f 14bd a168 f43c 9dee 01bd
00000160: 3883 31bd 36a8 0dbd aa4b 933c ec0e 5dbd
00000170: bb5e 633d ee81 dabb b2e1 69bd 8776 5cbc
00000180: 4549 3d3c ec25 f83c 1ea9 063d fed8 233d
00000190: fa27 10bd 5ec8 d6ba 2cf2 223d 6cb4 2b3d
000001a0: 40db 8b3c ba8e 3a3d bba5 aabb 0be5 02bd
000001b0: 28fe 17bd a6a7 0c3d 8043 b435 88f1 903c
000001c0: 8c10 5d3d 8e6f 34bd 4c9b 98bb d1c1 233d
000001d0: d148 c838 7b4e 953b 2858 95bc 9caa d1bc
000001e0: cd42 87bb 9a55 303c 70c5 89bb 2c35 e03c
000001f0: d589 233d 60b9 953d fc21 d4bc 706e 163c
00000200: 1425 c43c f84f 74bc 105c 8d3c c1a1 55bd
00000210: d375 a33c 33c6 003d 634c 113d 2a29 4f3d
00000220: 1788 9abb 34e8 de3c 1abe 093d f85b 29bd
00000230: d01f 713d 98b1 0f3c 6bdb d43c 80f0 02bd
00000240: da8d 38bd 3779 883d 3e38 7b3d 1b5c e0bc
00000250: 41e1 4e3d 6c53 e33c 5390 d93c d014 e63b
00000260: b510 30bd fd01 37bd e4d0 6cbd 758b 43bd
00000270: 0079 f8b9 d112 e7bb 692a 97bc 8cff 193d
00000280: 3f4e 6f3c 456f 2ebd 74a2 083d 206c 4cbd
00000290: 24ce 3bbd d0ac 63bc 4386 2c3d 5591 363c
000002a0: d247 3d3d 6619 053d 045c 25bd 605e e63b
000002b0: c4f0 ee3c 7f25 c03c 08f4 2abd 3086 a73c
000002c0: c484 853c fc9a 033d 94b1 21bc 9587 ff3c
000002d0: d8f1 69bd 5a4f 69bd a0b8 55bc aadb 46bb
000002e0: 741b 28bd 7038 3dbc f46b 2d3d 0467 543d
000002f0: a039 d13c 5bbb 18bc 77ae 863d 3eb0 313d
00000300: 24f1 a23c 40c8 d0bb 32c2 213d da39 823c
00000310: 09bd 59bd 23f6 c53c bd3c 96ba 8ca6 79bd
00000320: ade9 6b3d 05f2 da3c 666b 633d 6106 b2bc
00000330: ea16 0b3d 49f0 7a3c 0b2e 10bd b3dc 43bc
00000340: c5fd 8dbc 5679 61bd 5a62 4fbd 5306 c33c
00000350: bac3 1ebd 1082 01bd aba0 753d c8f3 5ebc
00000360: 10d4 993c 95bb 053c 8cc2 623d f52f 5abd
00000370: ba49 193d 74a2 d53c 687a 1e3d a5f4 9b3c
00000380: d586 57bd e3b5 4ebd 74b3 88bc fd3f 0dbd
00000390: bab3 3bbd 01a1 95bc 66ae adbc 6295 1c3d
000003a0: c0c2 8b3a 2cbc 133d 7e23 0cbd 2a5c 40bb
000003b0: 33f4 0d3b 64f0 463d 279c c13c 272e 32bd
000003c0: 04f2 63bd d005 fcbb 9f64 903d 9dda 543d
000003d0: ae40 823c 4fb3 35bd 99d2 1e3d 885a e83c
000003e0: 0101 a23b 14ce c03c 0117 0a3d 709c 29bd
000003f0: 1055 0dbd da5d 5f3d 7ce7 c53c 125d ee3c
0.04646782 0.03868736 0.040482987 -0.004048365 0.043911155 0.03501011 -0.015872734 0.056786068
0.061694458 -0.008503035 -0.01679238 -0.019390821 0.036712594 -0.042389087 -0.051841017 0.037891626
0.06285564 -0.021245768 0.028155716 -0.061536606 -0.062161915 0.011360298 -0.007455443 -0.004197507
-0.049673487 0.004427865 -0.025759043 0.03152778 0.0039624423 -0.010975532 -0.040163025 -0.040846843
-0.038081955 -0.005748304 -0.0147797195 0.003086947 0.035503637 0.0064581777 -0.014470406 0.0013461515
0.008591097 0.04333387 0.06460193 -0.018480318 -0.015483387 0.01581415 0.019003233 -0.048909515
0.057101585 -0.012821544 -0.018013462 -0.031875074 0.048622925 0.031344127 -0.0037815645 0.03314026
-0.040107563 -0.012711429 -0.032510914 0.051667362 0.013511167 0.035830244 0.043025617 0.034458637
-0.048423454 -0.03316606 -0.014433071 -0.056132514 -0.031788867 -0.040017266 0.027362749 0.05056275
-0.048896164 -0.024734173 -0.042278606 0.03150738 -0.017987773 -0.023431517 -0.035833146 0.023699906
-0.05416573 0.037498523 -0.018730693 -0.042691283 0.06069125 -0.036162633 0.029835047 -0.0317217
-0.04333803 -0.034584247 0.017980415 -0.05396931 0.055510264 -0.006668321 -0.057100005 -0.0134559935
0.011553113 0.03029152 0.032876126 0.04000186 -0.035194375 -0.0016386618 0.039781734 0.04192011
0.01707232 0.04554627 -0.005207745 -0.031956714 -0.037107617 0.03433957 1.343069e-06 0.017693296
0.05397086 -0.0440517 -0.0046571847 0.03997976 9.550306e-05 0.0045564747 -0.018230513 -0.025594048
-0.0041278363 0.0107625965 -0.0042044446 0.027369104 0.03992637 0.07310748 -0.025895111 0.009181604
0.023943461 -0.014911644 0.017255813 -0.052156214 0.019953644 0.031439018 0.03547324 0.050576366
-0.00471593 0.027210332 0.03362856 -0.041347474 0.05886823 0.008770369 0.025983533 -0.03196764
-0.045057155 0.06663745 0.061332934 -0.02738767 0.050507788 0.02774974 0.026558077 0.007021524
-0.042984683 -0.04467963 -0.0578164 -0.04774042 -0.00047392398 -0.0070518036 -0.01845284 0.037597224
0.014606058 -0.042586584 0.033358052 -0.049907804 -0.045850888 -0.013896182 0.04212023 0.011143048
0.04621107 0.032494925 -0.040370956 0.0070302933 0.02916754 0.02345538 -0.041736633 0.020449728
0.01629866 0.032130226 -0.009868998 0.03119258 -0.057115406 -0.05696044 -0.013044506 -0.0030343332
-0.041041806 -0.0115491 0.04233928 0.051856056 0.025540173 -0.009322013 0.06576245 0.04338097
0.019890375 -0.006371528 0.03949184 0.015896726 -0.053158794 0.024165219 -0.0011462193 -0.060949847
0.057595897 0.026726732 0.055522345 -0.021731557 0.0339574 0.0153160775 -0.03520016 -0.011954474
-0.01733292 -0.055047356 -0.050630905 0.023806727 -0.03876088 -0.031618178 0.059967678 -0.013607927
0.018777877 0.008162399 0.055361316 -0.05326839 0.037423827 0.02607844 0.038690954 0.019037554
-0.05261882 -0.05046643 -0.016687132 -0.034484852 -0.045825697 -0.01826525 -0.021201324 0.0382284
0.0010662898 0.036068127 -0.034213535 -0.002935181 0.0021660447 0.048569098 0.02363403 -0.043501046
-0.055650726 -0.0076911226 0.07050442 0.0519663 0.015899982 -0.044360455 0.03877506 0.028363481
0.0049439673 0.023535766 0.033713344 -0.041408956 -0.03450495 0.054532863 0.024158232 0.029097114

fc2.bias f4 [9]
00000000: 64a3 613d 71fa 033d 80db 913c 08cf c6bc
00000010: a4b1 563d d8d1 6fbd e4b8 43bd 643b fdbc
00000020: d0c6 bc3c
0.055087462 0.03222126 0.017804861 -0.024268642 0.052415505 -0.058549732 -0.047783747 -0.030912109
0.02304402
