checkpoints/pacman_ram/200.pt (torch_old, 142093 bytes, 4 tensors)

fc1.weight f4 [256, 128]
-0.081602395 0.011819381 -0.088254996 -0.0720495 0.020270694 -0.056633167 0.078357875 0.03300841
0.029869944 0.05129915 -0.006039418 -0.011814531 0.04037306 -0.042002365 -0.019949563 0.003813559
0.023347022 -0.030880472 -0.039118797 -0.0038759399 0.038852654 -0.042389728 -0.08160142 -0.038436726
-0.018110946 -0.006486119 0.00997998 -0.074289985 0.00977316 -0.06580489 0.07960971 0.023580642
0.025363786 -0.024135344 -0.0804756 -0.05136676 -0.06677939 0.0473354 -0.02264502 -0.049630646
-0.07946896 -0.048243586 0.07073354 -0.08579516 -0.022650367 -0.07129994 -0.080832094 -0.029867535
0.019964537 -0.08563987 -0.017019778 -0.035773456 0.08840791 0.0050626826 -0.0024560408 0.008735205
0.03550935 -0.0009771571 0.065224364 0.070366666 0.036303256 -0.003040399 0.030478038 0.060627796
0.027545871 -0.05335154 -0.060004346 0.08063286 -0.055453666 0.0036839102 0.021918487 0.038942803
-0.020155173 -0.009648588 -0.018585222 0.023429243 0.06547734 0.03384918 0.0028127145 0.004387328
0.08019939 0.0738835 -0.055264853 -0.017508876 0.035432126 -0.068959616 -0.076406464 0.06849964
0.05429877 0.058126796 -0.016946921 -0.07642667 -0.055463225 0.07461755 -0.03829078 0.08386997
0.06140625 0.013502146 0.031060264 -0.052322764 -0.005900157 -0.041241612 0.08300471 0.08370131
-0.08263665 -0.018247223 0.06260911 -0.007843519 0.061728235 0.027429271 0.030804673 0.02093958
-0.045158762 -0.058249302 0.05105299 -0.059432343 0.0798709 0.030810174 0.021434736 -0.0842369
0.029056964 -0.009469089 0.0063210875 -0.013099745 0.054542907 -0.014286768 0.08310688 0.073307
0.064477496 0.022162674 -0.065387554 0.019559199 0.06320429 0.03735127 -0.012792601 0.0073312204
-0.070984736 -0.044429343 0.069851704 -0.072197795 0.042786274 0.0065584537 0.068265215 -0.059296317
-0.00051302987 0.017792476 -0.022668468 -0.0022532546 -0.017110154 -0.044461343 0.05275009 0.02837523
-0.041476313 -0.03538801 -0.029382568 -0.059625246 -0.09196599 0.052176915 0.056641217 0.022065239
0.04764388 -0.08336115 -0.038502038 -0.027586386 -0.0012170052 -0.07196484 0.040361464 -0.08660825
0.044605605 0.08077986 -0.072320364 0.03210908 0.058089674 0.046631604 0.020309493 0.00046750324
-0.062002316 -0.0048819315 -0.016428245 0.010501023 0.032302566 0.009785387 -0.047666844 0.045170303
0.052840672 -0.030444153 -0.08073056 0.07985272 0.020906594 -0.03347301 0.03458923 0.01134973
0.049009275 -0.030628642 -2.1407035e-05 0.043843225 0.01721292 -0.009191004 -0.0057265866 0.019648077
-0.061143383 0.072326064 -0.06906968 0.0014725596 -0.057462055 -0.027408406 0.032458127 -0.006674446
-0.079662 0.06866559 0.07573719 -0.0042016963 0.032029197 0.022188196 0.07047841 -0.044080053
0.03197676 -0.07996136 -0.022565415 -0.08947556 -0.051742148 0.0578367 0.027577065 -0.04084964
0.07412336 0.035500977 -0.081710525 -0.06571812 -0.08106152 -0.070986405 0.034759354 -0.054884076
0.013277796 -0.033853505 0.0049207574 -0.047534343 0.049382064 -0.07050088 -0.08463781 0.013678984
-0.011028427 0.08052474 -0.08281112 -0.053176176 -0.0121836355 0.006723849 0.08024136 0.01680535
-0.083229594 0.06800581 -0.0012275502 -0.012278878 -0.042880516 -0.08653575 -0.07186125 0.014701262
00000000: 281f a7bd 14a6 413c 09bf b4bd b08e 93bd
00000010: ba0e a63c 2ef8 67bd 187a a03d d433 073d
00000020: d0b1 f43c 0f1f 523d 4fe6 c5bb bc91 41bc
00000030: 395e 253d ac0a 2cbd 446d a3bc e7ec 793b
00000040: 4142 bf3c 0bf9 fcbc 083b 20bd 7b03 7ebb
00000050: f623 1f3d daa0 2dbd a51e a7bd d46f 1dbd
00000060: 685d 94bc 8289 d4bb 1283 233c 5925 98bd
00000070: 9b1f 203c b7c4 86bd 6a0a a33d 312c c13c
00000080: b7c7 cf3c 7cb7 c5bc 64d0 a4bd f465 52bd
00000090: a2c3 88bd c4e2 413d 0d82 b9bc 8149 4bbd
000000a0: 9fc0 a2bd 119b 45bd bfdc 903d 5fb5 afbd
000000b0: 438d b9bc b405 92bd 4c8b a5bd c3ac f4bc
000000c0: ab8c a33c f563 afbd 106d 8bbc 3087 12bd
000000d0: 350f b53d dce4 a53b 87f5 20bb 1b1e 0f3c
000000e0: 4172 113d f413 80ba 5a94 853d 661c 903d
000000f0: b9b2 143d 6e41 47bb 14ad f93c da54 783d
00000100: e1a7 e13c 2587 5abd 1ec7 75bd d722 a53d
00000110: 6223 63bd c26d 713b 668e b33c 7d82 1f3d
00000120: 761c a5bc 1c15 1ebc 0940 98bc afee bf3c
00000130: fc18 863d 70a5 0a3d 8555 383b 93c3 8f3b
00000140: 943f a43d 3c50 973d 665d 62bd c66e 8fbc
00000150: 4721 113d b33a 8dbd fe7a 9cbd 8a49 8c3d
00000160: 6368 5e3d 5d16 6e3d 45d4 8abc 9685 9cbd
00000170: 682d 63bd 16d1 983d cbd6 1cbd 05c4 ab3d
00000180: 1f85 7b3d 1b38 5d3c 1872 fe3c 6550 56bd
00000190: 1b56 c1bb f7ec 28bd 60fe a93d 986b ab3d
000001a0: 673d a9bd 337b 95bc 3439 803d 1a82 00bc
000001b0: bfd6 7c3d 5ab3 e03c 155a fc3c 7b89 ab3c
000001c0: 65f8 38bd d296 6ebd f11c 513d 546f 73bd
000001d0: 5b93 a33d 9e65 fc3c e697 af3c 6584 acbd
000001e0: df08 ee3c 3d24 1bbc 2021 cf3b 50a0 56bc
000001f0: 6268 5f3d 0c13 6abc f133 aa3d fb21 963d
00000200: c70c 843d 7f8e b53c e9e9 85bd 9d3a a03c
00000210: 4071 813d a5fd 183d 0f98 51bc bc3a f03b
00000220: 7260 91bd 8bfb 35bd 690e 8f3d 70dc 93bd
00000230: a940 2f3d 4ce8 d63b a2ce 8b3d b2e0 72bd
00000240: da7c 06ba 87c1 913c 39b3 b9bc 57ab 13bb
00000250: 982a 8cbc 191d 36bd 7a10 583d 2c73 e83c
00000260: 11e3 29bd 05f3 10bd b6b3 f0bc 9a39 74bd
00000270: aa58 bcbd 76b7 553d 9f00 683d 29c2 b43c
00000280: 3b26 433d 40b9 aabd 50b4 1dbd d8fc e1bc
00000290: eb83 9fba 4d62 93bd 1052 253d ab5f b1bd
000002a0: 5eb4 363d e96f a53d b31c 94bd d084 033d
000002b0: 70ef 6d3d c800 3f3d 1860 a63c 391b f539
000002c0: 24f6 7dbd 9cf8 9fbb 8794 86bc 7c0c 2c3c
000002d0: b24f 043d e352 203c 4f3e 43bd 7f04 393d
000002e0: 766f 583d 0466 f9bc 1056 a5bd d389 a33d
000002f0: 4e44 ab3c ff1a 09bd 70ad 0d3d 38f4 393c
00000300: f3bd 483d ebe8 fabc 4293 b3b7 f494 333d
00000310: 1c02 8d3c dd95 16bc 17a6 bbbb 01f5 a03c
00000320: 7c71 7abd b01f 943d 6874 8dbd e702 c13a
00000330: 555d 6bbd 9887 e0bc d0f2 043d 50b5 dabb
00000340: d525 a3bd 8ba0 8c3d 1a1c 9b3d 62ae 89bb
00000350: 0c31 033d 05c4 b53c fc56 903d 498d 34bd
00000360: 10fa 023d c8c2 a3bd 1bdb b8bc f63e b7bd
00000370: 93ef 53bd 2de6 6c3d 4ce9 e13c f451 27bd
00000380: fdcd 973d 7969 113d d957 a7bd 3997 86bd
00000390: 9503 a6bd 5261 91bd d35f 0e3d 20ce 60bd
000003a0: 1d8b 593c f9a9 0abd 4e3e a13b 5fb3 42bd
000003b0: d944 4a3d c462 90bd 9756 adbd d11d 603c
000003c0: 93b0 34bc 28ea a43d e098 a9bd 43cf 59bd
000003d0: df9d 47bc bc53 dc3b 9555 a43d 60ab 893c
000003e0: 4774 aabd a146 8b3d c0e5 a0ba 592d 49bc
000003f0: 7ba3 2fbd a839 b1bd fe2b 93bd 90dd 703c

fc1.bias f4 [256]
0.088146865 -0.053083394 0.032136325 -0.042694166 0.022038752 -0.08883076 -0.016628914 -0.042755175
-0.049281906 0.08070348 0.055338927 -0.00093272293 0.055287562 0.041675247 0.082422785 -0.06928767
0.022801666 -0.04178923 0.01823341 0.032496065 0.035889547 0.011028341 0.052276794 0.0050166175
-0.040222835 -0.03977935 -0.01842386 0.021303125 0.04747435 -0.018620221 0.03056088 0.0061882003
-0.08649482 -0.06792662 -0.002567643 -0.028280955 -0.0027147012 0.07163927 -0.063820235 0.08202339
0.06260337 0.067421846 -0.031379376 0.04453647 -0.031459752 0.030123252 0.016734751 0.087582044
-0.045214497 0.0020533316 0.015412129 0.014547219 0.060877427 -0.0008334294 -0.047542468 -0.08391452
0.03873258 0.04062929 0.0713748 -0.049704473 -0.067822784 0.040432326 -0.016630717 -0.063120626
-0.069971785 0.0729158 0.070065826 0.021687232 -0.073067285 -0.05718941 -0.0023730583 -0.09126725
0.07989889 -0.0199966 -0.04062685 -0.062346663 0.060015894 0.058626927 0.0683353 0.037802823
0.0025330523 -0.07547366 -0.08081798 -0.08322752 -0.020360757 0.05472585 0.052876774 0.00064606505
-0.030128732 -0.07029066 -0.07757833 0.06486725 -0.035664488 0.0109986765 -0.039777953 0.071694784
0.01874949 -0.07973938 -0.023123488 -0.08661919 -0.05551468 0.0719063 -0.06699525 -0.029563716
-0.0857069 -0.023846924 0.047681585 -0.02988102 -0.027766764 -0.01196948 -0.08172755 -0.008472002
0.06696166 -0.052205827 -0.0505776 0.03253673 0.0064077512 -0.042981733 -0.054099716 0.012202504
0.055160377 0.009586972 0.07248015 0.0038962737 -0.032991033 0.0099722855 -0.09054376 0.07140275
0.06521664 -0.0023054956 0.020337591 0.061402947 -0.036806837 0.07755645 0.05374112 -0.044838153
-0.052884214 -0.050964963 -0.08032762 -0.089048184 0.03961436 0.044723175 0.07449553 0.012251516
-0.01725515 -0.04338989 -0.043770123 0.030002847 -0.061916433 -0.041530978 0.036082033 0.044745773
0.080649436 0.012262008 0.03012725 0.029362932 0.059825823 0.04412138 -0.01247931 -0.0238768
-0.010783964 0.046954133 0.057356954 0.007088356 -0.04188003 -0.01695597 -0.07691254 0.016244806
0.06801678 -0.028272668 -0.044535577 0.07370266 0.08037583 0.08136908 -0.0683081 0.07992192
0.06157026 0.07163864 -0.011228646 -0.009980813 0.009880832 -0.05771429 0.06400803 -0.07855742
0.06961799 0.04569801 -0.045842826 -0.029906506 -0.061480775 0.057395443 0.054208625 -0.0018480759
0.0594111 0.075671636 0.027869433 0.024561655 0.029736044 -0.04620309 -0.032109503 0.044730093
0.0437441 0.016288117 0.0050275023 0.0488759 -0.08129141 0.05015264 -0.059087202 -0.054501284
-0.08340198 0.03045803 -0.08458204 0.0061730295 0.01658386 -0.02127306 0.030642971 0.03312312
-0.07223841 -0.05174787 -0.011953063 0.08147512 0.01829489 -0.04535992 -0.04145368 0.020579664
-0.06998933 0.01380842 -0.06902077 0.020762105 0.013448817 -0.03828354 -0.047624297 0.011982672
0.031440407 0.07431955 0.04049436 0.07123909 -0.021409022 0.006703203 0.02486674 0.04456919
0.034073774 -0.029212076 0.02738021 -0.035945304 -0.07353607 0.011785352 -0.07279364 -0.060603924
-0.06668255 -0.089832045 -0.052627176 0.05692399 0.010485888 0.0077246875 -0.07036731 -0.028846761
00000000: 5886 b43d f96d 59bd 61a1 033d 14e0 2ebd
00000010: 9d8a b43c e7ec b5bd 5c39 88bc 0d20 2fbd
00000020: d3db 49bd de47 a53d 12ab 623d fa81 74ba
00000030: 3675 623d aab3 2a3d 47cd a83d b2e6 8dbd
00000040: 8fca ba3c 2f2b 2bbd 3b5e 953c 981a 053d
00000050: eb00 133d 37b0 343c 3120 563d 7062 a43b
00000060: b3c0 24bd acef 22bd a3ed 96bc e483 ae3c
00000070: 7774 423d 6f89 98bc d05a fa3c 63c6 ca3b
00000080: 3224 b1bd 1d1d 8bbd e745 28bb 76ad e7bc
00000090: 21e9 31bb 9cb7 923d 2fb4 82bd e1fb a73d
000000a0: 3236 803d 7714 8a3d a987 00bd e06b 363d
000000b0: f1db 00bd 0ac5 f63c 5117 893c 375e b33d
000000c0: d632 39bd 3091 063b 2883 7c3c 7557 6e3c
000000d0: 9c5a 793d 807a 5aba e4bb 42bd 60db abbd
000000e0: 0ea6 1e3d e66a 263d f32c 923d eb96 4bbd
000000f0: ace6 8abd 5e9c 253d 243d 88bc 6345 81bd
00000100: 5e4d 8fbd e154 953d ac7e 8f3d 6ca9 b13c
00000110: 4da4 95bd 713f 6abd 5085 1bbb 53ea babd
00000120: 07a2 a33d e9cf a3bc 5768 26bd 375f 7fbd
00000130: 3ad3 753d ca22 703d 61f3 8b3d 22d7 1a3d
00000140: 9101 263b ef91 9abd e683 a5bd 3173 aabd
00000150: 9acb a6bc 3628 603d 5195 583d b15c 293a
00000160: 88d0 f6bc 8df4 8fbd 63e1 9ebd 1fd9 843d
00000170: ed14 12bd cb33 343c 35ee 22bd b7d4 923d
00000180: 8898 993c 664e a3bd 786d bdbc 6765 b1bd
00000190: 5c63 63bd 9c43 933d ce34 89bd 9b2f f2bc
000001a0: 1987 afbd a05a c3bc c44d 433d 0ac9 f4bc
000001b0: 2077 e3bc a31b 44bc c660 a7bd 27ce 0abc
000001c0: 3223 893d c7d5 55bd 752a 4fbd 3c45 053d
000001d0: 1df8 d13b 9d0d 30bd aa97 5dbd 03ed 473c
000001e0: d9ef 613d ad12 1d3c 7970 943d a058 7f3b
000001f0: 9b21 07bd cc62 233c 026f b9bd 9b3b 923d
00000200: 4d90 853d cc17 17bb 059b a63c a881 7b3d
00000210: c4c2 16bd ebd5 9e3d a61f 5c3d 36a8 37bd
00000220: 1e9d 58bd a3c0 50bd cf82 a4bd e55e b6bd
00000230: ab42 223d a62f 373d 1d91 983d 95ba 483c
00000240: ac5a 8dbc 99b9 31bd 4d48 33bd 88c8 f53c
00000250: 169c 7dbd 631c 2abd c1ca 133d 5847 373d
00000260: 882b a53d 97e6 483c 6ccd f63c 888a f03c
00000270: ec0b 753d 9fb8 343d 0576 4cbc 4799 c3bc
00000280: 39af 30bc fa52 403d 20ef 6a3d 7145 e83b
00000290: 658a 2bbd 3fe7 8abc 5284 9dbd d413 853c
000002a0: 624c 8b3d 159c e7bc f06a 36bd 6cf1 963d
000002b0: 159c a43d d5a4 a63d 1ee5 8bbd 1bae a33d
000002c0: 1931 7c3d 47b7 923d 5bf8 37bc 9086 23bc
000002d0: 37e3 213c d265 6cbd a416 833d b6e2 a0bd
000002e0: e093 8e3d d62d 3b3d b0c5 3bbd 7dfe f4bc
000002f0: 44d3 7bbd 7c17 6b3d dd09 5e3d 233b f2ba
00000300: 0e59 733d bbf9 9a3d 704e e43c 8635 c93c
00000310: 0199 f33c 743f 3dbd 4185 03bd e736 373d
00000320: 032d 333d a86e 853c bfbd a43b 1932 483d
00000330: 1c7c a6bd db6c 4d3d 6c05 72bd bd3c 5fbd
00000340: a8ce aabd 1e83 f93c 5939 adbd 2047 ca3b
00000350: e0da 873c d744 aebc f806 fb3c 1cac 073d
00000360: bbf1 93bd 93f5 53bd c8d6 43bc 6ddc a63d
00000370: 2adf 953c 53cb 39bd 55cb 29bd af96 a83c
00000380: 9156 8fbd b63c 623c c35a 8dbd 4a15 aa3c
00000390: 6d58 5c3c 34cf 1cbd b211 43bd f852 443c
000003a0: a8c7 003d d934 983d 6add 253d cde5 913d
000003b0: f961 afbc 8ba6 db3b 55b5 cb3c 2f8e 363d
000003c0: f190 0b3d 2a4e efbc 764c e03c 623b 13bd
000003d0: 149a 96bd 5917 413c d514 95bd d23b 78bd
000003e0: dc90 88bd ddf9 b7bd 988f 57bd 2129 693d
000003f0: 01cd 2b3c 601f fd3b bc1c 90bd 0b50 ecbc

fc2.weight f4 [9, 256]
-0.003967205 -0.0013992061 0.030685214 -0.0017428547 -0.045537338 0.007843087 0.015880888 -0.043873873
-0.011800446 0.0361132 -0.031561255 -0.047593918 0.0131354155 -0.009378516 -0.056630284 -0.0060497695
-0.011746904 0.045636356 0.0040949304 0.031160261 -0.047348358 0.03633785 -0.010322571 -0.027851028
0.024860017 -0.04649735 0.036623575 -0.016905203 -0.02379779 -0.009800861 -0.029402979 0.048922192
-0.0371044 0.042660188 0.0026994927 -0.025948951 -0.026500601 -0.033811208 -0.018127132 -0.044096805
-0.043104187 -0.0503718 0.0018475874 0.0025447472 -0.05221825 0.04886203 0.025225474 -0.01758031
-0.0068499073 -0.027062 0.053456314 0.039810177 -0.01863717 -0.03268327 -0.034682065 0.0002933815
-0.05359514 -0.016371809 0.034607448 -0.011256461 -0.039317984 0.049121693 0.008301487 0.0024988651
0.05624091 -0.061385363 -0.045984484 0.02291122 0.036599353 -0.013823845 -0.004581812 0.017786475
-0.033595063 0.030746698 -0.057912096 -0.012546509 0.004968621 -0.0043119565 -0.013207637 -0.033632915
-0.0078089526 -0.028095098 0.047919415 -0.020811193 -0.053540364 -0.056390762 0.039038133 -0.03497649
0.045727 0.035145853 -0.00021404351 -0.016011402 -0.012607916 0.012084359 0.041056316 0.03558624
-0.003343463 0.018006697 -0.04272826 0.01837435 -0.01240198 -0.03108736 0.0030835352 0.034615207
-0.017043257 0.010960992 0.008899768 0.050912037 -0.005274443 -0.03347853 -0.04179147 -0.046934463
0.03655692 0.042261276 -0.010249501 -0.04413687 0.050551746 -0.002106304 0.010996744 0.0017155284
-0.057431452 0.032830015 0.034857795 -0.027052835 0.05343962 -0.04354038 0.026758365 0.016942743
0.060914323 0.031845506 -0.020769207 0.008524787 -0.043353602 -0.010722779 0.038154762 -0.008164512
-0.035462346 0.02548323 0.03975567 0.04445445 -0.03996285 -0.029953174 -0.027494054 -0.0486921
-0.030234203 -0.031208482 -0.013641653 0.0073538003 -0.038091905 -0.015465994 0.043150555 0.044350468
0.049337387 0.013401344 -0.045984697 0.009373717 0.025736475 0.013184304 -0.01672857 -0.047381546
0.055253673 0.04608748 0.03054181 0.032803167 0.0009742313 -0.018397536 0.008310273 -0.043523725
-0.008180456 -0.035593495 0.026887845 -0.01906676 -0.04367445 -0.0007548183 0.025765607 -0.02770504
-0.0071617323 0.055295937 0.05408153 -0.037439477 -0.031192435 -0.04099139 0.050679035 -0.040224377
-0.033609647 -0.054391205 -0.025214393 -0.017265508 0.017420586 -0.012869619 0.027503926 0.05314089
-0.04212837 0.035289317 0.0068048313 -0.006456815 -0.031475022 0.053650435 0.023735143 0.0059159882
0.036080696 -0.01044658 -0.03504047 0.047980186 0.048456423 0.020931527 0.06281292 0.008201164
-0.003914319 0.02145663 -0.04335555 -0.010594539 -0.018749923 0.049165435 0.028581485 -0.050023347
-0.055989075 0.045200862 -0.014472436 -0.057232056 -0.023053689 -0.029230276 0.032532852 0.031039558
-0.006525092 -0.002445795 0.05116657 -0.014989153 0.0012190174 -0.016451111 -0.015469581 0.023979362
0.015825396 -0.024469994 -0.04239141 0.046027847 -0.029214121 0.006013071 -0.020671943 0.05233069
0.04583649 -0.0090680355 0.040694833 0.011065335 0.057180822 -0.024527377 0.009771233 0.0012654149
0.02313157 0.029909892 -0.040727317 -0.046374228 -0.014459921 0.0041507035 -0.0073421537 -0.022394808
00000000: 54ff 81bb 9165 b7ba 8f5f fb3c 8070 e4ba
00000010: 5c85 3abd 4b80 003c a318 823c 17b5 33bd
00000020: a856 41bc 6feb 133d 6046 01bd d7f1 42bd
00000030: ed35 573c 59a8 19bc 28f5 67bd 253d c6bb
00000040: 1676 40bc 30ed 3a3d c42e 863b ce43 ff3c
00000050: 5af0 41bd ffd6 143d 0020 29bc d727 e4bc
00000060: 3ca7 cb3c 0174 3ebd 9a02 163d c87c 8abc
00000070: 95f3 c2bc ca93 20bc 84de f0bc a362 483d
00000080: c9fa 17bd 73bc 2e3d f9e9 303b e592 d4bc
00000090: ca17 d9bc 9f7d 0abd 5a7f 94bc da9e 34bd
000000a0: 048e 30bd a952 4ebd bf2a f23a c6c5 263b
000000b0: cee2 55bd 8d23 483d a7a5 ce3c 9504 90bc
000000c0: 3075 e0bb 21b1 ddbc 02f5 5a3d ff0f 233d
000000d0: faac 98bc e4de 05bd c80e 0ebd 00d1 9939
000000e0: 9486 5bbd 2c1e 86bc 8ac0 0d3d 056d 38bc
000000f0: e50b 21bd d433 493d f602 083c 00c4 233b
00000100: de5c 663d 386f 7bbd 3a5a 3cbd 50b0 bb3c
00000110: 34e9 153d 697d 62bc 0623 96bb f1b4 913c
00000120: fa9a 09bd 80e0 fb3c 3c35 6dbd df8f 4dbc
00000130: d0cf a23b 504b 8dbb d864 58bc abc2 09bd
00000140: 3ee2 ffbb b127 e6bc 2647 443d 3c7c aabc
00000150: 244d 5bbd 00fa 66bd 73e6 1f3d 8243 0fbd
00000160: 3c4c 3b3d 19f5 0f3d de70 60b9 582a 83bc
00000170: 6f91 4ebc 7afd 453c ab2a 283d e1c2 113d
00000180: 001e 5bbb c882 933c d403 2fbd ce85 963c
00000190: ad31 4bbc ebaa febc 2315 4a3b adc8 0d3d
000001a0: 4d9e 8bbc bc95 333c 55d0 113c 2489 503d
000001b0: 3cd5 acbb c820 09bd 882d 2bbd 5a3e 40bd
000001c0: b5bc 153d 291a 2d3d 86ed 27bc ddc8 34bd
000001d0: 590f 4f3d eb09 0abb b02b 343c 95db e03a
000001e0: 3e3d 6bbd c478 063d 0cc7 0e3d e89d ddbc
000001f0: 81e3 5a3d 6657 32bd 5c34 db3c 82cb 8a3c
00000200: 4c81 793d 6f70 023d 2f24 aabc 8cab 0b3c
00000210: 8c93 31bd 98ae 2fbc 2b48 1c3d 72c4 05bc
00000220: f740 11bd 35c2 d03c d7d6 223d df15 363d
00000230: 16b0 23bd 5c60 f5bc 363b e1bc 5e71 47bd
00000240: b8ad f7bc eea8 ffbc 3d81 5fbc 26f8 f03b
00000250: 4206 1cbd 1565 7dbc a3be 303d d6a8 353d
00000260: 0016 4a3d 5091 5b3c 735a 3cbd 3894 193c
00000270: 4dd5 d23c fb02 583c 5b0a 89bc 2713 42bd
00000280: ad51 623d 3ac6 3c3d d132 fa3c 9d5c 063d
00000290: 8e63 7f3a 6eb6 96bc d027 083c ef45 32bd
000002a0: 5207 06bc 7cca 11bd e643 dc3c e531 9cbc
000002b0: fbe3 32bd 00df 45ba 6512 d33c aef5 e2bc
000002c0: f7ac eabb fe7d 623d 9884 5d3d 235a 19bd
000002d0: 4787 ffbc 96e6 27bd d294 4f3d 51c2 24bd
000002e0: 45aa 09bd 50c9 5ebd 6a8e cebc 6570 8dbc
000002f0: 9eb5 8e3c 18db 52bc ea4f e13c 43aa 593d
00000300: cc8e 2cbd 888b 103d 10fb de3b b193 d3bb
00000310: f4eb 00bd 8fc0 5b3d 3470 c23c e8da c13b
00000320: 5ac9 133d 2228 2bbc 9986 0fbd df86 443d
00000330: 3e7a 463d 9878 ab3c 0fa4 803d 2d5e 063c
00000340: b043 80bb d1c5 af3c 9795 31bd b894 2dbc
00000350: 7099 99bc b261 493d b823 ea3c 48e5 4cbd
00000360: cd54 65bd 8a24 393d cc1d 6dbc 296c 6abd
00000370: 17db bcbc 5574 efbc 2b41 053d ac46 fe3c
00000380: 70d0 d5bb a249 20bb 0a94 513d 1095 75bc
00000390: 70c7 9f3a 7bc4 86bc 2074 7dbc 5e70 c43c
000003a0: 43a4 813c 4c75 c8bc 9da2 2dbd b287 3c3d
000003b0: 7452 efbc 4c09 c53b 3558 a9bc b558 563d
000003c0: 0bbf 3b3d 1992 14bc a0af 263d 614b 353c
000003d0: 7036 6a3d a3ed c8bc 8617 203c 47dc a53a
000003e0: 6b7e bd3c 9705 f53c b0d1 26bd e7f2 3dbd
000003f0: 4ee9 6cbc a002 883b 7396 f0bb 5175 b7bc

fc2.bias f4 [9]
-0.015134979 -0.019208767 -0.047240727 0.009887487 0.0063539892 -0.03597568 0.057133116 -0.044521615
0.014353674
00000000: b4f8 77bc b45b 9dbc 7e7f 41bd 20ff 213c
00000010: 2035 d03b 3c5b 13bd 6a04 6a3d 4c5c 36bd
00000020: ac2b 6b3c
