checkpoints/pacman_ram/40.pt (torch_old, 142149 bytes, 4 tensors)

fc1.weight f4 [256, 128]
000000 20 5f 68 bd 3e f4 42 3d cc e7 20 bd c0 d3 8d bb
       -0.056731343 0.04759621 -0.03928356 -0.004328221
000010 4a 87 3e 3d a8 d4 d7 3c 5e c6 1b bd 46 83 3b 3d
       0.04651574 0.02634652 -0.038030975 0.04577949
000020 c8 07 ad bc 82 94 30 3d 34 5c 8d bc 5a c8 6d 3d
       -0.021121874 0.043110378 -0.01725588 0.0580524
000030 22 09 63 3d d0 e4 2f 3c ac f6 df bc 18 40 ae 3c
       0.05542863 0.0107357055 -0.027339302 0.021270797
000040 3d a1 18 bd d7 5d a8 3d 00 f1 e6 bc c0 1a 4f 3b
       -0.037263144 0.082210235 -0.02819109 0.0031601638
000050 78 80 b2 3c 18 84 80 bd f5 7a 96 3d 9e 83 56 3d
       0.021789774 -0.06275195 0.07347671 0.052371614
000060 49 f0 b4 3d 74 bb 96 bd 28 4f 68 bc bc ff f8 bc
       0.08834893 -0.073599726 -0.014179029 -0.030395381
000070 04 68 4f bd 5e 99 5d 3d 42 93 b3 bd 7c d3 ec 3c
       -0.050636306 0.05410134 -0.087683216 0.028909437
000080 84 ca b9 bc 0b 12 b2 3d 79 81 a2 bd 42 bb 79 3d
       -0.022679575 0.08694848 -0.07934851 0.0609696
000090 88 f3 9b 3c 58 2f 1e bc ef 75 4c bd c2 9a 48 bd
       0.019037023 -0.009654842 -0.049917158 -0.048975714
0000a0 e8 56 86 bc a0 20 3b bc 40 0d 8f 3b 38 c6 86 3c
       -0.016398862 -0.011421353 0.004365593 0.01645194
0000b0 b0 68 1c bc 11 33 a9 bd 00 a9 52 3c 62 9f 73 bd
       -0.009546444 -0.08261693 0.012857676 -0.05947817
0000c0 17 ae 96 bd fa 55 7a 3d 25 e6 3f bd 56 c4 00 bd
       -0.07357424 0.06111715 -0.046850342 -0.03143724
0000d0 92 1a 54 3d b2 58 2b bd 5b 48 97 3d 9b f0 95 3d
       0.051783152 -0.041832633 0.073868476 0.073212825
0000e0 af 57 9d bd 60 af 10 bb 88 b6 9b bd 4e 69 6e 3d
       -0.0768274 -0.0022077188 -0.076031744 0.058205895
0000f0 a4 e2 ba 3c b8 47 81 bc f0 25 0c 3d 02 87 29 bd
       0.022813149 -0.015781268 0.034215868 -0.04138852
000100 3a b7 0e 3d 39 1e ad 3d 39 cf 01 bd 4b 3c 8a 3d
       0.034842707 0.0845303 -0.031691764 0.06749781
000110 00 4e 08 39 83 3c 91 3d 34 06 d4 bc a6 c0 89 bd
       0.00012999028 0.0709162 -0.025881864 -0.06726198
000120 0e 9c 87 bd d3 58 b0 3d e9 51 9f 3d fc 30 9e 3c
       -0.06621562 0.08610692 0.07779295 0.019310467
000130 72 62 28 3d 61 ea 29 bd 8a 91 dd bc 6e b8 71 3d
       0.04110951 -0.041483287 -0.027046937 0.059013776
000140 d6 ac 1f 3d fc 1c b3 3c 1f d8 15 bd 16 2e 23 3d
       0.03898319 0.021864407 -0.036583062 0.039838873
000150 d4 ca c1 3c d4 30 df 3c 90 88 9c bb b9 90 9b bd
       0.023656286 0.027244963 -0.0047770217 -0.07595963
000160 d1 a6 12 bd 1c 9e c2 bc d0 d4 21 bc e6 24 64 bd
       -0.03580362 -0.023757033 -0.009877399 -0.05569925
000170 b4 bf 8c bd 95 b4 45 bd 4d 09 07 bd d0 7b 21 3c
       -0.06872502 -0.04826792 -0.032967854 0.009856179
000180 b9 21 9a bd 72 f8 b0 bd bf e6 86 bd 14 5d fb bc
       -0.07525963 -0.08641137 -0.0658698 -0.030684032
000190 c0 2e fc 3a 72 a6 19 3d 15 22 6c bd a4 14 ef 3c
       0.0019240007 0.03751225 -0.05764969 0.029184647
0001a0 b6 61 8c bd 58 44 4d bc 20 e7 41 bb d9 85 51 bd
       -0.068545744 -0.012528501 -0.0029587224 -0.051153038
0001b0 ca 45 75 3d 0d 38 b4 3d 1d 1c 21 bd ca 63 72 bd
       0.05988101 0.08799753 -0.03933345 -0.059177198
0001c0 cf 16 99 bd 00 b4 65 3b c2 63 76 bd d0 39 bd bc
       -0.074750535 0.0035049915 -0.06015373 -0.023098856
0001d0 c8 d8 b4 bc 79 84 a1 3d 58 9d 72 bd 75 b2 b3 3d
       -0.022076026 0.07886595 -0.059232086 0.08774272
0001e0 06 7d 66 bd 40 5d 6c bc e0 9f 9e bc 28 cd 2b 3c
       -0.056271575 -0.014426529 -0.019363344 0.010485925
0001f0 29 76 9a 3d 40 f4 c4 bb be 35 0d 3d 63 d5 9e 3d
       0.075420685 -0.006010562 0.03447508 0.07755544
000200 b3 9b 81 3d 28 46 fe 3c d0 15 89 3d b0 d8 fd bc
       0.063285254 0.031039312 0.066936135 -0.030987114
000210 e3 ae b9 3d 0b b1 2a bd 70 07 ea bb c6 93 9e 3d
       0.0906656 -0.041672748 -0.007142 0.07743029
000220 f1 89 5f 3d ef db fb 3c d3 f2 ce bc 54 b8 86 bd
       0.05457491 0.030744521 -0.025262272 -0.065781265
000230 14 33 5a 3d 02 b6 21 bd eb 15 7e 3d 65 56 b6 3c
       0.05327137 -0.039480217 0.06203262 0.022257993
000240 a7 19 7c 3d e0 9f 90 3c d5 5d 00 bd d5 8a c3 3c
       0.0615479 0.01765436 -0.031339485 0.023869911
000250 9c 22 0e bd cb 11 8c bd 35 0e b7 3d 10 95 fd 3b
       -0.034700975 -0.06839331 0.08938257 0.007738717
000260 66 6f 24 3d 2d 2d 73 3d ed 8b 45 bc e7 ab 9c 3d
       0.0401453 0.059369255 -0.012057287 0.07649975
000270 d0 e1 83 3c 76 c5 4d 3d e6 72 9d bd 67 0d a3 bd
       0.016098887 0.05023714 -0.07687931 -0.07961541
000280 4d 31 81 bd 36 0a 51 bd d7 a8 8d 3d 8c 12 5e bc
       -0.063082315 -0.05103513 0.06916969 -0.013554227
000290 9e 3f 73 3d 16 65 46 bd 32 9d 70 bd 4c 51 9b bd
       0.059386842 -0.048436247 -0.058743663 -0.075838655
0002a0 98 98 73 3c 89 68 c6 3c e2 34 12 3d 25 5f 88 bd
       0.014867924 0.024219768 0.035694964 -0.066587724
0002b0 4d 3d 22 bb 48 af 8a bc 57 79 88 3d 10 68 a7 3c
       -0.0024755776 -0.016929284 0.06663769 0.020435363
0002c0 48 72 0e bd 9e fa 8c bd e2 f5 a9 3d ff 4c a6 3d
       -0.034776956 -0.06883739 0.082988515 0.081201546
0002d0 68 a3 83 3d c3 19 d2 bc e3 6b 15 39 fd 05 05 3c
       0.06427652 -0.02564705 0.00014249938 0.0081191035
0002e0 4c c9 21 3d 32 7e 18 3d 92 3b 93 bd 29 52 84 3a
       0.039498612 0.037229724 -0.071890965 0.0010095286
0002f0 19 49 ca 3b 5d 85 48 bd bc a7 cc 3c cd fb 71 3d
       0.0061732647 -0.04895531 0.024982326 0.059078027
000300 e5 1f 8f 3d eb dc 08 3d e8 4a c4 bc cd 87 00 3c
       0.06988505 0.03341381 -0.0239615 0.007844877
000310 19 8d 91 bc 31 28 a5 3d 91 61 0b bd 0e df 41 bd
       -0.017767476 0.080643065 -0.034028593 -0.047331862
000320 2c c0 05 bd 64 74 9c 3d 71 95 dd bc 11 e7 ab 3d
       -0.032653973 0.07639387 -0.027048798 0.08393682
000330 21 91 8e 3d 56 33 aa 3d 61 cd 7f bc 73 bd 1e 3b
       0.06961275 0.08310573 -0.015612931 0.0024221807
000340 94 14 3a 3c 4c 4c 28 bd b2 0d 85 bd 13 25 66 bd
       0.011357445 -0.041088387 -0.06496753 -0.0561877
000350 26 c2 98 3b 4f 33 45 3d 34 c2 5b 3d 75 a0 8c bb
       0.004661816 0.048144635 0.053652003 -0.004291589
000360 af 95 8a bc 42 46 48 bd f8 0d b1 3d c4 cf 9f bc
       -0.016917078 -0.048895128 0.086452425 -0.01950825
000370 41 82 d9 3b 13 2a 13 3d 1e 11 17 bd e8 7f 0c bc
       0.006637842 0.035928797 -0.03688156 -0.008575417
000380 3a 75 db bb b3 a4 00 3d 6f 7f 36 3d ba d8 08 3d
       -0.006697324 0.03140707 0.044555124 0.03340981
000390 88 1a 07 bd 33 3b d8 bc 95 87 4d 3c 25 f6 0d 3d
       -0.032984287 -0.026395416 0.012544532 0.03465857
0003a0 e2 71 04 3d fe 9b 88 3c f5 8a 0f bd 5f 22 8a bb
       0.03233517 0.016675945 -0.03504463 -0.004215523
0003b0 a2 85 9e 3d c7 f8 44 3c f4 73 0e 3d 75 35 46 3a
       0.07740332 0.012022204 0.03477855 0.00075610663
0003c0 6f 9b 5a bc 04 4d 50 3d 39 38 6e 3c d5 9b 09 bd
       -0.013342722 0.050854698 0.014539772 -0.03359588
0003d0 14 69 e6 3c 25 fa 0e 3d 6c 0b 8a 3d 32 47 a7 bd
       0.028126277 0.034906525 0.0674046 -0.08167876
0003e0 11 54 3c 3b d0 f2 2a 3d 45 57 7d bd f0 0f 1d bc
       0.002873663 0.04173547 -0.061850805 -0.009586319
0003f0 22 cb 4b 3d 34 e5 55 bc 93 1d 27 bd 10 a8 36 3d
       0.04975427 -0.013055135 -0.04079969 0.04459387

fc1.bias f4 [256]
000000 c0 15 11 3c 22 f7 47 3d 96 38 f5 bb 1c fc cc bc
       0.008855283 0.04881967 -0.007483552 -0.025022559
000010 6c 4d 8d bd 1a db ae bd 72 26 19 bd 70 77 a3 bd
       -0.06899533 -0.08537884 -0.03739018 -0.07981765
000020 da 56 a8 bd 2a bc 00 bd c0 07 d2 3b 2b de 97 bd
       -0.082196906 -0.031429447 0.0064096153 -0.07415422
000030 a2 65 77 3d 8f 12 e6 3b 99 a9 d8 bb 11 0e 59 bd
       0.06039966 0.0070212553 -0.0066120145 -0.05299193
000040 42 d1 36 3d b2 24 1c bd 37 71 8b bd 94 a3 7a bd
       0.044633158 -0.038120933 -0.068087034 -0.061191157
000050 75 e5 34 bc 86 f7 3b bd 6e 2d ea 3c 5a b3 14 3d
       -0.011041035 -0.045890354 0.028586116 0.036303855
000060 af 9f 7c bd e4 be 49 bd 1a 57 dc bc 92 03 8d bc
       -0.061675724 -0.049254313 -0.026897002 -0.017213617
000070 97 ee da bc c6 b6 f7 3b f2 bb 13 bc 8e 60 9f bd
       -0.026725097 0.00755963 -0.009016978 -0.07782088
000080 7d 6b 0d 3d 99 f1 8a bb fe 89 87 bd 9e b1 20 bd
       0.034526337 -0.0042402265 -0.06618117 -0.03923189
000090 da 47 b1 bd c8 52 d6 bc 7f d7 58 bd 3a 37 07 bd
       -0.08656283 -0.02616252 -0.052939888 -0.033011653
0000a0 1c 97 c4 3c 88 1c 0e 3c 06 b1 d8 3c f0 f0 2c 3c
       0.023997836 0.008673795 0.026451599 0.010555491
0000b0 01 19 49 bc c3 03 a6 bd d1 e4 85 3d f8 df 1e 3d
       -0.012274028 -0.08106186 0.06537784 0.038787812
0000c0 d7 c7 c1 ba 82 0e e5 bc 43 9b 3c bd 22 b0 52 bc
       -0.0014784288 -0.02796102 -0.046046507 -0.012859376
0000d0 c3 c5 82 bc 80 cf 7b 3d 13 32 67 3d 5a 0c 0d bc
       -0.01596344 0.061477184 0.05644424 -0.008608902
0000e0 84 f9 c2 bc 50 ae 1d 3c a9 ad a0 bd bb 74 aa bd
       -0.023800619 0.009624079 -0.07845623 -0.08323046
0000f0 7c f1 00 3d fc 2f 62 3d d8 14 af bc f8 ca 4a 3c
       0.031480297 0.055221543 -0.021372244 0.012377493
000100 59 ab 60 bd db 0e 96 3d 82 d4 f0 3c 86 63 97 bc
       -0.05485091 0.07327052 0.029398207 -0.018480074
000110 80 37 48 3b 88 e8 64 bc 44 71 22 3d 39 41 63 3d
       0.0030550659 -0.013971455 0.0396588 0.055482123
000120 08 d2 9c 3c ec 6f d4 bc 10 b9 8b bd 3a ab fc 3c
       0.01914312 -0.025932275 -0.06822407 0.030843366
000130 19 69 a2 3d 5c 40 3c 3d b0 f8 4c 3d af 22 2c 3d
       0.07930202 0.045959815 0.050041854 0.042025264
000140 94 48 c9 bc 88 d2 87 bc a0 86 85 bc 8c 82 2f bd
       -0.02457074 -0.016579881 -0.016299546 -0.04284911
000150 ea f4 1c 3d d6 f8 2f 3d 60 d8 08 bb 2a 2a 76 bc
       0.038319506 0.042961918 -0.0020880923 -0.015024701
000160 fb ca 88 3d 18 fc 20 3c 39 a3 07 3d c0 ba 59 bb
       0.066793405 0.009825729 0.033114646 -0.0033222884
000170 9e ba 81 3d 5c 17 67 bd dd 06 aa 3d 4b bb f3 bc
       0.063344225 -0.05641876 0.0830209 -0.029752394
000180 68 ce 1d bd 2b a0 47 bd eb 3b 8b 3d 23 82 67 3b
       -0.038526922 -0.048736732 0.06798538 0.003532537
000190 e7 4f 81 3d 06 36 ed bc 80 be d8 3b 48 27 51 3d
       0.06314068 -0.028956424 0.0066145062 0.051062852
0001a0 74 3f 14 bd 67 a0 39 bd 46 db 89 bd 0b dc 9c 3d
       -0.036193326 -0.045318987 -0.06731276 0.07659157
0001b0 ce 1f 19 3d 33 39 0a 3d 1e f8 24 3d cc 5e a2 bd
       0.037383847 0.033745956 0.040275685 -0.07928237
0001c0 20 1b d6 bc 99 ae 92 3d 09 9d 60 3c ae cc 2e 3d
       -0.026135981 0.07162208 0.013709315 0.042675667
0001d0 81 1a d4 3c c1 8f a2 3d 0c 55 35 3d b2 e0 62 3d
       0.025891544 0.07937575 0.04427056 0.055390067
0001e0 0c 66 b8 3b 79 24 a9 3b 47 fc ed 3c da 06 13 3d
       0.0056273993 0.0051618186 0.02905096 0.035895206
0001f0 5a 81 c0 3c 73 2b 9a bd 01 f1 9f 3d 13 ac ae bd
       0.02349918 -0.075278185 0.0780964 -0.08528914
000200 92 30 f8 3c 14 15 55 3d 6e fd b0 3c 40 fa 80 3d
       0.030296598 0.052022055 0.02160522 0.062977314
000210 97 07 19 3d 3a ba 50 bd 41 07 82 3a f2 c0 2f bc
       0.037360754 -0.05095885 0.0009920375 -0.010727154
000220 9d 76 02 bd 2c 19 a3 3c aa 68 ac bc 3a 54 1b bd
       -0.0318514 0.019909464 -0.021046001 -0.03792212
000230 76 8f eb bc ee f9 4f 3d ca f7 a8 3d 70 fa 06 3d
       -0.028754931 0.05077546 0.08250387 0.03295368
000240 cb c7 95 3d 82 f6 9a 3b eb 26 6d 3d fd 67 80 3d
       0.07313498 0.004729093 0.057898443 0.06269834
000250 87 85 0b bc 6e 6d 8b bd 76 37 11 3d be 52 6d 3c
       -0.008515722 -0.068079814 0.035453282 0.014485059
000260 39 34 47 3d d6 ac 3e 3d 17 fe a8 bd 56 cb ef 3c
       0.048633788 0.046551548 -0.08251589 0.029271763
000270 c0 6c 17 3d c0 e5 2e bd ab 1a 9a 3d a2 15 37 bd
       0.036968946 -0.042699575 0.07524618 -0.044698365
000280 c8 b1 5e bc a6 d6 61 bd 23 e7 56 ba 48 66 4c bd
       -0.013592191 -0.055136345 -0.0008197894 -0.04990223
000290 33 c9 61 bd 6a 88 03 3d c8 ba a0 3d 63 0d 84 3d
       -0.05512352 0.032112516 0.07848126 0.06447866
0002a0 54 62 f3 3b fe e6 77 3d e0 d0 1d bd db 53 55 bd
       0.007427493 0.060523026 -0.038529277 -0.052081924
0002b0 0c bc 5d bd 0a 26 85 3d e8 33 78 3c 01 62 98 bc
       -0.054134414 0.06501396 0.015149094 -0.01860142
0002c0 77 c1 5a bd 59 85 a7 bc a1 4a 7e 3d ff 6c a8 bd
       -0.05340716 -0.020449327 0.06208289 -0.08223914
0002d0 b7 6a b4 3d 5d 5c 44 bd 14 cb ce 3c d0 67 28 bd
       0.08809417 -0.047939647 0.02524332 -0.04111463
0002e0 fd 15 3f bd 82 2b aa bd 33 1f 53 3c f3 ce 21 b9
       -0.04665183 -0.0830908 0.012885856 -0.00015431251
0002f0 7e c0 64 3d c0 cb ff 3c aa 3c a0 bc f8 73 a7 3c
       0.055847637 0.031225085 -0.019560177 0.02044104
000300 1c f7 a7 bd 09 34 f1 bc 42 cf 94 bd d5 5a 10 bd
       -0.08201429 -0.029443758 -0.07266094 -0.035242874
000310 15 c9 9e 3d 5c d3 59 bd cc 0f 61 bd a5 de b2 3d
       0.07753197 -0.053180084 -0.054946706 0.08733872
000320 30 b5 30 3d 68 5e a6 bd d2 44 ee bb 38 c2 83 bd
       0.043141544 -0.08123475 -0.0072713876 -0.06433529
000330 26 e5 0b 3d 11 36 9b 3d 7c 0d e4 3a 12 35 fa 3c
       0.03415408 0.07578672 0.0017399038 0.030542884
000340 5c 6f 1b bc ec 37 a1 3d b2 a9 ad bc 26 55 42 3d
       -0.009486999 0.078719944 -0.021199081 0.047444485
000350 37 44 b6 bd 56 4f 5f 3d fa 4f bb bd 3a 8a 5c 3c
       -0.0889973 0.05451902 -0.09146114 0.01346069
000360 2a 8b b5 bc 55 64 a4 bd b9 49 a2 bd 92 0f 88 3c
       -0.022161085 -0.08026949 -0.07924218 0.016608987
000370 d8 46 51 3d 09 e7 80 3d 85 68 9b bd 7e 5c 0b bd
       0.051092952 0.062940665 -0.07588295 -0.034023754
000380 ab ef ae 3d d2 97 a2 bd c9 7f 98 3d c6 43 9b bd
       0.08541807 -0.07939114 0.07446248 -0.07581286
000390 6f 15 89 3d 39 59 9f bd 40 aa 6c bd b1 92 28 3d
       0.06693541 -0.0778069 -0.05777955 0.04115552
0003a0 7c 2c e3 3c 7a d5 1b 3d ef 5a 94 bd 21 59 9e bd
       0.027731173 0.038045384 -0.07243907 -0.07731844
0003b0 be 4d 0c bd 20 2a bc 3c bd 2f 87 bd c3 2f fa bc
       -0.03425383 0.022969306 -0.06600902 -0.030540353
0003c0 3d ea 9b bc a3 aa 91 3c 4d 0f de bc 55 c2 0b bd
       -0.019032592 0.017781561 -0.027106905 -0.034120876
0003d0 e6 47 c9 bc 2a 27 e1 3c 7a 58 b2 bc 25 ff 2b 3d
       -0.024570417 0.027484495 -0.021770705 0.04199137
0003e0 57 d4 fc bc d1 71 1f bd c8 f7 27 bc ee 13 79 3d
       -0.03086297 -0.038926903 -0.010251947 0.060810022
0003f0 12 56 ab bd 6a 82 34 3d 1e 24 83 3d d8 0c eb bc
       -0.08366026 0.044069685 0.06403373 -0.028692648

fc2.weight f4 [9, 256]
000000 80 1c 37 bc 83 e0 73 3d a4 0e 3e 3c 6e c6 61 3d
       -0.0111762285 0.059540283 0.01160017 0.055120878
000010 3e 77 0d bd d2 8f 4b bc bf 49 54 3b c3 32 0c 3c
       -0.034537546 -0.012424426 0.003239259 0.008557024
000020 ae 3a 7a bc ec f9 50 3b 00 a8 7b bc 13 a5 81 bc
       -0.015272779 0.0031887246 -0.015359879 -0.015825784
000030 f8 16 da 3c 46 da bf bc 3d 5a 58 3a 4d 9a 64 3c
       0.02662228 -0.02341951 0.00082531926 0.013952804
000040 70 29 0f 3d 72 1a 4a 3d 6a 76 77 bd ba 9b 4a 3c
       0.034951627 0.049341626 -0.060415663 0.01236623
000050 0a 43 15 3d 58 73 92 bc 37 9a 77 3d 8c ee 41 bd
       0.036440887 -0.017877266 0.060449805 -0.047346637
000060 5a a2 4d bb b0 30 5d bc 4c b0 d4 bc 6d 32 a7 3b
       -0.0031377287 -0.013500378 -0.025962971 0.005102447
000070 23 f4 aa 3c 8d 7d 52 3c cb 7e fd 3c da 9d 78 3d
       0.020868367 0.012847316 0.030944249 0.060697414
000080 05 dc 18 3d ad 14 57 3d b5 51 2f bc d4 f3 59 bd
       0.037319202 0.052509952 -0.010700633 -0.05321105
000090 5d 81 d3 3c f0 9f b0 bb 87 e1 a2 3c fe 7d 51 3d
       0.025818521 -0.00539016 0.01988293 0.051145546
0000a0 4a b2 35 3d e0 0d aa bb 9c 13 7e 3d 00 f5 05 3c
       0.044359483 -0.0051896423 0.06203042 0.008176088
0000b0 b8 c7 3e 3d f1 40 ce 3c c9 f4 6d 3d 68 8e 25 3c
       0.046577185 0.02517745 0.058094773 0.010104753
0000c0 48 57 03 3c c0 f6 ea ba 27 e2 06 3c a6 80 22 bd
       0.008016415 -0.001792632 0.00823263 -0.03967347
0000d0 f4 15 80 3d c7 67 05 bd cc e3 09 3d 14 76 95 bc
       0.06254187 -0.032569673 0.03366451 -0.01824478
0000e0 e8 f5 6a 3d 1a 3e 2c 3d fc 81 1e 3d dd 15 2d bd
       0.05736342 0.042051412 0.03869818 -0.04225718
0000f0 0b a3 58 3d f0 64 ab 3c 4c 52 1c 3c 69 93 70 3d
       0.052889865 0.020922154 0.0095411055 0.05873433
000100 96 7a 94 3c 44 06 22 3d 80 63 dd bb 05 7a e9 bc
       0.01812486 0.039556757 -0.006756246 -0.028500566
000110 04 ed d0 3c ce e3 31 3d 87 c6 6b bd a3 80 15 bd
       0.025503643 0.043430142 -0.057562377 -0.03649963
000120 c0 4c 84 bb af 25 12 bd e9 13 36 bd 00 2e c9 3c
       -0.0040374696 -0.03568047 -0.04445258 0.024558067
000130 9a 65 7a 3d a1 30 e9 bb 7d aa 22 bd cc d7 c0 3c
       0.06113205 -0.0071163927 -0.03971337 0.0235404
000140 20 44 14 3b 54 21 1b 3d 88 b3 66 bc a6 ba 39 3d
       0.0022623613 0.03787358 -0.0140808895 0.045344017
000150 38 c6 25 3c 7c 12 3f bd f0 a8 47 bc f4 0e a7 bc
       0.01011806 -0.046648487 -0.012186274 -0.020392872
000160 74 74 df 3c 47 f3 0f 3d 31 2c 0c 3d 58 cd 52 3d
       0.027277209 0.035144117 0.03422183 0.051465362
000170 45 72 85 bc b4 19 be 3c 78 4c d4 bc 25 5c d6 3c
       -0.01628984 0.023205616 -0.02591537 0.026166985
000180 07 cb a3 3c 2c 65 3a 3d 89 65 31 3d 09 1e 1b bd
       0.019994272 0.04550664 0.043309722 -0.03787044
000190 b8 8c 83 bc 54 a0 d5 bc ca 70 61 3d e7 88 5c 3d
       -0.01605831 -0.026077427 0.055039205 0.053841498
0001a0 d8 26 51 bd 00 9e 75 3a 34 f7 cf bc 11 4a 2d 3c
       -0.051062435 0.0009369552 -0.02538643 0.010576741
0001b0 2c 54 04 bd fd d7 fc bb d0 85 68 3d 4a 6f c0 bc
       -0.032306835 -0.0077161775 0.05676824 -0.023490567
0001c0 69 a4 d1 ba c8 25 1f 3c 63 f0 b4 3c e0 71 24 bd
       -0.0015994433 0.009713598 0.022087282 -0.040147662
0001d0 da b0 11 3d 67 68 62 3d bd 6d 18 3d b3 72 1d bb
       0.03556905 0.055275347 0.03721403 -0.0024024665
0001e0 ef 3a 4e 3c 0d 58 09 3d 54 e2 36 ba 09 dc 32 3d
       0.012587293 0.033531237 -0.00069764745 0.043666873
0001f0 6d 8b 10 3d 79 23 53 3c 38 b2 c8 bc 1d fa b3 3c
       0.035289217 0.012886875 -0.024499044 0.02196985
000200 cc 3f 73 3d d9 28 d7 bb 90 91 39 3b 8b 76 ba bc
       0.059387013 -0.0065661487 0.0028315522 -0.022761604
000210 a4 5e 21 3d 17 4f 94 3c c2 ff 54 bd 87 5b 6a bd
       0.039396897 0.01810412 -0.052001722 -0.057216194
000220 cb f4 01 bd af d0 1e bd 03 ec 39 3d 1c ea e3 3c
       -0.031727593 -0.038773235 0.045391094 0.027821593
000230 4e 07 5d bc c8 ee 8c 3c 81 6c 9f 3c 98 88 01 3c
       -0.013490511 0.017203704 0.019460918 0.007906102
000240 bb 66 1e bd a1 88 4a bc 8a de 6d 3d 2c 45 af 3c
       -0.03867219 -0.012361676 0.058073558 0.021395288
000250 b0 52 85 3d 3c 96 09 3d cc fe 4e bd 1e 06 51 3d
       0.06509912 0.03359054 -0.050535962 0.051031224
000260 30 2f 61 bd 18 62 7f bd 37 dd 29 bd 25 69 a1 3b
       -0.054976642 -0.06234941 -0.041470733 0.0049258643
000270 9a 21 b6 3b c0 de cb bb 3a 2d 4c bd 9f 16 23 bd
       0.005558205 -0.006221622 -0.04984782 -0.039816495
000280 e8 3d 75 bc 03 4c 74 bb f9 b3 0d bc d0 e0 43 bd
       -0.014968373 -0.0037276752 -0.008648866 -0.04782182
000290 85 09 2d 3d a9 9e 0e bd 7e 42 d9 bc 28 29 e9 3c
       0.042245407 -0.03481928 -0.026520964 0.028462008
0002a0 da e2 49 bc d8 44 75 3c 76 d4 25 3d 60 5e b0 3b
       -0.012322152 0.014970027 0.04048582 0.005382344
0002b0 f6 21 16 bd 1a e4 c8 3c 78 fb 33 bd 77 a3 c3 bc
       -0.03665348 0.02452283 -0.04394099 -0.023881657
0002c0 18 7d 76 bc 52 d3 f4 3b b6 d7 53 3c 59 71 fe bb
       -0.015044473 0.0074714804 0.012929847 -0.007764977
0002d0 f2 2a 5b bd a4 96 87 3c 5f 9c c2 bc 48 e2 39 3c
       -0.053507753 0.016551323 -0.023756204 0.011345454
0002e0 2e 79 2a 3c b2 6d 01 3d b9 7a 22 3d 3c 7d 9e 3b
       0.010404868 0.031598754 0.03966782 0.0048367064
0002f0 54 40 06 3d 70 36 54 bd 8c 41 50 ba 24 74 c7 bc
       0.03277619 -0.05180973 -0.00079443376 -0.024347372
000300 02 a0 00 3d f2 eb ff bc 8d 96 0f bd 5d 2a 59 bd
       0.031402595 -0.031240437 -0.035055686 -0.053018916
000310 74 64 30 bc 15 e4 f4 bc d8 e2 e9 3c 26 b3 29 bc
       -0.010766137 -0.029893914 0.02855055 -0.010357654
000320 93 b5 c0 bc f4 b5 69 bd 48 08 1b 3d 80 98 78 bb
       -0.023524081 -0.05705829 0.037849694 -0.0037932694
000330 70 ab 57 bb 58 aa a6 3c 19 6b 82 bc e1 c8 66 3d
       -0.0032908581 0.020344898 -0.015920209 0.056343917
000340 3b 5d 5a 3d 94 88 17 bd b9 73 74 bd 1e 9e 7f 3d
       0.053311568 -0.036995485 -0.059680674 0.06240665
000350 70 0f c9 bc 38 1f f3 3c 4c dd bb bc 98 52 83 bb
       -0.024543494 0.029677972 -0.022932671 -0.0040076487
000360 22 44 c0 bc 0c 9e a4 3c 27 23 d1 3c b0 03 34 bd
       -0.023469988 0.020094894 0.025529457 -0.04394883
000370 d9 30 87 bb 42 8d 0b 3d b2 bb c4 3b 38 1a 56 bc
       -0.004125696 0.03407026 0.0060038203 -0.0130677745
000380 8c c3 79 3d 09 f5 c0 3c 08 d7 39 3d 49 37 77 bc
       0.060977504 0.023554342 0.045371085 -0.015088865
000390 9a d6 56 3d b0 74 af 3c 16 7d 19 3c e8 7b 79 3d
       0.052450754 0.021417946 0.009368202 0.06090918
0003a0 20 72 e4 bb d1 15 5e 3d ba fd 9a bc a0 ba 51 bb
       -0.0069716126 0.054220024 -0.018919814 -0.0032002106
0003b0 f6 4e 31 bd ce 39 dd ba c0 c2 f2 3b be d4 ff bc
       -0.043288194 -0.0016878189 0.00740847 -0.031229373
0003c0 02 b4 b2 bc f9 54 3f 3d 7e af 1a 3d 17 0d c8 3c
       -0.02181435 0.046711896 0.03776502 0.024420304
0003d0 f8 43 8e bc 72 ad 69 3d 52 9d 0a bd 52 d9 48 3d
       -0.017366394 0.057050176 -0.03384144 0.049035378
0003e0 60 e0 0a 3d f0 d3 10 3d 5c 58 e8 3c 2e 5b 78 3d
       0.033905387 0.03535837 0.028362446 0.06063383
0003f0 8a 3f 6c 3d ac cd 04 3d 36 32 40 bd c0 29 71 bb
       0.057677783 0.032422706 -0.046922885 -0.0036798567

fc2.bias f4 [9]
000000 75 7a 1a bd 65 9f d4 3c fc e4 a6 3c 70 a3 68 bc
       -0.03771444 0.025954911 0.02037286 -0.014199123
000010 58 24 5c 3d 44 e4 df 3c ad 67 6e 3d 8c 38 aa 3c
       0.053745598 0.027330525 0.05820434 0.020778917
000020 f4 04 2e bd
       -0.042485192
