checkpoints/pacman_ram/40.pt (torch_old, 142093 bytes, 4 tensors)

fc1.weight f4 [256, 128]
00000000: 281f a7bd d5e5 ef3b 00e1 acbd 0209 90bd
00000010: dd47 143c e762 7fbd f5fe ae3d 0a04 013d
00000020: 98a3 bd3c 4a16 623d ec48 7dbb 3fec 0dbc
00000030: c4d1 2d3d fb75 4cbd 2882 7fbc aa61 653c
00000040: d497 be3c 80b3 e6bc 5b2a 59bd ceef 6cbb
00000050: f623 1f3d daa0 2dbd 5141 a6bd d46f 1dbd
00000060: 685d 94bc 4cc4 d43a 5328 513c 06d4 a9bd
00000070: 2dc0 923b dcd1 59bd c06d a43d a386 d73c
00000080: 3cea d13c 331e 0cbd 86fb 9cbd 510d 3fbd
00000090: 1029 6cbd 6d4f 443d f01f 9ebc 32a0 55bd
000000a0: 9fc0 a2bd 3b8c 74bd 50dd a23d a1de b4bd
000000b0: 0aef 99bc 5889 91bd e05d 9fbd 930a f2bc
000000c0: d7ee 8c3c a476 a2bd 447b fcbb 07d7 0ebd
000000d0: de4e bf3d 0f52 ad3b 6f09 1e3b 01fa 103c
000000e0: 6c67 a33c 409b 9e3a 4501 793d 87d7 8f3d
000000f0: 23a1 243d 62d9 10bb 14ad f93c 3616 793d
00000100: 7c10 e33c a384 5dbd feeb 88bd e478 a43d
00000110: 3812 62bd 76ae 4739 2613 ad3c 6393 f93c
00000120: 2e0e cabc c3ff 5ebc 8a1d 96bc 50af af3c
00000130: 8d93 803d 9ab6 0b3d bc74 b13a 9b8c 04bb
00000140: 35c8 a43d 6efa 953d fa05 62bd acb3 9bbc
00000150: 4722 cc3c d99d 9cbd 5df2 9bbd 2787 8b3d
00000160: 43cc 563d 8fed 653d 9081 94bc a740 a5bd
00000170: 912d 65bd 95ab 993d 2156 1cbd 05c4 ab3d
00000180: fc3d 7b3d b795 583c a327 013d d7ed 65bd
00000190: 88ff 3cbc cedb 27bd ff86 aa3d 35f4 ab3d
000001a0: c8b4 a8bd 4091 fcbc d3c1 803d 2622 95bc
000001b0: ece7 7d3d 9d98 e23c 897c fe3c fcab ad3c
000001c0: 3de7 37bd a685 6dbd 192e 523d 2a5e 72bd
000001d0: 3860 a83d 31a4 f33c fe6f ce3c 7c48 6abd
000001e0: 82fc d23c 198b a83c 2021 cf3b 4d74 17bd
000001f0: 2f32 843d 55fb 5fbc 1f51 ab3d 97aa 963d
00000200: c70c 843d e192 cb3c 600a 83bd 03da ba3c
00000210: da0b 8e3d c6e5 2c3d ddc8 2dbc 54e8 3a3c
00000220: 1bda 88bd 4b69 20bd 7265 9c3d 70dc 93bd
00000230: ce1d 453d 4d12 173c abfb 913d 168b 59bd
00000240: bbf3 9a3b 09e2 9f3c c42a a8bc 24e1 d23a
00000250: 982a 8cbc 191d 36bd 9ca7 6e3d 2c73 e83c
00000260: 11e3 29bd 59ee 00bd ae3b c3bc fb45 69bd
00000270: 0910 b4bd 616a 613d f987 7b3d 67e0 c23c
00000280: fbf7 523d 1339 acbd 50b4 1dbd 9b4e c7bc
00000290: e994 2e3b d8d0 86bd 9c20 403d 10b0 a6bd
000002a0: 5eb4 363d 4dcd ab3d f9b1 8dbd 9c1a 203d
000002b0: 4c94 803d eb3f 4f3d a476 b43c 31de 183b
000002c0: 7f26 70bd 2aed 9939 bb0d 37bc 57c3 5d3c
000002d0: 370f 073d 527c 5f3c 250d 3cbd 6046 533d
000002e0: 19ea 5b3d 0466 f9bc c2d6 9bbd 1da4 ab3d
000002f0: 9d34 cc3c 2ac6 f0bc 70ad 0d3d db3b 793c
00000300: 7395 583d 4fb5 dabc 111a 823b 0cbf 443d
00000310: 9aa5 ac3c c244 aebb 6069 d9ba 6668 c13c
00000320: 0617 6abd 4741 9d3d 8e8b 85bd 90ea ae3b
00000330: bded 58bd 1ae4 c0bc 7880 143d c2a9 feba
00000340: fb3c 9bbd 5d80 943d 5c11 a33d 90d9 00ba
00000350: 4664 113d 1026 cd3c d63f 983d c01d 25bd
00000360: f430 123d 320a 9ebd 199b 9ebc 0762 afbd
00000370: f17d 44bd 3c7e 7c3d e35d 003d f451 27bd
00000380: 3c9a 9f3d 21c3 203d f6a9 a0bd eea3 84bd
00000390: b914 a6bd 7878 89bd 9431 1e3d 60fc 50bd
000003a0: 1169 8c3c 58c1 00bd 25e6 0f3c 26c5 36bd
000003b0: 9816 5a3d 0b21 89bd bd6d a5bd 67b2 8f3c
000003c0: 3ed3 eabb 02d3 ac3d 06b0 a1bd 82fd 49bd
000003d0: 96c3 11bc f022 2e3c 33a1 a73d f24e c83c
000003e0: 1c28 a5bd 5a7d 9a3d c0e5 a0ba e584 14bc
000003f0: e372 28bd 6b2d a9bd b02a 8bbd 4c12 983c
-0.081602395 0.0073210993 -0.08441353 -0.07032968 0.009050337 -0.06235018 0.08544723 0.031497993
0.023149297 0.055197038 -0.00386482 -0.0086622825 0.042436376 -0.049917202 -0.0155949965 0.014000336
0.023265757 -0.028161764 -0.05301891 -0.0036153677 0.038852654 -0.042389728 -0.08117927 -0.038436726
-0.018110946 0.0016232817 0.012765962 -0.082923934 0.0044784755 -0.053178653 0.08028746 0.026309317
0.025624387 -0.034208488 -0.07665162 -0.04664356 -0.057656348 0.04792731 -0.019302338 -0.052154727
-0.07946896 -0.059704047 0.07952368 -0.088315256 -0.01879074 -0.07106274 -0.07781577 -0.029546058
0.017203731 -0.07932785 -0.007705124 -0.034873035 0.093412146 0.005289323 0.002411451 0.008848668
0.019946776 0.0012100711 0.060792226 0.070235305 0.040192734 -0.0022102227 0.030478038 0.060812198
0.027717821 -0.05408157 -0.06685637 0.080308706 -0.055193156 0.0001904311 0.021127295 0.030465787
-0.024664965 -0.013610783 -0.018324632 0.0214459 0.06278143 0.03410969 0.0013538818 -0.002022541
0.08045999 0.07323156 -0.05518148 -0.019006573 0.024918688 -0.076472946 -0.076145865 0.06812888
0.052440893 0.056134757 -0.018128186 -0.08068972 -0.05595166 0.0750343 -0.038168076 0.08386997
0.06133841 0.013219289 0.03153194 -0.056135025 -0.011535533 -0.040981106 0.0832653 0.08396188
-0.08237606 -0.03083098 0.06286969 -0.01820476 0.061988756 0.027660662 0.031065242 0.021200173
-0.04489826 -0.057988785 0.051313493 -0.059171833 0.08221477 0.029741379 0.025199886 -0.057198033
0.02575517 0.02057414 0.0063210875 -0.036976147 0.06454884 -0.013670762 0.08365082 0.07356756
0.064477496 0.02485031 -0.06398463 0.022809034 0.06935854 0.042211317 -0.010606972 0.01140793
-0.06682225 -0.039162915 0.07636537 -0.072197795 0.048124127 0.009220672 0.0712808 -0.05311116
0.004728762 0.019516962 -0.020528205 0.0016088826 -0.017110154 -0.044461343 0.058265314 0.02837523
-0.041476313 -0.031477306 -0.023832168 -0.056951504 -0.08792121 0.05503309 0.06140897 0.023788644
0.051506024 -0.084093235 -0.038502038 -0.024329474 0.002663905 -0.065828025 0.0469061 -0.0813905
0.044605605 0.083887674 -0.06918711 0.039087877 0.062782854 0.050598066 0.022029229 0.0023325796
-0.058630463 0.00029359135 -0.011172707 0.013535342 0.032973494 0.01364048 -0.045910973 0.051580787
0.05369005 -0.030444153 -0.07609321 0.083809115 0.024927432 -0.029391367 0.03458923 0.015212025
0.0528769 -0.026697783 0.0039703925 0.04803376 0.021075059 -0.005318255 -0.001658719 0.023609351
-0.057150863 0.07678466 -0.065207586 0.0053380206 -0.0529611 -0.023546267 0.03625533 -0.0019429254
-0.075799905 0.07251046 0.079622954 -0.0004915232 0.03549602 0.025042564 0.07434051 -0.040311575
0.035691217 -0.07716788 -0.019361066 -0.08563619 -0.04797167 0.061643824 0.031339537 -0.04084964
0.0779309 0.03924859 -0.078449175 -0.064765796 -0.08109421 -0.06712431 0.0386215 -0.051021934
0.017139943 -0.031434387 0.008782898 -0.04462161 0.053244203 -0.066957556 -0.080775715 0.017541124
-0.0071662953 0.08438684 -0.07894902 -0.04931403 -0.008896729 0.010628447 0.08185043 0.024451707
-0.08064291 0.0754344 -0.0012275502 -0.009064888 -0.04112519 -0.08260616 -0.06795251 0.018563412

fc1.bias f4 [256]
00000000: f30e b53d 3d9c 49bd 9d5e 073d 14e0 2ebd
00000010: 6356 d03c 7d70 adbd ef9d 85bc 4bc3 29bd
00000020: d6f5 0ebd fcd5 a63d ff5b 673d 1f74 1f3b
00000030: 130b 693d 0fe3 353d 47cd a83d 20b5 88bd
00000040: 6f22 c13c 2f2b 2bbd 4515 b43c ed06 0a3d
00000050: 991c 253d 3963 4a3c 0c21 613d 91b8 1e3c
00000060: b3c0 24bd e6ce 11bd 9039 80bc b9fc b43c
00000070: 76e1 413d 1c89 65bc d05a fa3c 9e89 153c
00000080: 3224 b1bd f38e 87bd ee93 883b 1cc5 b5bc
00000090: 9918 2fba 9c6d 953d e5a1 68bd e1fb a73d
000000a0: 21c3 853d c0bf 8b3d 0086 f4bc 9f88 3f3d
000000b0: b5d2 e8bc d662 0a3d 463b 9f3c bdd7 bc3d
000000c0: 0a87 0cbd 1202 bb3b 2883 7c3c 2e48 823c
000000d0: 0229 843d 807a 5aba e4bb 42bd 60db abbd
000000e0: 0ea6 1e3d e66a 263d f32c 923d 52b4 49bd
000000f0: 5e65 85bd 5e9c 253d 9045 58bc 6345 81bd
00000100: 5e4d 8fbd e154 953d ac7e 8f3d 6ca9 b13c
00000110: c9b7 8fbd 1c7c 5bbd b79b 30b9 f509 b3bd
00000120: 07a2 a33d 3bb5 9fbc 5167 26bd 0e0b 7abd
00000130: 3ad3 753d ca22 703d 61f3 8b3d 22d7 1a3d
00000140: 006c b23b f258 91bd 1e0a a3bd 46ae a5bd
00000150: 6090 5abc 3628 603d dc0e 5e3d b15c 293a
00000160: 172f e6bc bc14 8abd 4bff 9dbd 1fd9 843d
00000170: d5a8 ffbc 9c8f 6e3c 6ca1 13bd 0bd8 9a3d
00000180: 8898 993c 664e a3bd 786d bdbc e9c0 adbd
00000190: 56d8 55bd 0391 953d 7313 80bd 1107 e1bc
000001a0: e136 adbd 0a65 bfbc 38ff 513d 660d e9bc
000001b0: bc77 d4bc 0451 cdbb 994c a4bd 347a ccbb
000001c0: f97e 893d 0a17 4abd 379c 45bd 5ce5 033d
000001d0: 1df8 d13b fdd5 1dbd c448 24bd 03ed 473c
000001e0: d9ef 613d 1b07 2c3c 90f3 983d a058 7f3b
000001f0: 7442 f4bc e543 463c 026f b9bd 060c 9d3d
00000200: 4d90 853d be66 b7ba 0e99 d73c 9a44 7b3d
00000210: 7d52 12bd ebd5 9e3d 740d 693d d79d 37bd
00000220: 897c 4fbd db07 46bd 108c a3bd f8ab b2bd
00000230: b12f 333d a62f 373d b4e3 9e3d d163 4a3c
00000240: ac5a 8dbc d1d6 26bd 72c1 0fbd ab41 0f3d
00000250: e86c 75bd cf7e 22bd 19ef 193d 87f7 373d
00000260: 166f a73d d766 573c d385 083d 888a f03c
00000270: e360 873d dc7c 423d 62e0 3cbc 4799 c3bc
00000280: 7bae 23bc 7e2b 553d ecbc 6a3d 0109 3d3c
00000290: d735 13bd c39f 3fbc 5284 9dbd 7451 9a3c
000002a0: 8366 8c3d 83a8 d8bc fdd0 2fbd aaef a33d
000002b0: 0aec ac3d d5a4 a63d 1ee5 8bbd 1920 a93d
000002c0: 5fb6 853d 47b7 923d 5bf8 37bc 9086 23bc
000002d0: 3fe1 6c3c 599d 67bd 4a27 853d b6e2 a0bd
000002e0: 9052 983d d62d 3b3d ea36 3abd d20d e2bc
000002f0: 5133 77bd baad 723d 457b 5c3d 2960 d03a
00000300: 7d4d 743d bbf9 9a3d 704e e43c 06b9 f03c
00000310: 8a84 053d e565 23bd 4185 03bd 3d5f 3b3d
00000320: 043f 483d 8097 a73c 4637 e03b 0354 4b3d
00000330: 1c7c a6bd 0047 573d 2a95 66bd 3128 47bd
00000340: 2e4b 90bd 3e3f 083d 1a96 a8bd 2047 ca3b
00000350: 28d0 a13c 459c 98bc f806 fb3c b573 113d
00000360: 781f 90bd 5460 38bd 441f f0bb ba63 a93d
00000370: 2586 b73c fc21 2ebd 961f 25bd d7f4 b53c
00000380: 9156 8fbd edde 6d3c 282f 87bd 2608 df3c
00000390: 6d58 5c3c 551b 00bd eeef 3ebd 2eb9 843c
000003a0: 010a 133d c172 9c3d d22b 283d cde5 913d
000003b0: dba7 5fbc 6fc2 eb3b 6524 ef3c ef1a 3a3d
000003c0: e683 133d 13d1 d6bc feb2 e63c 8813 0ebd
000003d0: 7ca4 92bd 0167 793c 75a6 8abd 9f6b 6cbd
000003e0: 8593 86bd a0c5 b0bd 988f 57bd c79a 7e3d
000003f0: 013b 4d3c 601f fd3b c7c5 8abd 2bd5 dcbc
0.08840742 -0.049221266 0.033049215 -0.042694166 0.025431817 -0.08468721 -0.01631066 -0.04144601
-0.034902416 0.08146283 0.05648422 0.0024330688 0.056895327 0.044405993 0.082422785 -0.06675172
0.02357599 -0.04178923 0.021982798 0.03369801 0.040310476 0.012352758 0.054963157 0.009687559
-0.040222835 -0.035597704 -0.015652448 0.022093164 0.047334157 -0.01400974 0.03056088 0.009127049
-0.08649482 -0.06619062 0.004168025 -0.022188716 -0.00066793856 0.07296297 -0.05679502 0.08202339
0.065313585 0.06823683 -0.029849052 0.04676115 -0.028420785 0.033785664 0.019437443 0.09220836
-0.03430847 0.005707034 0.015412129 0.015903559 0.06453134 -0.0008334294 -0.047542468 -0.08391452
0.03873258 0.04062929 0.0713748 -0.049244232 -0.06513475 0.040432326 -0.013200179 -0.063120626
-0.069971785 0.0729158 0.070065826 0.021687232 -0.07017476 -0.053585157 -0.00016842676 -0.087421335
0.07989889 -0.019495597 -0.040625874 -0.0610457 0.060015894 0.058626927 0.0683353 0.037802823
0.0054450035 -0.07097043 -0.07960914 -0.08089881 -0.013340086 0.05472585 0.05421339 0.00064606505
-0.028098626 -0.06742236 -0.07714709 0.06486725 -0.031208435 0.014560606 -0.036042616 0.07560738
0.01874949 -0.07973938 -0.023123488 -0.0848406 -0.052208267 0.073030494 -0.0625371 -0.02746919
-0.08457733 -0.023363609 0.051268786 -0.028448772 -0.025936 -0.0062657613 -0.08022422 -0.0062401537
0.06713671 -0.049338378 -0.04824468 0.032201156 0.0064077512 -0.038534153 -0.040108457 0.012202504
0.055160377 0.010499741 0.07468331 0.0038962737 -0.029816844 0.012101148 -0.09054376 0.07668309
0.06521664 -0.0013992412 0.0263181 0.06134472 -0.0357232 0.07755645 0.056897596 -0.044828262
-0.050655875 -0.048347335 -0.07985699 -0.08724207 0.043746654 0.044723175 0.07758275 0.0123529
-0.01725515 -0.04073221 -0.035096593 0.034974735 -0.059918314 -0.039671715 0.037581537 0.044913795
0.08175485 0.0131470775 0.03333075 0.029362932 0.066102766 0.047482356 -0.011528106 -0.0238768
-0.00999033 0.05204343 0.057309076 0.011537791 -0.035940018 -0.011695805 -0.07691254 0.018837668
0.0685549 -0.02644754 -0.042923916 0.08004697 0.084434584 0.08136908 -0.0683081 0.08258075
0.06528925 0.07163864 -0.011228646 -0.009980813 0.014458 -0.056546543 0.065016344 -0.07855742
0.074376225 0.04569801 -0.045462526 -0.02759448 -0.060351674 0.05924771 0.053828496 0.0015897799
0.05964421 0.075671636 0.027869433 0.029385101 0.032597102 -0.039892096 -0.032109503 0.045745123
0.04888822 0.020457983 0.0068425266 0.049640667 -0.08129141 0.052557945 -0.056294598 -0.048622314
-0.070455894 0.033263437 -0.082317546 0.0061730295 0.019752577 -0.018629203 0.030642971 0.035510737
-0.07037252 -0.04501374 -0.007327946 0.082709745 0.022402832 -0.04251288 -0.040313326 0.022211475
-0.06998933 0.014518482 -0.06600791 0.027225565 0.013448817 -0.031276066 -0.046615534 0.016201582
0.035898212 0.07639075 0.041057415 0.07123909 -0.01365086 0.007194809 0.029192159 0.045435842
0.03601446 -0.026222741 0.028161522 -0.034686595 -0.07160279 0.015222312 -0.067700304 -0.057719823
-0.06571106 -0.08631444 -0.052627176 0.062159326 0.012526275 0.0077246875 -0.06776004 -0.026957115

fc2.weight f4 [9, 256]
00000000: bb64 2fbc 4f28 d2ba 7c0c 2c3d 8070 e4ba
00000010: f837 64bd 3542 543c c0e5 6f3c 2bda 6dbd
00000020: a856 41bc 559e 0e3d e0df 06bd c179 5abd
00000030: 4543 8b3c 8ea4 97bc 28f5 67bd 4427 c6bb
00000040: 849f 9cbc 30ed 3a3d b311 8f3b ec2a 473d
00000050: 96d1 59bd a09a 0e3d 153a 76bc 76f4 09bd
00000060: 3ca7 cb3c d356 50bd f3ee 233d 2942 e8bc
00000070: 95f3 c2bc 66a0 06bd 84de f0bc 173b 613d
00000080: c9fa 17bd 509e 513d 5150 7f3a b239 02bd
00000090: c182 b1bc 9f7d 0abd 2008 febc da9e 34bd
000000a0: accc 35bd 94f7 4fbd 7f4f 343b abc7 893b
000000b0: 8592 57bd ff18 683d ac1d ed3c 85d8 a3bc
000000c0: 3075 e0bb d4a7 f8bc 02f5 5a3d 327c 323d
000000d0: 03d7 aebc e4de 05bd c80e 0ebd 00d1 9939
000000e0: 9486 5bbd 2c1e 86bc 8ac0 0d3d 056d 38bc
000000f0: 7483 3ebd d433 493d 3b99 133a 00c4 233b
00000100: de5c 663d 386f 7bbd 3a5a 3cbd 50b0 bb3c
00000110: 81f3 233d 75a6 a3bc a966 23bc 3d07 883c
00000120: fa9a 09bd 8241 2c3d 8735 6dbd e71d febb
00000130: d0cf a23b 504b 8dbb d864 58bc abc2 09bd
00000140: 8823 0dbc 0d25 08bd 0b94 3f3d d09e bfbc
00000150: 8242 3abd 00fa 66bd ef6f 193d 8243 0fbd
00000160: 6ed9 4e3d 8635 173d 827f f73a 582a 83bc
00000170: 0f79 59bc f0e2 a83b b43b 3b3d 77e1 183d
00000180: 001e 5bbb c882 933c d403 2fbd 4944 803c
00000190: 2b03 abbc a3e7 1abd 9bb5 5d3a 2e3c 2a3d
000001a0: 86ff 8ebc daf7 693c 0ed9 c73b a617 4b3d
000001b0: c37c b2bb e8ee 13bd 6e3f 53bd e5ea 42bd
000001c0: 9b98 443d d996 4a3d a020 33bc b370 4bbd
000001d0: 590f 4f3d f985 8bbc b02b 343c 95db e03a
000001e0: 3e3d 6bbd 97d9 2a3d 9e50 173d e89d ddbc
000001f0: dfa4 5d3d 95f7 34bd 5c34 db3c 7bf5 5b3c
00000200: 4c81 793d 00f9 073d c982 c9bc 45cf 093c
00000210: d54f 5fbd 98ae 2fbc 9eea 193d b6bc 05bc
00000220: 7c70 2dbd a038 f33c 33f1 213d 0584 3c3d
00000230: 1dc5 3dbd 5c60 f5bc f271 09bd 7d2d 69bd
00000240: b8ad f7bc 6528 38bd 190d 4abc 7f63 2b3c
00000250: 3255 33bd 7295 a5bc 8ee0 533d a090 4d3d
00000260: 713b 5d3d 0983 9c3c 45b6 4dbd 3894 193c
00000270: a36d 003d 0cb7 543c 0b95 9bbc 2713 42bd
00000280: 30ff 643d 4cce 523d 0f4a 183d d5ba 0f3d
00000290: 9499 63bc d2af 9dbc d027 083c 72a7 33bd
000002a0: 5207 06bc 5277 40bd 1cb8 083d 67bf a8bc
000002b0: 07b8 36bd 00df 45ba 6512 d33c 823b 0abd
000002c0: a70d 46bc fe7d 623d 9884 5d3d 235a 19bd
000002d0: f28a 32bd 907e 45bd 23c7 503d 51c2 24bd
000002e0: fc05 17bd 50c9 5ebd ee74 22bd 2fcc 82bc
000002f0: 035c c23c 1703 44bc 50ef d43c 4e78 753d
00000300: 07af 2ebd 888b 103d 10fb de3b 2993 74b9
00000310: 6404 1dbd 4ef2 2a3d 3470 c23c 4359 b33b
00000320: 43d6 183d fcba 6cbc 1d8f 0fbd 3879 463d
00000330: 3e7a 463d 53ed a03c 965b 7a3d 2613 0c3c
00000340: b043 80bb d42d 9a3c f473 32bd b894 2dbc
00000350: 442f a2bc 9579 4f3d b823 ea3c fd11 63bd
00000360: cd54 65bd 9143 503d a2ef 88bc 56db 76bd
00000370: c7e3 1cbc e973 42bd 252a 053d 6b8a 003d
00000380: 70d0 d5bb 6859 18bb 16d7 643d 815b b4bc
00000390: 70c7 9f3a 1555 d3bc 2074 7dbc 1eb7 c73c
000003a0: 5c59 c03c e674 cdbc 3b6a 21bd b287 3c3d
000003b0: 7452 efbc 620b c53b 9612 cbbc 3559 563d
000003c0: 69dd 533d 92cf 51bc 4888 453d ea19 8a3c
000003d0: ab12 763d af98 d2bc 701a 473c 840c 6dbb
000003e0: ba2b b93c 4209 f63c b0d1 26bd e22e 50bd
000003f0: 93f4 99bc a002 883b 7396 f0bb 92d6 c3bc
-0.010705168 -0.0016033741 0.042004094 -0.0017428547 -0.05571744 0.012955238 0.014642179 -0.05806939
-0.011800446 0.034818966 -0.032928348 -0.05333877 0.01699985 -0.018511083 -0.056630284 -0.0060471613
-0.019119032 0.045636356 0.0043661236 0.048624918 -0.053178392 0.03481543 -0.015028496 -0.0336804
0.024860017 -0.050864052 0.0400228 -0.02835186 -0.02379779 -0.03286781 -0.029402979 0.054987993
-0.0371044 0.05117637 0.0009739446 -0.031793304 -0.021668794 -0.033811208 -0.031009734 -0.044096805
-0.044384643 -0.05077322 0.0027513204 0.0042047105 -0.052629966 0.056664463 0.028944813 -0.020000705
-0.0068499073 -0.030353464 0.053456314 0.043575473 -0.02134276 -0.03268327 -0.034682065 0.0002933815
-0.05359514 -0.016371809 0.034607448 -0.011256461 -0.046512082 0.049121693 0.0005630438 0.0024988651
0.05624091 -0.061385363 -0.045984484 0.02291122 0.040027145 -0.019976834 -0.009973207 0.016605014
-0.033595063 0.04205466 -0.057912376 -0.0077550295 0.004968621 -0.0043119565 -0.013207637 -0.033632915
-0.008614428 -0.03323846 0.046772044 -0.023391157 -0.045473583 -0.056390762 0.037460264 -0.03497649
0.050500326 0.03691628 0.0018882605 -0.016011402 -0.0132734915 0.005154006 0.045711234 0.037324395
-0.003343463 0.018006697 -0.04272826 0.01565756 -0.020875534 -0.037818562 0.0008457542 0.041561298
-0.017455827 0.014280284 0.006098873 0.0495831 -0.0054470017 -0.03611651 -0.051574163 -0.047587294
0.0479971 0.049460266 -0.010933071 -0.049668025 0.050551746 -0.017031657 0.010996744 0.0017155284
-0.057431452 0.041711416 0.036942117 -0.027052835 0.05411231 -0.044181425 0.026758365 0.013425226
0.060914323 0.03319645 -0.024598496 0.008411233 -0.054519493 -0.010722779 0.037577264 -0.008162668
-0.0423436 0.029690087 0.039536666 0.04602434 -0.04633056 -0.029953174 -0.033555932 -0.056928147
-0.030234203 -0.0449604 -0.012332224 0.010460733 -0.04378242 -0.020212863 0.051727824 0.050186753
0.054011766 0.019105451 -0.050222654 0.009373717 0.031354558 0.012983095 -0.018991968 -0.047381546
0.05590743 0.05146627 0.037180003 0.035090286 -0.013891596 -0.019248877 0.008310273 -0.04386086
-0.008180456 -0.046988793 0.033378705 -0.02059908 -0.044609096 -0.0007548183 0.025765607 -0.033748157
-0.012088216 0.055295937 0.05408153 -0.037439477 -0.04358954 -0.048216403 0.05097116 -0.040224377
-0.03687094 -0.054391205 -0.039662294 -0.015966503 0.023725515 -0.011963627 0.02599302 0.059929185
-0.042647388 0.035289317 0.0068048313 -0.00023324475 -0.038334265 0.041734986 0.023735143 0.0054732873
0.03731371 -0.014448877 -0.035048593 0.048455447 0.048456423 0.019644415 0.0611225 0.008549487
-0.003914319 0.01882068 -0.043567613 -0.010594539 -0.019797929 0.05065306 0.028581485 -0.055437077
-0.055989075 0.050845686 -0.016715828 -0.06026777 -0.009575791 -0.04747382 0.032510895 0.031382006
-0.006525092 -0.002324665 0.055869184 -0.022016289 0.0012190174 -0.025797406 -0.015469581 0.02437931
0.02348011 -0.025080156 -0.03940795 0.046027847 -0.029214121 0.00601332 -0.024789136 0.05233117
0.051724825 -0.012805836 0.04822567 0.01685806 0.060076397 -0.02570757 0.012152299 -0.003617079
0.022603858 0.030033711 -0.040727317 -0.05082596 -0.01879338 0.0041507035 -0.0073421537 -0.023906026

fc2.bias f4 [9]
00000000: 9cb5 85bc c593 afbc 0e12 4fbd 20ff 213c
00000010: 2035 d03b ec36 19bd c80b 5f3d 6a6b 4bbd
00000020: 2b42 663c
-0.01632195 -0.021432767 -0.050554328 0.009887487 0.0063539892 -0.037405893 0.054454595 -0.049662985
0.014053862
