checkpoints/pacman_ram/60.pt (torch_old, 142093 bytes, 4 tensors)

fc1.weight f4 [256, 128]
0	0xbda71f28	-0.081602395
1	0x3c23f063	0.010006043
2	0xbdad5f18	-0.08465403
3	0xbd924190	-0.07141411
4	0x3c5c03b4	0.013428617
5	0xbd78100b	-0.060562175
6	0x3dac6557	0.084177665
7	0x3d045430	0.03230685
8	0x3cc28126	0.023743223
9	0x3d5cd598	0.053914636
10	0xbb1f4f30	-0.0024308674
11	0xbc4c0653	-0.01245268
12	0x3d2b2234	0.041780666
13	0xbd42fd34	-0.047604755
14	0xbc816e60	-0.015799701
15	0x3c3fe523	0.011712345
16	0x3cb1c247	0.021699084
17	0xbcdf0519	-0.02722411
18	0xbd352a9d	-0.044230092
19	0xbb6ac8cd	-0.0035825253
20	0x3d1f23f6	0.038852654
21	0xbd2da0da	-0.042389728
22	0xbd9e4dcd	-0.07729683
23	0xbd1d6fd4	-0.038436726
24	0xbc945d68	-0.018110946
25	0x3b1508f4	0.0022740932
26	0x3c44b895	0.012006898
27	0xbda4cd34	-0.08046952
28	0x3baab2fc	0.005209325
29	0xbd6a6d7e	-0.057233326
30	0x3d9ec426	0.07752256
31	0x3cdf55d2	0.027262602
32	0x3cd22f1a	0.025657225
33	0xbcf84582	-0.030306581
34	0xbda60ae8	-0.08107549
35	0xbd43112f	-0.04762381
36	0xbd6d8bba	-0.05799458
37	0x3d3e0a50	0.046396554
38	0xbcb77e30	-0.022399038
39	0xbd403395	-0.046924192
40	0xbda2c09f	-0.07946896
41	0xbd6b62d7	-0.057467308
42	0x3da49eef	0.08038127
43	0xbdb0ce9b	-0.08633157
44	0xbcb13dd9	-0.021635937
45	0xbd91a216	-0.071109936
46	0xbd9d704a	-0.07687433
47	0xbcf276cb	-0.02959766
48	0x3c8f67a5	0.017505476
49	0xbda5d7c7	-0.08097797
50	0xbc3f0265	-0.011658286
51	0xbd0d40b4	-0.034485534
52	0x3db9d835	0.09074441
53	0x3bae31ca	0.005315994
54	0x3b68654e	0.0035460773
55	0x3c23c05a	0.009994591
56	0x3c85387d	0.016262287
57	0x3a9e9b40	0.0012100711
58	0x3d749078	0.05970809
59	0x3d94ab3a	0.072592214
60	0x3d24d31a	0.040240385
61	0xbb07cf02	-0.0020722752
62	0x3cf9ad14	0.030478038
63	0x3d7935e8	0.060842425
64	0x3ce329e4	0.027729936
65	0xbd53e030	-0.051727474
66	0xbd8506d9	-0.06495447
67	0x3da467b3	0.080275916
68	0xbd61efc9	-0.055160318
69	0x3a6ef8be	0.0009116045
70	0x3cb0107a	0.021492232
71	0x3cfdfcc4	0.031004317
72	0xbccd6794	-0.025073804
73	0xbc57e8ac	-0.013178032
74	0xbc95d8aa	-0.01829179
75	0x3ca7dfe4	0.020492502
76	0x3d832a31	0.06404532
77	0x3d0bd909	0.034142528
78	0x38649a14	5.4502932e-05
79	0x389b6b93	7.411013e-05
80	0x3da4d96f	0.08049285
81	0x3d95a99c	0.07307741
82	0xbd6247bc	-0.055244192
83	0xbc9bdaf3	-0.019025302
84	0x3cdcdc3b	0.026960483
85	0xbd9ada6e	-0.075611934
86	0xbd9be123	-0.07611301
87	0x3d8c0628	0.06837112
88	0x3d563595	0.052297194
89	0x3d651a6e	0.05593341
90	0xbc9414de	-0.018076357
91	0xbda50d46	-0.08059172
92	0xbd65d1a4	-0.056108132
93	0x3d99c1a4	0.07507637
94	0xbd1beeaa	-0.038069405
95	0x3dabc405	0.08386997
96	0x3d7b5ac4	0.061365858
97	0x3c5a1779	0.01331126
98	0x3d007d10	0.03136927
99	0xbd64f743	-0.05589987
100	0xbc3f6ed5	-0.011684139
101	0xbd27b95f	-0.040948268
102	0x3daa983a	0.08329816
103	0x3dac0570	0.083994746
104	0xbda8a38d	-0.0823432
105	0xbce59488	-0.028024927
106	0x3d80d30e	0.062902555
107	0xbc859d77	-0.016310437
108	0x3d7e0a5a	0.06202159
109	0x3ce2791c	0.02764564
110	0x3cfec16a	0.031098086
111	0x3cadf0de	0.021233018
112	0xbd37c4ce	-0.044865422
113	0xbd6d6336	-0.057955943
114	0x3d525088	0.05134633
115	0xbd723bba	-0.05913899
116	0x3da86aeb	0.08223518
117	0x3cfff40c	0.0312443
118	0x3cfc29bf	0.030781625
119	0xbd77e9a8	-0.060525566
120	0x3cf540e9	0.029938178
121	0x3c6fdf3e	0.014640627
122	0x3bcf2120	0.0063210875
123	0xbcf93fc0	-0.030425906
124	0x3d7a744f	0.061146077
125	0xbc5f3fe0	-0.013626069
126	0x3dab287a	0.0835733
127	0x3d96bbd2	0.07360043
128	0x3d840cc7	0.064477496
129	0x3cc1d6f9	0.023662077
130	0xbd83bc75	-0.0643243
131	0x3cb0a1e4	0.02156157
132	0x3d8bc764	0.0682514
133	0x3d22302a	0.039596714
134	0xbc36547c	-0.011128541
135	0x3c254dfd	0.010089395
136	0xbd8b3b1f	-0.06798386
137	0xbd2661b5	-0.040620524
138	0x3d982d02	0.074304596
139	0xbd93dc70	-0.072197795
140	0x3d3e9ad8	0.04653439
141	0x3c13f368	0.009030201
142	0x3d8ec65b	0.06971427
143	0xbd64271a	-0.055701353
144	0x3b39c798	0.0028347727
145	0x3c91c187	0.017792476
146	0xbca9e8ab	-0.020740828
147	0x39b9035c	0.00035288453
148	0xbc8c2a98	-0.017110154
149	0xbd361d19	-0.044461343
150	0x3d7403de	0.059574
151	0x3ce8732c	0.02837523
152	0xbd29e311	-0.041476313
153	0xbd081a89	-0.03322843
154	0xbcd0c658	-0.025485203
155	0xbd69c98c	-0.057076976
156	0xbdb6165a	-0.08890982
157	0x3d5c9795	0.053855497
158	0x3d741ab2	0.05959577
159	0x3cb4c229	0.022065239
160	0x3d4dd2f1	0.050249998
161	0xbdab72fc	-0.08371541
162	0xbd1db450	-0.038502038
163	0xbcd408be	-0.025883075
164	0x3ae81207	0.0017705568
165	0xbd8e3e72	-0.06945504
166	0x3d373a40	0.044733286
167	0xbda98dfc	-0.082790345
168	0x3d36b45e	0.044605605
169	0x3daa8aa1	0.083272226
170	0xbd904c16	-0.07045762
171	0x3d12df46	0.03585746
172	0x3d7dd2aa	0.061968483
173	0x3d49ea8b	0.049295943
174	0x3ca66018	0.020309493
175	0x3ae8338d	0.0017715559
176	0xbd739d27	-0.059476044
177	0xbaa845ff	-0.0012838243
178	0xbc5692ab	-0.013096492
179	0x3c424e0b	0.011859427
180	0x3d05f28f	0.032702025
181	0x3c4affa5	0.012390052
182	0xbd4338c1	-0.047661547
183	0x3d4c738d	0.049914885
184	0x3d5c8316	0.05383595
185	0xbcf96604	-0.030444153
186	0xbd9ecee5	-0.07754306
187	0x3da8f2f6	0.08249466
188	0x3cc17f2a	0.023620207
189	0xbcfba5f2	-0.030718777
190	0x3d0dad70	0.03458923
191	0x3c64a79f	0.01395598
192	0x3d536e8d	0.0516191
193	0xbce567c0	-0.028003573
194	0x3b2f2b22	0.002672859
195	0x3d3eddeb	0.046598356
196	0x3ca25b91	0.019819053
197	0xbbd788b2	-0.0065775746
198	0xbb4803fb	-0.003051995
199	0x3cb6ee40	0.022330403
200	0xbd6f62b2	-0.058443733
201	0x3d9a62ab	0.07538351
202	0xbd881e10	-0.06646359
203	0x3b85b7c3	0.004080744
204	0xbd5ebb76	-0.054377995
205	0xbccb2e23	-0.024802273
206	0x3d0febd6	0.03513702
207	0xbb5fdd5f	-0.0034159047
208	0xbd9dcf7d	-0.07705591
209	0x3d921614	0.07133117
210	0x3da07aa0	0.07835889
211	0xbad11a9f	-0.0015953368
212	0x3d0cb308	0.034350425
213	0x3cc5c5aa	0.024142105
214	0x3d95ad54	0.0730845
215	0xbd29daac	-0.041468307
216	0x3d0d6b6d	0.034526277
217	0xbda0479e	-0.0782616
218	0xbca89d94	-0.020582952
219	0xbdb1bf5c	-0.08679077
220	0xbd48f361	-0.04906023
221	0x3d7780ec	0.060425684
222	0x3cf6c39e	0.030122574
223	0xbd2751f4	-0.04084964
224	0x3d9d1b99	0.076712795
225	0x3d1bc288	0.038027316
226	0xbda24e07	-0.07925039
227	0xbd855f42	-0.065123096
228	0xbda641ef	-0.081180446
229	0xbd8c0afa	-0.06838031
230	0x3d190c8a	0.037365474
231	0xbd56216a	-0.05227796
232	0x3c821f07	0.015883936
233	0xbd045445	-0.03230693
234	0x3bf6a43a	0.0075269016
235	0xbd3b1135	-0.045670707
236	0x3d54f18e	0.051988177
237	0xbd8b03d4	-0.067878395
238	0xbda8003f	-0.08203172
239	0x3c85685e	0.016285118
240	0xbc09fda8	-0.008422293
241	0x3daa4080	0.08313084
242	0xbda44288	-0.08020502
243	0xbd4f228c	-0.050570056
244	0xbc4cdd06	-0.012503868
245	0x3c19c555	0.0093854265
246	0x3da77ae6	0.08177738
247	0x3cb21243	0.021737223
248	0xbda79238	-0.08182186
249	0x3d903d71	0.07042969
250	0xbaa0e5c0	-0.0012275502
251	0xbc2f55f2	-0.010701643
252	0xbd2b16b5	-0.041769702
253	0xbdabc7de	-0.08387731
254	0xbd8dc78e	-0.06922828
255	0x3c8dc843	0.017307406

fc1.bias f4 [256]
0	0x3db52030	0.0884403
1	0xbd4ec147	-0.050477292
2	0x3d07737c	0.03306912
3	0xbd2ee014	-0.042694166
4	0x3ccd3854	0.025051273
5	0xbdaf70dc	-0.08566448
6	0xbc870cdc	-0.016485624
7	0xbd2c6de6	-0.042096995
8	0xbd0ef5d6	-0.034902416
9	0x3da68aa3	0.081319116
10	0x3d6503ea	0.055911936
11	0x3b71a913	0.0036874458
12	0x3d65cd4a	0.056103982
13	0x3d2ccddc	0.04218851
14	0x3da8cd47	0.082422785
15	0xbd89fd1f	-0.06737732
16	0x3cb93f33	0.022613144
17	0xbd2b2b2f	-0.04178923
18	0x3cb30be3	0.021856254
19	0x3d07b09e	0.03312742
20	0x3d207d08	0.03918174
21	0x3c4a4028	0.012344398
22	0x3d5e24e1	0.05423439
23	0x3c0fd3f7	0.008778564
24	0xbd24c0b3	-0.040222835
25	0xbd1532f5	-0.03642555
26	0xbc82abc8	-0.015951052
27	0x3cb8652f	0.022509186
28	0x3d41e176	0.047334157
29	0xbc55d79d	-0.0130518945
30	0x3cfa5ad0	0.03056088
31	0x3c0b7f69	0.008514264
32	0xbdb12432	-0.08649482
33	0xbd87fdf1	-0.06640232
34	0x3b055146	0.0020342632
35	0xbcc104c8	-0.02356185
36	0xb9c13c8a	-0.00036856934
37	0x3d956d9c	0.07296297
38	0xbd68a1e5	-0.05679502
39	0x3da7fbe1	0.08202339
40	0x3d83a808	0.06428534
41	0x3d8a149c	0.06742212
42	0xbcf95b41	-0.030439021
43	0x3d3f9a09	0.04677776
44	0xbce8578f	-0.028362064
45	0x3d076367	0.03305378
46	0x3c9d2e26	0.019187044
47	0x3db88439	0.090095945
48	0xbd0c870a	-0.03430847
49	0x3ba12c79	0.0049186316
50	0x3c7c8328	0.015412129
51	0x3c7fd5a8	0.015614904
52	0x3d850caf	0.0649656
53	0xba5a7a80	-0.0008334294
54	0xbd42bbe4	-0.047542468
55	0xbdabdb60	-0.08391452
56	0x3d1ea60e	0.03873258
57	0x3d266ae6	0.04062929
58	0x3d922cf3	0.0713748
59	0xbd4b96eb	-0.049704473
60	0xbd86c956	-0.065813705
61	0x3d259c5e	0.040432326
62	0xbc57439c	-0.013138678
63	0xbd814563	-0.063120626
64	0xbd8f4d5e	-0.069971785
65	0x3d9554e1	0.0729158
66	0x3d8f7eac	0.070065826
67	0x3cb1a96c	0.021687232
68	0xbd92b3c8	-0.07163197
69	0xbd5e8eb2	-0.054335304
70	0xba30976a	-0.00067364296
71	0xbdb4121f	-0.08792519
72	0x3da3a207	0.07989889
73	0xbca4ff24	-0.020141192
74	0xbd266857	-0.04062685
75	0xbd7ee7f7	-0.062232938
76	0x3d75d33a	0.060015894
77	0x3d7022ca	0.058626927
78	0x3d8bf361	0.0683353
79	0x3d1ad722	0.037802823
80	0x3b4d37a5	0.0031313684
81	0xbd93ab07	-0.07210355
82	0xbda42262	-0.080143705
83	0xbdaa99e5	-0.08330134
84	0xbc5a9060	-0.013340086
85	0x3d602836	0.05472585
86	0x3d5e85de	0.054326884
87	0x3a295cb1	0.00064606505
88	0xbce77732	-0.028255079
89	0xbd8d21bf	-0.06891202
90	0xbd9cd092	-0.07656969
91	0x3d84d91f	0.06486725
92	0xbd0353f6	-0.032062493
93	0x3c6094e7	0.013707376
94	0xbd19b82f	-0.037529167
95	0x3d97382c	0.07383761
96	0x3c999888	0.01874949
97	0xbda34e66	-0.07973938
98	0xbcbd6d78	-0.023123488
99	0xbdae77b4	-0.08518925
100	0xbd528eaa	-0.051405586
101	0x3d94f5f0	0.07273471
102	0xbd847a67	-0.06468659
103	0xbce3be43	-0.027800685
104	0xbdad3757	-0.08457821
105	0xbcc52e97	-0.024070067
106	0x3d4ea0a5	0.05044617
107	0xbce3254d	-0.027727747
108	0xbccb7c16	-0.024839442
109	0xbc0ea3e1	-0.008706064
110	0xbda4d0c1	-0.08047629
111	0xbbcc3204	-0.0062315483
112	0x3d8861cf	0.066592805
113	0xbd4db6cd	-0.05022316
114	0xbd4c30dd	-0.049851287
115	0x3d04a229	0.03238121
116	0x3bd1f81d	0.0064077512
117	0xbd1bb8d3	-0.03801806
118	0xbd2448c4	-0.040108457
119	0x3c47ed03	0.012202504
120	0x3d61efd9	0.055160377
121	0x3c1d6922	0.009607585
122	0x3d973488	0.073830664
123	0x3b7f58a0	0.0038962737
124	0xbcfa7937	-0.030575378
125	0x3c438d51	0.011935548
126	0xbdb96f02	-0.09054376
127	0x3d9cd6c9	0.076581545
128	0x3d85904d	0.06521664
129	0xbaeb844f	-0.0017968508
130	0x3cd1f8aa	0.025631268
131	0x3d7c04d4	0.061528042
132	0xbd140cea	-0.03614513
133	0x3d9ed5eb	0.07755645
134	0x3d671d19	0.056424234
135	0xbd37a836	-0.044838153
136	0xbd503c93	-0.050839018
137	0xbd47c22f	-0.048769172
138	0xbda38e5b	-0.079861365
139	0xbdb3d361	-0.08780552
140	0x3d308df8	0.043104142
141	0x3d372fa6	0.044723175
142	0x3d9ebe52	0.077511445
143	0x3c4c20ec	0.012459021
144	0xbc8d5aac	-0.01725515
145	0xbd28695c	-0.041116104
146	0xbd13b792	-0.03606374
147	0x3d0a39ab	0.033746403
148	0xbd76fb0d	-0.060298014
149	0xbd247094	-0.040146425
150	0x3d1801f9	0.037111256
151	0x3d357dee	0.04430955
152	0x3da6e90d	0.0814992
153	0x3c4fa192	0.012672799
154	0x3d029b8e	0.03188663
155	0x3cf08a88	0.029362932
156	0x3d855fbc	0.065124005
157	0x3d3f2933	0.04667015
158	0xbc459677	-0.012059799
159	0xbcc39947	-0.0238768
160	0xbc2d3a73	-0.010573017
161	0x3d506f1d	0.050887216
162	0x3d6854af	0.056721386
163	0x3c247a25	0.010038887
164	0xbd1335d7	-0.035940018
165	0xbc5e2731	-0.013559149
166	0xbd9d8452	-0.07691254
167	0x3c8feb44	0.017568238
168	0x3d8c6683	0.0685549
169	0xbcd7ff04	-0.026366718
170	0xbd3178e4	-0.04332818
171	0x3da10ecf	0.07864153
172	0x3daa448b	0.08313855
173	0x3da6a4d5	0.08136908
174	0xbd8be51e	-0.0683081
175	0x3da81cf3	0.082086466
176	0x3d859efb	0.06524464
177	0x3d92b747	0.07163864
178	0xbc37f85b	-0.011228646
179	0xbc238690	-0.009980813
180	0x3c592507	0.013253457
181	0xbd679eb9	-0.056547854
182	0x3d837e3b	0.06420561
183	0xbda0e2b6	-0.07855742
184	0x3d94880d	0.07252512
185	0x3d3b2dd6	0.04569801
186	0xbd3ac031	-0.045593444
187	0xbce64511	-0.028109105
188	0xbd7913c0	-0.06080985
189	0x3d6f735e	0.058459632
190	0x3d5c99c3	0.053857576
191	0x3b0bfc54	0.0021360116
192	0x3d727e3c	0.059202418
193	0x3d9af9bb	0.075671636
194	0x3ce44e70	0.027869433
195	0x3cec3885	0.028835544
196	0x3d02175e	0.031760566
197	0xbd2365e5	-0.039892096
198	0xbd038541	-0.032109503
199	0x3d3b3189	0.045701537
200	0x3d4521ed	0.048128057
201	0x3c9a3319	0.018823193
202	0x3bb973f8	0.0056595765
203	0x3d4aa692	0.04947526
204	0xbda67c1c	-0.08129141
205	0x3d54dc62	0.051967986
206	0xbd66952a	-0.056294598
207	0xbd4ab3c9	-0.049487863
208	0xbd904b2e	-0.070455894
209	0x3d043608	0.03227809
210	0xbda92563	-0.08259084
211	0x3bca4720	0.0061730295
212	0x3c9240d7	0.017853184
213	0xbcae44d7	-0.02127306
214	0x3cfb06f8	0.030642971
215	0x3d07ac1c	0.03312312
216	0xbd917a93	-0.07103457
217	0xbd3e5cff	-0.046475407
218	0xbc11a3fd	-0.0088891955
219	0x3da6e7de	0.08149694
220	0x3cb706c0	0.022342086
221	0xbd3291da	-0.043596126
222	0xbd1cf41b	-0.038318735
223	0x3cb7f019	0.022453355
224	0xbd8f5691	-0.06998933
225	0x3c67e5d1	0.014153914
226	0xbd885ea4	-0.06658676
227	0x3cd1ddc4	0.025618441
228	0x3c5c586d	0.013448817
229	0xbd059a22	-0.032617696
230	0xbd3eefee	-0.046615534
231	0x3c622d8b	0.013804804
232	0x3d0e6e1c	0.034772977
233	0x3d9a81e3	0.07544305
234	0x3d291712	0.041281767
235	0x3d91e5cd	0.07123909
236	0xbc5fa7db	-0.01365086
237	0x3be518a6	0.0069914637
238	0x3ce8f150	0.02843538
239	0x3d3ca8ec	0.046059534
240	0x3d126090	0.03573662
241	0xbcdca25d	-0.02693289
242	0x3ce36f8e	0.027763154
243	0xbd0f976c	-0.035056517
244	0xbd9696be	-0.073529705
245	0x3c623cae	0.0138084125
246	0xbd8b986e	-0.06816183
247	0xbd6e4f62	-0.058181174
248	0xbd878001	-0.06616212
249	0xbdb15df9	-0.08660502
250	0xbd578f98	-0.052627176
251	0x3d7addde	0.061246745
252	0x3c4672f9	0.012112373
253	0x3bfd1f60	0.0077246875
254	0xbd8ac5c7	-0.06776004
255	0xbcdf77a3	-0.027278727

fc2.weight f4 [9, 256]
0	0xbc11beb2	-0.008895563
1	0xbab5c850	-0.0013868902
2	0x3d205279	0.039141152
3	0xbae47080	-0.0017428547
4	0xbd5d49cd	-0.05402546
5	0x3c46dd13	0.012137669
6	0x3c84a727	0.016192986
7	0xbd67b9c7	-0.056573655
8	0xbc4156a8	-0.011800446
9	0x3d112f1d	0.03544532
10	0xbd02ab04	-0.031901374
11	0xbd5b3aeb	-0.053522985
12	0x3c85b1ff	0.016320227
13	0xbc9186b2	-0.017764423
14	0xbd67f528	-0.056630284
15	0xbbc63d25	-0.0060497695
16	0xbc9c6e27	-0.019095493
17	0x3d3aed30	0.045636356
18	0x3b870888	0.00412089
19	0x3d39cfe6	0.045364283
20	0xbd562dfd	-0.05228995
21	0x3d107fe0	0.0352782
22	0xbc6d3415	-0.014477749
23	0xbd010e7e	-0.03150796
24	0x3ccba73c	0.024860017
25	0xbd4ed3ed	-0.050495077
26	0x3d21f923	0.039544236
27	0xbce0f1bd	-0.02745902
28	0xbcc2f395	-0.02379779
29	0xbcd21bab	-0.025647959
30	0xbcf0de84	-0.029402979
31	0x3d5c1229	0.053728256
32	0xbd17fac9	-0.0371044
33	0x3d4a2019	0.049347017
34	0x3a9a265d	0.0011760701
35	0xbcfeeffd	-0.031120295
36	0xbcb182c1	-0.021668794
37	0xbd0a7d9f	-0.033811208
38	0xbcfe0820	-0.031009734
39	0xbd349eda	-0.044096805
40	0xbd32cefe	-0.043654434
41	0xbd4e52ce	-0.050371937
42	0x3ae9830c	0.0017815544
43	0x3b89c7ab	0.0042047105
44	0xbd576d94	-0.052594736
45	0x3d63bdaf	0.05560082
46	0x3ce6180c	0.028087638
47	0xbc991108	-0.018684879
48	0xbbe07530	-0.0068499073
49	0xbcf70f13	-0.030158555
50	0x3d5af502	0.053456314
51	0x3d30426c	0.043032095
52	0xbca19f79	-0.019729363
53	0xbd05dee4	-0.03268327
54	0xbd0e0ec8	-0.034682065
55	0x3999d100	0.0002933815
56	0xbd5b8694	-0.05359514
57	0xbc861e2c	-0.016371809
58	0x3d0dc08a	0.034607448
59	0xbc386d05	-0.011256461
60	0xbd3ec20c	-0.046571776
61	0x3d4933d4	0.049121693
62	0x3a80cec8	0.0009827251
63	0x3b23c400	0.0024988651
64	0x3d665cde	0.05624091
65	0xbd7b6f38	-0.061385363
66	0xbd3c5a3a	-0.045984484
67	0x3cbbb050	0.02291122
68	0x3d1c8ecc	0.03822212
69	0xbc9974a4	-0.018732376
70	0xbc134c3b	-0.008990343
71	0x3c8b9723	0.017039841
72	0xbd099afa	-0.033595063
73	0x3d282612	0.04105193
74	0xbd6d353c	-0.057912096
75	0xbc145155	-0.009052594
76	0x3ba2cfd0	0.004968621
77	0xbb8d4b50	-0.0043119565
78	0xbc5864d8	-0.013207637
79	0xbd09c2ab	-0.033632915
80	0xbc031b37	-0.008002094
81	0xbd04eccb	-0.032452386
82	0x3d3e0ccf	0.046398934
83	0xbca2ea64	-0.019887157
84	0xbd3a4282	-0.045473583
85	0xbd66fa00	-0.056390762
86	0x3d1d4b93	0.03840215
87	0xbd0f4382	-0.03497649
88	0x3d4c74cd	0.049916077
89	0x3d0e52bd	0.034746874
90	0x3b37b38c	0.0028030602
91	0xbc832a58	-0.016011402
92	0xbc551b8f	-0.013007059
93	0x3beccb7b	0.007226405
94	0x3d2c1d65	0.04202022
95	0x3d108632	0.03528423
96	0xbb5b1e00	-0.003343463
97	0x3c9382c8	0.018006697
98	0xbd2f03d4	-0.04272826
99	0x3c8c8caf	0.017156927
100	0xbc83262b	-0.01600941
101	0xbd172119	-0.0368968
102	0x3b04cd8b	0.0020264115
103	0x3d24bdfd	0.04022025
104	0xbc9baf60	-0.019004524
105	0x3c696780	0.014245868
106	0x3bd819ea	0.006594886
107	0x3d4dce52	0.05024559
108	0xbb6e9ad6	-0.0036408207
109	0xbd0f3f00	-0.03497219
110	0xbd4b9ef4	-0.049712136
111	0xbd3fb591	-0.046804015
112	0x3d497449	0.049183164
113	0x3d48be15	0.0490094
114	0xbc27ed86	-0.010249501
115	0xbd4bd401	-0.04976273
116	0x3d4f0f59	0.050551746
117	0xbc805a99	-0.0156682
118	0x3c342bb0	0.010996744
119	0x3ae0db95	0.0017155284
120	0xbd6b3d3e	-0.057431452
121	0x3d23edfa	0.040021874
122	0x3d1ab603	0.037771236
123	0xbcdd9de8	-0.027052835
124	0x3d5c363f	0.05376267
125	0xbd3953ac	-0.04524581
126	0x3cdb345c	0.026758365
127	0x3c5f0226	0.013611352
128	0x3d79814c	0.060914323
129	0x3d06c56a	0.032903112
130	0xbcc32e51	-0.023825796
131	0x3c0c48ad	0.008562249
132	0xbd5ec6da	-0.05438886
133	0xbc2fae98	-0.010722779
134	0x3d1cd43c	0.03828834
135	0xbc05c472	-0.008164512
136	0xbd284deb	-0.041089933
137	0x3cefbf4d	0.029266024
138	0x3d21f126	0.039536618
139	0x3d3c53b8	0.045978278
140	0xbd3c1430	-0.04591769
141	0xbcf5605c	-0.029953174
142	0xbd0b5481	-0.034016136
143	0xbd6b0a2f	-0.05738276
144	0xbcf7adb8	-0.030234203
145	0xbd31d58e	-0.043416552
146	0xbc4eafa2	-0.012615116
147	0x3c2b5b4e	0.01045878
148	0xbd2f4694	-0.042791918
149	0xbc9bbe0f	-0.019011525
150	0x3d4eb491	0.05046517
151	0x3d4b7e7d	0.049681176
152	0x3d598d8b	0.0531135
153	0x3c91e3c3	0.0178088
154	0xbd342843	-0.04398371
155	0x3c199438	0.009373717
156	0x3cfa15bf	0.030527947
157	0x3c501449	0.012700149
158	0xbc9c107f	-0.019050835
159	0xbd421327	-0.047381546
160	0x3d6251ad	0.055253673
161	0x3d4f8e1a	0.050672628
162	0x3d16b13f	0.03679013
163	0x3d0bb8b0	0.03411168
164	0xbc639994	-0.013891596
165	0xbc971c2e	-0.018446054
166	0x3c0827d0	0.008310273
167	0xbd3245ef	-0.043523725
168	0xbc060752	-0.008180456
169	0xbd3dc96a	-0.04633466
170	0x3d048931	0.0323574
171	0xbca0150a	-0.019541282
172	0xbd2d169a	-0.042257883
173	0xba45df00	-0.0007548183
174	0x3cd31265	0.025765607
175	0xbd09a384	-0.033603206
176	0xbc373dc5	-0.011184161
177	0x3d627dfe	0.055295937
178	0x3d5d8498	0.05408153
179	0xbd195a23	-0.037439477
180	0xbd2b4740	-0.041815996
181	0xbd457e94	-0.048216417
182	0x3d4f94d2	0.050679035
183	0xbd24c251	-0.040224377
184	0xbd0c2688	-0.034216434
185	0xbd5ec950	-0.054391205
186	0xbd1a219d	-0.037629712
187	0xbc830ced	-0.015997374
188	0x3cd38e9c	0.025824837
189	0xbc3aa473	-0.011391747
190	0x3cd8c3cd	0.026460553
191	0x3d75784e	0.059929185
192	0xbd2c8ecc	-0.04212837
193	0x3d108b88	0.035289317
194	0x3bdefb10	0.0068048313
195	0xba750d23	-0.0009347966
196	0xbd0ed1a8	-0.034867913
197	0x3d2af24e	0.041734986
198	0x3cc27034	0.023735143
199	0x3baf564d	0.005350864
200	0x3d28b32f	0.041186508
201	0xbc6d682f	-0.014490171
202	0xbd0f8699	-0.03504047
203	0x3d45c1ae	0.04828041
204	0x3d467a3e	0.048456423
205	0x3c9e92bb	0.019357076
206	0x3d7a5b96	0.0611225
207	0x3c0c394a	0.008558581
208	0xbb8043b0	-0.003914319
209	0x3c985a0b	0.018597623
210	0xbd2d2d70	-0.04227966
211	0xbc2d94b8	-0.010594539
212	0xbca343af	-0.019929735
213	0x3d4961b2	0.049165435
214	0x3cea23b8	0.028581485
215	0xbd4ce548	-0.050023347
216	0xbd6554cd	-0.055989075
217	0x3d44b8f5	0.04802795
218	0xbc879311	-0.016549619
219	0xbd6a6d58	-0.057233185
220	0xbc22da79	-0.009939783
221	0xbd379e7b	-0.044828873
222	0x3d085a86	0.033289455
223	0x3d002f5f	0.031295177
224	0xbbd5d070	-0.006525092
225	0xbab133c9	-0.0013519461
226	0x3d61e683	0.055151474
227	0xbca40007	-0.020019544
228	0x3a9fc770	0.0012190174
229	0xbcc0bf38	-0.02352868
230	0xbc7d7420	-0.015469581
231	0x3cc8c314	0.024507083
232	0x3cbb989b	0.022899916
233	0xbccf5027	-0.025306774
234	0xbd2da288	-0.04239133
235	0x3d3c87b2	0.046027847
236	0xbcef5274	-0.029214121
237	0x3bc5094c	0.006013071
238	0xbcd074f1	-0.025446387
239	0x3d5658b5	0.05233069
240	0x3d4a9a5b	0.04946361
241	0xbc3f19be	-0.011663852
242	0x3d412d0d	0.047162104
243	0x3c8be1a2	0.017075364
244	0x3d6a39b1	0.057183925
245	0xbccdfa94	-0.025143899
246	0x3c62e21f	0.013847857
247	0xbb2f6b96	-0.0026767007
248	0x3cbc8f49	0.023017542
249	0x3cf6093f	0.030033706
250	0xbd26d1b0	-0.040727317
251	0xbd4e26a3	-0.050329816
252	0xbc97b14d	-0.01851716
253	0x3b8802a0	0.0041507035
254	0xbbf09673	-0.0073421537
255	0xbcc33040	-0.023826718

fc2.bias f4 [9]
0	0xbc84a419	-0.01619153
1	0xbcac3960	-0.021023452
2	0xbd4bea6a	-0.0497841
3	0x3c21ff20	0.009887487
4	0x3bd03520	0.0063539892
5	0xbd179de9	-0.03701583
6	0x3d5ec425	0.054386277
7	0xbd441992	-0.04787595
8	0x3c62db36	0.013846209
