checkpoints/pacman_ram/80.pt (torch_old, 142093 bytes, 4 tensors)

fc1.weight f4 [256, 128]
-0.081602395 0.01140488 -0.08331046 -0.07126975 0.012239303 -0.059631802 0.08343296 0.03464611
0.025987327 0.05252631 -0.002456915 -0.011351186 0.04200925 -0.046394225 -0.014197227 0.009630923
0.022051781 -0.028543696 -0.036093302 -0.0033840996 0.038852654 -0.042389728 -0.0755531 -0.038436726
-0.018110946 0.003151592 0.012277079 -0.079167485 0.0071037514 -0.05861653 0.07795928 0.025937665
0.025855646 -0.027044738 -0.07958067 -0.049323708 -0.06048834 0.047710698 -0.022755183 -0.045651246
-0.07946896 -0.056596242 0.079003036 -0.08580797 -0.026202105 -0.07090626 -0.07819473 -0.029114595
0.017930547 -0.08106695 -0.013088859 -0.033711795 0.09305661 0.0055177417 0.0022476667 0.0063294303
0.019286493 0.0012100711 0.060619026 0.07247022 0.039028484 -0.0028638202 0.030478038 0.061086535
0.02793572 -0.051615816 -0.06292727 0.08004638 -0.054961875 0.002196421 0.02132009 0.032722086
-0.024109889 -0.012274497 -0.018093374 0.020948224 0.06417065 0.03434097 0.0003068461 0.00083865796
0.08069124 0.07332609 -0.055305015 -0.01872908 0.028357869 -0.07457056 -0.075914614 0.068947926
0.05272357 0.055959713 -0.01801071 -0.07933936 -0.056256846 0.075288124 -0.037711896 0.08386997
0.06156261 0.013631213 0.031565238 -0.054550987 -0.012138254 -0.04074982 0.083496556 0.08419314
-0.082144804 -0.027658936 0.06310095 -0.015702829 0.062220037 0.02758152 0.03129652 0.021431437
-0.04466698 -0.057757504 0.051544774 -0.058940552 0.07973046 0.0312984 0.03399176 -0.06257049
0.030780528 0.014636409 0.0063210875 -0.026415173 0.059838526 -0.013406557 0.08367952 0.07379882
0.064477496 0.024077114 -0.06428211 0.021277336 0.06754445 0.03962057 -0.010590161 0.009382179
-0.06897873 -0.041715607 0.07315313 -0.072197795 0.046093985 0.008801534 0.06981348 -0.056671124
0.002417222 0.017792476 -0.02047552 6.1035113e-05 -0.017110154 -0.044461343 0.05611818 0.02837523
-0.041476313 -0.033513006 -0.025961043 -0.05730396 -0.08969879 0.053391933 0.059429057 0.022065239
0.04995814 -0.083151065 -0.038502038 -0.02628348 0.0008006985 -0.07042141 0.0440409 -0.08418616
0.044605605 0.08284892 -0.07093903 0.03566429 0.061395053 0.04899428 0.020309493 0.0017737326
-0.059763763 -0.001543953 -0.0134303095 0.012181062 0.032718066 0.012096865 -0.047661547 0.048226718
0.05374155 -0.030444153 -0.078774646 0.08219873 0.023316206 -0.03102739 0.03458923 0.013664122
0.051326834 -0.02829756 0.0023710446 0.04628966 0.0195272 -0.006870247 -0.0033515845 0.02202862
-0.05874615 0.07496526 -0.06675542 0.0037886642 -0.05482419 -0.025094125 0.034833368 -0.003920198
-0.07734774 0.07102982 0.07806527 -0.0018872104 0.034184396 0.02394679 0.07279267 -0.041778415
0.034240995 -0.07871965 -0.021038728 -0.087263 -0.049737286 0.06011937 0.029820789 -0.04084964
0.07640653 0.03775698 -0.07998081 -0.06507025 -0.080572486 -0.06867214 0.037073616 -0.052569818
0.01559208 -0.0321987 0.0072350516 -0.04582132 0.05169632 -0.06827859 -0.08232355 0.01599327
-0.008714143 0.082839005 -0.080496855 -0.050861914 -0.010517765 0.008960685 0.08181185 0.021109639
-0.080921456 0.07110411 -0.0012275502 -0.010569123 -0.041762285 -0.084188096 -0.06953384 0.017015554
00000000: 281f a7bd 89db 3a3c ad9e aabd e0f5 91bd
00000010: 5c87 483c 7a40 74bd e6de aa3d 14e9 0d3d
00000020: 60e3 d43c d425 573d 3204 21bb 53fa 39bc
00000030: e411 2c3d df07 3ebd 7c9b 68bc 05cb 1d3c
00000040: f0a5 b43c 78d4 e9bc 92d6 13bd c5c7 5dbb
00000050: f623 1f3d daa0 2dbd 95bb 9abd d46f 1dbd
00000060: 685d 94bc f18a 4e3b cd25 493c 9022 a2bd
00000070: 96c6 e83b e317 70bd 1da9 9f3d 3a7b d43c
00000080: 38cf d33c ed8c ddbc 31fb a2bd a807 4abd
00000090: 9fc2 77bd 4b6c 433d 1469 babc cdfc 3abd
000000a0: 9fc0 a2bd 76d1 67bd 58cc a13d 17bc afbd
000000b0: cca5 d6bc 4d37 91bd 8f24 a0bd bb81 eebc
000000c0: 15e3 923c 6e06 a6bd a772 56bc 6115 0abd
000000d0: 7794 be3d 2cce b43b 974d 133b 1c67 cf3b
000000e0: b5fe 9d3c 409b 9e3a a84b 783d 446b 943d
000000f0: 55dc 1f3d eeae 3bbb 14ad f93c e035 7a3d
00000100: 73d9 e43c 1b6b 53bd 03e0 80bd 5bef a33d
00000110: b41f 61bd d4f1 0f3b 78a7 ae3c 9807 063d
00000120: 1a82 c5bc f91a 49bc 8e38 94bc 9c9b ab3c
00000130: e76b 833d 1ea9 0c3d 30e0 a039 62d9 5b3a
00000140: 7341 a53d fd2b 963d 8387 62bd ba6d 99bc
00000150: c34e e83c 73b8 98bd 1f79 9bbd 9234 8d3d
00000160: acf4 573d 0336 653d 328b 93bc ad7c a2bd
00000170: 946d 66bd a930 9a3d ca77 1abd 05c4 ab3d
00000180: 1329 7c3d 7455 5f3c 8d4a 013d db70 5fbd
00000190: 87df 46bc 49e9 26bd 3e00 ab3d 746d ac3d
000001a0: 893b a8bd fe94 e2bc 123b 813d 38a3 80bc
000001b0: 70da 7e3d a4f2 e13c c830 003d fb90 af3c
000001c0: b9f4 36bd 2293 6cbd 9d20 533d a66b 71bd
000001d0: b949 a33d c032 003d f23a 0b3d f524 80bd
000001e0: 7227 fc3c 8ccd 6f3c 2021 cf3b a264 d8bc
000001f0: 3e19 753d 2da7 5bbc 2b60 ab3d d623 973d
00000200: c70c 843d 5e3d c53c 57a6 83bd cf4d ae3c
00000210: bf54 8a3d 2e49 223d 5b82 2dbc b6b7 193c
00000220: b844 8dbd fcdd 2abd 4fd1 953d 70dc 93bd
00000230: 0ccd 3c3d 4f34 103c 5ffa 8e3d fb1f 68bd
00000240: 416a 1e3b 87c1 913c 47bc a7bc f4ff 7f38
00000250: 982a 8cbc 191d 36bd 2ddc 653d 2c73 e83c
00000260: 11e3 29bd ef44 09bd 41ac d4bc 8fb7 6abd
00000270: 00b4 b7bd 80b1 5a3d e26b 733d 29c2 b43c
00000280: e8a0 4c3d 1b4b aabd 50b4 1dbd 7450 d7bc
00000290: f7e5 513a 1a39 90bd 3b64 343d cb69 acbd
000002a0: 5eb4 363d b2ac a93d 7b48 91bd b814 123d
000002b0: 6179 7b3d 3aae 483d 1860 a63c 977c e83a
000002c0: d9ca 74bd 775e caba cd0a 5cbc 1493 473c
000002d0: 6103 063d ee31 463c c138 43bd 6189 453d
000002e0: 1920 5c3d 0466 f9bc 9a54 a1bd cf57 a83d
000002f0: a101 bf3c 272d febc 70ad 0d3d 7bdf 5f3c
00000300: 163c 523d 49d0 e7bc 8763 1b3b 3a9a 3d3d
00000310: 82f7 9f3c cf1f e1bb 42a6 5bbb 5d75 b43c
00000320: ce9f 70bd 6387 993d 11b7 88bd 3d4b 783b
00000330: 548f 60bd 3292 cdbc 6fad 0e3d 0175 80bb
00000340: 7e68 9ebd 1578 913d afe0 9f3d 465c f7ba
00000350: f004 0c3d 0f2c c43c 5314 953d d81f 2bbd
00000360: 4940 0c3d c537 a1bd 6959 acbc f2b6 b2bd
00000370: 53b9 4bbd bb3f 763d ba4a f43c f451 27bd
00000380: 077b 9c3d 10a7 1a3d fbcc a3bd 8d43 85bd
00000390: 3003 a5bd fba3 8cbd 81da 173d 7353 57bd
000003a0: ec75 7f3c c9e2 03bd 0314 ed3b 23af 3bbd
000003b0: 85bf 533d a5d5 8bbd 4099 a8bd 5104 833c
000003c0: c4c5 0ebc 7fa7 a93d 89db a4bd 9554 50bd
000003d0: b452 2cbc d6cf 123c f98c a73d 1fee ac3c
000003e0: 26ba a5bd 089f 913d c0e5 a0ba 1d2a 2dbc
000003f0: ee0e 2bbd cf6a acbd c267 8ebd 3464 8b3c

fc1.bias f4 [256]
0.08863869 -0.050769147 0.032955907 -0.042694166 0.024747096 -0.086593136 -0.016733157 -0.041800223
-0.034902416 0.08109982 0.05535093 0.0048601665 0.05654789 0.042466223 0.082422785 -0.06772079
0.024003461 -0.04178923 0.021859854 0.032437705 0.038385123 0.011990246 0.054237932 0.009277587
-0.040222835 -0.037098587 -0.016662037 0.023108698 0.047334157 -0.018620221 0.03056088 0.008256996
-0.08649482 -0.06674493 -0.00045040785 -0.024243971 0.0007981329 0.07296297 -0.05679502 0.08202339
0.06360413 0.067421846 -0.030595958 0.046340913 -0.028148603 0.03229164 0.018776216 0.088963985
-0.045214497 0.0044045416 0.015412129 0.015547431 0.06335778 -0.0008334294 -0.047542468 -0.08391452
0.03873258 0.04062929 0.0713748 -0.049704473 -0.06607542 0.040432326 -0.014563195 -0.063120626
-0.069971785 0.0729158 0.070065826 0.021687232 -0.07185821 -0.054195274 -0.000482765 -0.08895998
0.07989889 -0.019007308 -0.04062685 -0.06302552 0.060015894 0.058626927 0.0683353 0.037802823
0.0025880325 -0.07244095 -0.07858398 -0.083155826 -0.013340086 0.05472585 0.053856034 0.00064606505
-0.028815705 -0.06934521 -0.077440284 0.06486725 -0.032733608 0.012901053 -0.037354365 0.07288973
0.01874949 -0.07973938 -0.023123488 -0.08524205 -0.054038107 0.073061 -0.06731372 -0.028376088
-0.08432386 -0.024722524 0.05008843 -0.028948018 -0.025096703 -0.010135426 -0.08035057 -0.005625106
0.06572897 -0.051322516 -0.049851287 0.032367058 0.0064077512 -0.03901988 -0.040108457 0.012202504
0.055160377 0.009208616 0.07364171 0.0038962737 -0.031031655 0.011587471 -0.09054376 0.07609956
0.06521664 -0.0016727028 0.024961133 0.06142197 -0.037499182 0.07755645 0.055622656 -0.044838153
-0.051348247 -0.048945084 -0.07988817 -0.08819322 0.042529553 0.044723175 0.076878406 0.012258872
-0.01725515 -0.04154674 -0.038557913 0.032890696 -0.060426895 -0.04062897 0.036730036 0.04447051
0.08127498 0.012097974 0.0320716 0.029362932 0.06391076 0.04618736 -0.012494152 -0.0238768
-0.010783964 0.050023306 0.05614295 0.0083120605 -0.035940018 -0.013737284 -0.07691254 0.017566554
0.06801678 -0.026324024 -0.043586228 0.07646565 0.08536114 0.08136908 -0.0683081 0.081862174
0.06504379 0.07163864 -0.011228646 -0.009980813 0.012402034 -0.056547854 0.06420236 -0.07855742
0.07082907 0.04569801 -0.046811495 -0.029176967 -0.061470743 0.058499858 0.05404881 -0.0018466901
0.059202418 0.075671636 0.027869433 0.027099429 0.03194449 -0.039892096 -0.032109503 0.045859538
0.047606938 0.01857757 0.005355984 0.049781676 -0.08129141 0.051799837 -0.05908346 -0.05038771
-0.070455894 0.031325188 -0.08334873 0.0061730295 0.017725639 -0.02127306 0.030642971 0.03312312
-0.07103457 -0.047253586 -0.009431407 0.08149298 0.021054385 -0.043233853 -0.040675554 0.021920994
-0.06998933 0.0125891175 -0.06702316 0.025095947 0.013448817 -0.03245109 -0.046615534 0.0140958335
0.0333972 0.07569661 0.041823324 0.07123909 -0.01365086 0.006991133 0.028954716 0.046796538
0.035563786 -0.027416607 0.027465131 -0.03521856 -0.07353607 0.012762928 -0.06795108 -0.058255482
-0.06597777 -0.0873926 -0.052627176 0.060396742 0.012284541 0.0077246875 -0.06776004 -0.027467795
00000000: 3488 b53d 4ff3 4fbd c6fc 063d 14e0 2ebd
00000010: 6cba ca3c be57 b1bd f913 89bc b636 2bbd
00000020: d6f5 0ebd aa17 a63d a8b7 623d 0842 9f3b
00000030: c39e 673d 10f1 2d3d 47cd a83d 33b1 8abd
00000040: e8a2 c43c 2f2b 2bbd 7013 b33c 66dd 043d
00000050: b839 1d3d bd72 443c 9828 5e3d 0501 183c
00000060: b3c0 24bd b0f4 17bd d37e 88bc 744e bd3c
00000070: 76e1 413d 6f89 98bc d05a fa3c 5a48 073c
00000080: 3224 b1bd 91b1 88bd b824 ecb9 4b9b c6bc
00000090: cb39 513a 9c6d 953d e5a1 68bd e1fb a73d
000000a0: e242 823d 7714 8a3d 60a4 fabc f8cf 3d3d
000000b0: e697 e6bc 3d44 043d 94d0 993c c032 b63d
000000c0: d632 39bd f953 903b 2883 7c3c a7ba 7e3c
000000d0: b9c1 813d 807a 5aba e4bb 42bd 60db abbd
000000e0: 0ea6 1e3d e66a 263d f32c 923d eb96 4bbd
000000f0: 8d52 87bd 5e9c 253d 789a 6ebc 6345 81bd
00000100: 5e4d 8fbd e154 953d ac7e 8f3d 6ca9 b13c
00000110: 662a 93bd ddfb 5dbd 9f1b fdb9 a630 b6bd
00000120: 07a2 a33d 37b5 9bbc 5768 26bd 8613 81bd
00000130: 3ad3 753d ca22 703d 61f3 8b3d 22d7 1a3d
00000140: fb9b 293b ec5b 94bd a3f0 a0bd 9a4d aabd
00000150: 6090 5abc 3628 603d 2598 5c3d b15c 293a
00000160: ea0e ecbc dd04 8ebd 0399 9ebd 1fd9 843d
00000170: ad13 06bd f05e 533c e400 19bd 3647 953d
00000180: 8898 993c 664e a3bd 786d bdbc 6293 aebd
00000190: 1057 5dbd 01a1 953d c7db 89bd f874 e8bc
000001a0: fdb1 acbd e486 cabc 8729 4d3d 6524 edbc
000001b0: 9a97 cdbc 0f0f 26bc d78e a4bd cf52 b8bb
000001c0: e99c 863d 8f37 52bd dd30 4cbd 5293 043d
000001d0: 1df8 d13b 4fd3 1fbd c448 24bd 03ed 473c
000001e0: d9ef 613d bcdf 163c 77d1 963d a058 7f3b
000001f0: 1936 febc 60d9 3d3c 026f b9bd 16da 9b3d
00000200: 4d90 853d 983e dbba 4a7b cc3c 9b95 7b3d
00000210: be98 19bd ebd5 9e3d 95d4 633d 36a8 37bd
00000220: 8a52 52bd a47a 48bd 699c a3bd a69e b4bd
00000230: 7833 2e3d a62f 373d 6d72 9d3d 70d9 483c
00000240: ac5a 8dbc ea2c 2abd e7ee 1dbd 65b8 063d
00000250: 3182 77bd 906a 26bd 3c72 163d b626 363d
00000260: 7f73 a63d 9536 463c 835d 033d 888a f03c
00000270: a5e3 823d f52e 3d3d 46b4 4cbc 4799 c3bc
00000280: 39af 30bc 3de5 4c3d 26f6 653d 4f2f 083c
00000290: d735 13bd 5812 61bc 5284 9dbd bce7 8f3c
000002a0: 624c 8b3d 7ba5 d7bc 7987 32bd 069a 9c3d
000002b0: d2d1 ae3d d5a4 a63d 1ee5 8bbd 5ba7 a73d
000002c0: ae35 853d 47b7 923d 5bf8 37bc 9086 23bc
000002d0: e731 4b3c b99e 67bd 877c 833d b6e2 a0bd
000002e0: d50e 913d d62d 3b3d 69bd 3fbd 8904 efbc
000002f0: bfc8 7bbd 8c9d 6f3d 4962 5d3d a30c f2ba
00000300: 3c7e 723d bbf9 9a3d 704e e43c 9fff dd3c
00000310: 3ad8 023d e565 23bd 4185 03bd 36d7 3b3d
00000320: 7eff 423d fd2f 983c 4081 af3b dfe7 4b3d
00000330: 1c7c a6bd 112c 543d 8001 72bd 5863 4ebd
00000340: 2e4b 90bd d74e 003d bdb2 aabd 2047 ca3b
00000350: 5c35 913c d744 aebc f806 fb3c 1cac 073d
00000360: 937a 91bd fa8c 41bd 3086 1abc cbe5 a63d
00000370: 3f7a ac3c fb15 31bd 699b 26bd a893 b33c
00000380: 9156 8fbd 9642 4e3c 7043 89bd 0496 cd3c
00000390: 6d58 5c3c 6feb 04bd eeef 3ebd 36f2 663c
000003a0: 81cb 083d d306 9b3d ef4e 2b3d cde5 913d
000003b0: dba7 5fbc e015 e53b 7132 ed3c baad 3f3d
000003c0: 55ab 113d cb98 e0bc 8efe e03c 5641 10bd
000003d0: 149a 96bd 9a1b 513c f029 8bbd 4d9d 6ebd
000003e0: 5a1f 87bd e4fa b2bd 988f 57bd 9362 773d
000003f0: 1945 493c 601f fd3b c7c5 8abd 2404 e1bc

fc2.weight f4 [9, 256]
-0.008232855 -0.0013671375 0.036203243 -0.0017428547 -0.05307336 0.011409552 0.017252255 -0.053697843
-0.011800446 0.035877515 -0.03156837 -0.05483355 0.01372667 -0.018009782 -0.056630284 -0.0060497695
-0.018982794 0.045636356 0.0042175357 0.041631874 -0.05228873 0.035458203 -0.013571869 -0.028463447
0.024860017 -0.04994562 0.039110254 -0.027657988 -0.02379779 -0.009800861 -0.029402979 0.05219949
-0.0371044 0.04789293 0.002235558 -0.03026538 -0.024731 -0.033811208 -0.031009734 -0.044096805
-0.043301802 -0.0503718 0.0012424873 0.0042047105 -0.052594736 0.054169193 0.026904756 -0.017570231
-0.0068499073 -0.029296009 0.053456314 0.04196802 -0.01888395 -0.03268327 -0.034682065 0.0002933815
-0.05359514 -0.016371809 0.034607448 -0.011256461 -0.04656193 0.049121693 0.002659677 0.0024988651
0.05624091 -0.061385363 -0.045984484 0.02291122 0.036477264 -0.017122202 -0.0077449987 0.017030528
-0.033595063 0.038192753 -0.057912096 -0.009511192 0.004968621 -0.0043119565 -0.013207637 -0.033632915
-0.008002094 -0.03122715 0.044812284 -0.019831857 -0.045473583 -0.056390762 0.038671464 -0.03497649
0.04852842 0.03526233 0.00534764 -0.016011402 -0.013401636 0.008330911 0.04263981 0.035015777
-0.003343463 0.018006697 -0.04272826 0.017558286 -0.013368927 -0.03588207 0.0030646683 0.038982518
-0.019837884 0.012329656 0.006973476 0.050250504 -0.0028688048 -0.03439969 -0.04840843 -0.047462933
0.047633663 0.047332175 -0.010249501 -0.04988451 0.050551746 -0.013335876 0.010996744 0.0017155284
-0.057431452 0.038082987 0.037379872 -0.027052835 0.053525995 -0.044970457 0.026758365 0.016392127
0.060914323 0.03183936 -0.022282915 0.008529953 -0.05250358 -0.010722779 0.038473025 -0.008164512
-0.04014126 0.028158635 0.03964371 0.045306403 -0.044999536 -0.029953174 -0.03298235 -0.056360383
-0.030234203 -0.042476825 -0.013294161 0.00872987 -0.04298138 -0.018568482 0.048424717 0.04817031
0.051324345 0.017265767 -0.045358106 0.009373717 0.02962326 0.012076654 -0.019035557 -0.047381546
0.055253673 0.049689468 0.034603197 0.035181943 -0.013891596 -0.01842324 0.008310273 -0.043523725
-0.008180456 -0.044657268 0.031020613 -0.019940933 -0.043657407 -0.0007548183 0.025765607 -0.032886587
-0.010714157 0.055295937 0.05408153 -0.037439477 -0.03984443 -0.048216417 0.050679035 -0.040224377
-0.033694275 -0.054391205 -0.033590626 -0.017265031 0.024315663 -0.0113917375 0.026425084 0.053142328
-0.04212837 0.035289317 0.0068048313 -0.0015098846 -0.03337515 0.041734986 0.023735143 0.0049621793
0.04038048 -0.013893299 -0.03504047 0.04834717 0.048456423 0.01935702 0.06281127 0.008321996
-0.003914319 0.018720843 -0.04275354 -0.010594539 -0.019929735 0.049165435 0.028581485 -0.050023347
-0.055989075 0.046955295 -0.013658553 -0.057232056 -0.010231886 -0.04196293 0.03288279 0.031429965
-0.006525092 -0.0007876974 0.054234546 -0.01802689 0.0012190174 -0.020401163 -0.015469581 0.024393346
0.02073608 -0.024244191 -0.04239141 0.046027847 -0.029214121 0.006013071 -0.023715505 0.05233069
0.04847709 -0.011490514 0.046079576 0.016861763 0.057180822 -0.024563165 0.011484721 -0.003243561
0.021655535 0.029909892 -0.040727317 -0.050175726 -0.017586747 0.0041507035 -0.0073421537 -0.025391174
00000000: 19e3 06bc 8631 b3ba da49 143d 8070 e4ba
00000010: 7463 59bd 21ef 3a3c 9a54 8d3c 45f2 5bbd
00000020: a856 41bc 4df4 123d d64d 01bd 2599 60bd
00000030: d4e5 603c 4089 93bc 28f5 67bd 253d c6bb
00000040: ce81 9bbc 30ed 3a3d 4133 8a3b 2f86 2a3d
00000050: b52c 56bd 9f3c 113d 8b5c 5ebc 2d2c e9bc
00000060: 3ca7 cb3c c793 4cbd 1332 203d 0193 e2bc
00000070: 95f3 c2bc ca93 20bc 84de f0bc 22cf 553d
00000080: c9fa 17bd 612b 443d 7082 123b 1aef f7bc
00000090: ab98 cabc 9f7d 0abd 2008 febc da9e 34bd
000000a0: 3b5d 31bd a952 4ebd f5da a23a abc7 893b
000000b0: 946d 57bd 84e0 5d3d 5d67 dc3c 72ef 8fbc
000000c0: 3075 e0bb 2ffe efbc 02f5 5a3d a9e6 2b3d
000000d0: 83b2 9abc e4de 05bd c80e 0ebd 00d1 9939
000000e0: 9486 5bbd 2c1e 86bc 8ac0 0d3d 056d 38bc
000000f0: b9b7 3ebd d433 493d fa4d 2e3b 00c4 233b
00000100: de5c 663d 386f 7bbd 3a5a 3cbd 50b0 bb3c
00000110: 2f69 153d dc43 8cbc c2c9 fdbb 9b83 8b3c
00000120: fa9a 09bd 0170 1c3d 3c35 6dbd d5d4 1bbc
00000130: d0cf a23b 504b 8dbb d864 58bc abc2 09bd
00000140: 371b 03bc 14d0 ffbc 168d 373d 6b76 a2bc
00000150: 8242 3abd 00fa 66bd f865 1e3d 8243 0fbd
00000160: bdc5 463d 3c6f 103d 413b af3b 582a 83bc
00000170: 8992 5bbc 607e 083c 15a7 2e3d b46c 0f3d
00000180: 001e 5bbb c882 933c d403 2fbd 65d6 8f3c
00000190: 5809 5bbc 14f9 12bd 9ad8 483b 22ac 1f3d
000001a0: 0f83 a2bc 5302 4a3c c281 e43b 79d3 4d3d
000001b0: 8f02 3cbb b0e6 0cbd eb47 46bd 7e68 42bd
000001c0: 841b 433d 62df 413d 86ed 27bc b353 4cbd
000001d0: 590f 4f3d b87e 5abc b02b 343c 95db e03a
000001e0: 3e3d 6bbd e8fc 1b3d a31b 193d e89d ddbc
000001f0: 133e 5b3d f132 38bd 5c34 db3c c848 863c
00000200: 4c81 793d fd69 023d a98a b6bc 37c1 0b3c
00000210: fe0d 57bd 98ae 2fbc e495 1d3d 72c4 05bc
00000220: 296b 24bd f0ac e63c 7161 223d 3593 393d
00000230: 6f51 38bd 5c60 f5bc 8018 07bd 25da 66bd
00000240: b8ad f7bc 2efc 2dbd c1cf 59bc bb07 0f3c
00000250: 3e0d 30bd ee1c 98bc ff58 463d 3b4e 453d
00000260: 7a39 523d f070 8d3c 6cc9 39bd 3894 193c
00000270: 7bac f23c 28dd 453c 75f0 9bbc 2713 42bd
00000280: ad51 623d 2f87 4b3d 15bc 0d3d f11a 103d
00000290: 9499 63bc 56ec 96bc d027 083c ef45 32bd
000002a0: 5207 06bc 8aea 36bd f11e fe3c 2b5b a3bc
000002b0: 1cd2 32bd 00df 45ba 6512 d33c 16b4 06bd
000002c0: 6e8a 2fbc fe7d 623d 9884 5d3d 235a 19bd
000002d0: ea33 23bd 947e 45bd d294 4f3d 51c2 24bd
000002e0: 0203 0abd 50c9 5ebd 5396 09bd 656f 8dbc
000002f0: a431 c73c 69a4 3abc 6b79 d83c c5ab 593d
00000300: cc8e 2cbd 888b 103d 10fb de3b 52e7 c5ba
00000310: 62b4 08bd 4ef2 2a3d 3470 c23c c799 a23b
00000320: 0166 253d b8a0 63bc 9986 0fbd af07 463d
00000330: 3e7a 463d 9d92 9e3c 32a3 803d fb58 083c
00000340: b043 80bb 745c 993c 561e 2fbd b894 2dbc
00000350: af43 a3bc b261 493d b823 ea3c 48e5 4cbd
00000360: cd54 65bd 3254 403d 20c8 5fbc 296c 6abd
00000370: a4a3 27bc 52e1 2bbd 1bb0 063d b5bc 003d
00000380: 70d0 d5bb 7a7d 4eba 0b25 5e3d 21ad 93bc
00000390: 70c7 9f3a 5720 a7bc 2074 7dbc 8ed4 c73c
000003a0: b6de a93c c19b c6bc 9da2 2dbd b287 3c3d
000003b0: 7452 efbc 4c09 c53b 0547 c2bc b558 563d
000003c0: ea8f 463d b542 3cbc f0bd 3c3d ae21 8a3c
000003d0: 7036 6a3d b138 c9bc 692a 3c3c ec91 54bb
000003e0: f366 b13c 9705 f53c b0d1 26bd 1085 4dbd
000003f0: 1512 90bc a002 883b 7396 f0bb 2701 d0bc

fc2.bias f4 [9]
-0.01627532 -0.020770539 -0.048940588 0.009887487 0.0063539892 -0.036960684 0.05535267 -0.047141813
0.013876753
00000000: d253 85bc fa26 aabc ed75 48bd 20ff 213c
00000010: 2035 d03b 1664 17bd 7bb9 623d c617 41bd
00000020: 525b 633c
